// -----// IR Dump After SodaKernelOutlining (soda-outline-bambu-code) //----- //
#map = affine_map<(d0, d1, d2, d3) -> (d1, d2, d3, d0)>
#map1 = affine_map<(d0, d1, d2, d3) -> (d0, d1, d2, d3)>
#map2 = affine_map<(d0, d1, d2, d3) -> (d3, d0, d1, d2)>
#map3 = affine_map<(d0, d1, d2, d3) -> (d3)>
#map4 = affine_map<(d0, d1) -> (d0, d1)>
#map5 = affine_map<(d0, d1) -> (d1)>
#map6 = affine_map<(d0, d1) -> (d0)>
module attributes {soda.container_module, tf.versions = {bad_consumers = [], min_consumer = 0 : i32, producer = 1482 : i32}} {
  memref.global "private" constant @__constant_5x5x1x1xf32 : memref<5x5x1x1xf32> = dense<[[[[… >
  memref.global "private" constant @__constant_1xf32 : memref<1xf32> = dense<0.000000e+00>
  memref.global "private" constant @__constant_1x256x8xf32 : memref<1x256x8xf32> = dense<"…">
  memref.global "private" constant @__constant_1x8x4xf32 : memref<1x8x4xf32> = dense<[[[… >
  memref.global "private" constant @__constant_1x4x2xf32 : memref<1x4x2xf32> = dense<[[[0.147334099, -0.553795576], [0.135106802, -0.970039606], [0.585191488, -0.218065262], [0.381030798, 0.867018461]]]>
  memref.global "private" constant @__constant_8xf32 : memref<8xf32> = dense<0.000000e+00>
  memref.global "private" constant @__constant_4xf32 : memref<4xf32> = dense<0.000000e+00>
  memref.global "private" constant @__constant_2xf32 : memref<2xf32> = dense<0.000000e+00>
  func.func @main(%arg0: memref<4x32x32x1xf32>, %arg1: memref<4x2xf32>) attributes {tf.entry_function = {control_outputs = "", inputs = "x1", outputs = "Identity"}} {
    %cst = arith.constant 0.000000e+00 : f32
    %cst_0 = arith.constant 3.40282347E+38 : f32
    %cst_1 = arith.constant 1.000000e+00 : f32
    %0 = memref.get_global @__constant_2xf32 : memref<2xf32>
    %1 = memref.get_global @__constant_4xf32 : memref<4xf32>
    %2 = memref.get_global @__constant_8xf32 : memref<8xf32>
    %3 = memref.get_global @__constant_1x4x2xf32 : memref<1x4x2xf32>
    %4 = memref.get_global @__constant_1x8x4xf32 : memref<1x8x4xf32>
    %5 = memref.get_global @__constant_1x256x8xf32 : memref<1x256x8xf32>
    %6 = memref.get_global @__constant_1xf32 : memref<1xf32>
    %7 = memref.get_global @__constant_5x5x1x1xf32 : memref<5x5x1x1xf32>
    %alloc = memref.alloc() {alignment = 64 : i64} : memref<1x5x5x1xf32>
    linalg.generic {indexing_maps = [#map, #map1], iterator_types = ["parallel", "parallel", "parallel", "parallel"]} ins(%7 : memref<5x5x1x1xf32>) outs(%alloc : memref<1x5x5x1xf32>) {
    ^bb0(%in: f32, %out: f32):
      linalg.yield %in : f32
    }
    %alloc_2 = memref.alloc() {alignment = 64 : i64} : memref<4x35x35x1xf32>
    linalg.fill ins(%cst : f32) outs(%alloc_2 : memref<4x35x35x1xf32>)
    %alloc_3 = memref.alloc() {alignment = 64 : i64} : memref<4x35x35x1xf32>
    memref.copy %alloc_2, %alloc_3 : memref<4x35x35x1xf32> to memref<4x35x35x1xf32>
    memref.dealloc %alloc_2 : memref<4x35x35x1xf32>
    %subview = memref.subview %alloc_3[0, 1, 1, 0] [4, 32, 32, 1] [1, 1, 1, 1] : memref<4x35x35x1xf32> to memref<4x32x32x1xf32, strided<[1225, 35, 1, 1], offset: 36>>
    memref.copy %arg0, %subview : memref<4x32x32x1xf32> to memref<4x32x32x1xf32, strided<[1225, 35, 1, 1], offset: 36>>
    %alloc_4 = memref.alloc() {alignment = 64 : i64} : memref<5x5x1x1xf32>
    linalg.generic {indexing_maps = [#map2, #map1], iterator_types = ["parallel", "parallel", "parallel", "parallel"]} ins(%alloc : memref<1x5x5x1xf32>) outs(%alloc_4 : memref<5x5x1x1xf32>) {
    ^bb0(%in: f32, %out: f32):
      linalg.yield %in : f32
    }
    memref.dealloc %alloc : memref<1x5x5x1xf32>
    %alloc_5 = memref.alloc() {alignment = 64 : i64} : memref<4x16x16x1xf32>
    linalg.fill ins(%cst : f32) outs(%alloc_5 : memref<4x16x16x1xf32>)
    %alloc_6 = memref.alloc() {alignment = 64 : i64} : memref<4x16x16x1xf32>
    memref.copy %alloc_5, %alloc_6 : memref<4x16x16x1xf32> to memref<4x16x16x1xf32>
    memref.dealloc %alloc_5 : memref<4x16x16x1xf32>
    linalg.conv_2d_nhwc_hwcf {dilations = dense<1> : tensor<2xi64>, strides = dense<2> : tensor<2xi64>} ins(%alloc_3, %alloc_4 : memref<4x35x35x1xf32>, memref<5x5x1x1xf32>) outs(%alloc_6 : memref<4x16x16x1xf32>)
    memref.dealloc %alloc_4 : memref<5x5x1x1xf32>
    memref.dealloc %alloc_3 : memref<4x35x35x1xf32>
    %alloc_7 = memref.alloc() {alignment = 64 : i64} : memref<4x16x16x1xf32>
    linalg.generic {indexing_maps = [#map3, #map1, #map1], iterator_types = ["parallel", "parallel", "parallel", "parallel"]} ins(%6, %alloc_6 : memref<1xf32>, memref<4x16x16x1xf32>) outs(%alloc_7 : memref<4x16x16x1xf32>) {
    ^bb0(%in: f32, %in_32: f32, %out: f32):
      %8 = arith.addf %in, %in_32 : f32
      linalg.yield %8 : f32
    }
    memref.dealloc %alloc_6 : memref<4x16x16x1xf32>
    %alloc_8 = memref.alloc() {alignment = 64 : i64} : memref<4x16x16x1xf32>
    linalg.generic {indexing_maps = [#map1, #map1], iterator_types = ["parallel", "parallel", "parallel", "parallel"]} ins(%alloc_7 : memref<4x16x16x1xf32>) outs(%alloc_8 : memref<4x16x16x1xf32>) {
    ^bb0(%in: f32, %out: f32):
      %8 = arith.minf %in, %cst_0 : f32
      %9 = arith.maxf %8, %cst : f32
      linalg.yield %9 : f32
    }
    memref.dealloc %alloc_7 : memref<4x16x16x1xf32>
    %collapse_shape = memref.collapse_shape %alloc_8 [[0], [1, 2, 3]] : memref<4x16x16x1xf32> into memref<4x256xf32>
    %expand_shape = memref.expand_shape %collapse_shape [[0, 1], [2]] : memref<4x256xf32> into memref<1x4x256xf32>
    %alloc_9 = memref.alloc() {alignment = 64 : i64} : memref<1x4x8xf32>
    linalg.fill ins(%cst : f32) outs(%alloc_9 : memref<1x4x8xf32>)
    %alloc_10 = memref.alloc() {alignment = 64 : i64} : memref<1x4x8xf32>
    memref.copy %alloc_9, %alloc_10 : memref<1x4x8xf32> to memref<1x4x8xf32>
    memref.dealloc %alloc_9 : memref<1x4x8xf32>
    linalg.batch_matmul ins(%expand_shape, %5 : memref<1x4x256xf32>, memref<1x256x8xf32>) outs(%alloc_10 : memref<1x4x8xf32>)
    memref.dealloc %alloc_8 : memref<4x16x16x1xf32>
    %collapse_shape_11 = memref.collapse_shape %alloc_10 [[0, 1], [2]] : memref<1x4x8xf32> into memref<4x8xf32>
    %alloc_12 = memref.alloc() {alignment = 64 : i64} : memref<4x8xf32>
    linalg.generic {indexing_maps = [#map4, #map5, #map4], iterator_types = ["parallel", "parallel"]} ins(%collapse_shape_11, %2 : memref<4x8xf32>, memref<8xf32>) outs(%alloc_12 : memref<4x8xf32>) {
    ^bb0(%in: f32, %in_32: f32, %out: f32):
      %8 = arith.addf %in, %in_32 : f32
      linalg.yield %8 : f32
    }
    memref.dealloc %alloc_10 : memref<1x4x8xf32>
    %alloc_13 = memref.alloc() {alignment = 64 : i64} : memref<4x8xf32>
    linalg.generic {indexing_maps = [#map4, #map4], iterator_types = ["parallel", "parallel"]} ins(%alloc_12 : memref<4x8xf32>) outs(%alloc_13 : memref<4x8xf32>) {
    ^bb0(%in: f32, %out: f32):
      %8 = arith.minf %in, %cst_0 : f32
      %9 = arith.maxf %8, %cst : f32
      linalg.yield %9 : f32
    }
    memref.dealloc %alloc_12 : memref<4x8xf32>
    %expand_shape_14 = memref.expand_shape %alloc_13 [[0, 1], [2]] : memref<4x8xf32> into memref<1x4x8xf32>
    %alloc_15 = memref.alloc() {alignment = 64 : i64} : memref<1x4x4xf32>
    linalg.fill ins(%cst : f32) outs(%alloc_15 : memref<1x4x4xf32>)
    %alloc_16 = memref.alloc() {alignment = 64 : i64} : memref<1x4x4xf32>
    memref.copy %alloc_15, %alloc_16 : memref<1x4x4xf32> to memref<1x4x4xf32>
    memref.dealloc %alloc_15 : memref<1x4x4xf32>
    soda.launch_func  @main_kernel::@main_kernel args(%expand_shape_14 : memref<1x4x8xf32>, %4 : memref<1x8x4xf32>, %alloc_16 : memref<1x4x4xf32>)
    memref.dealloc %alloc_13 : memref<4x8xf32>
    %collapse_shape_17 = memref.collapse_shape %alloc_16 [[0, 1], [2]] : memref<1x4x4xf32> into memref<4x4xf32>
    %alloc_18 = memref.alloc() {alignment = 64 : i64} : memref<4x4xf32>
    linalg.generic {indexing_maps = [#map4, #map5, #map4], iterator_types = ["parallel", "parallel"]} ins(%collapse_shape_17, %1 : memref<4x4xf32>, memref<4xf32>) outs(%alloc_18 : memref<4x4xf32>) {
    ^bb0(%in: f32, %in_32: f32, %out: f32):
      %8 = arith.addf %in, %in_32 : f32
      linalg.yield %8 : f32
    }
    memref.dealloc %alloc_16 : memref<1x4x4xf32>
    %alloc_19 = memref.alloc() {alignment = 64 : i64} : memref<4x4xf32>
    linalg.generic {indexing_maps = [#map4, #map4], iterator_types = ["parallel", "parallel"]} ins(%alloc_18 : memref<4x4xf32>) outs(%alloc_19 : memref<4x4xf32>) {
    ^bb0(%in: f32, %out: f32):
      %8 = arith.minf %in, %cst_0 : f32
      %9 = arith.maxf %8, %cst : f32
      linalg.yield %9 : f32
    }
    memref.dealloc %alloc_18 : memref<4x4xf32>
    %expand_shape_20 = memref.expand_shape %alloc_19 [[0, 1], [2]] : memref<4x4xf32> into memref<1x4x4xf32>
    %alloc_21 = memref.alloc() {alignment = 64 : i64} : memref<1x4x2xf32>
    linalg.fill ins(%cst : f32) outs(%alloc_21 : memref<1x4x2xf32>)
    %alloc_22 = memref.alloc() {alignment = 64 : i64} : memref<1x4x2xf32>
    memref.copy %alloc_21, %alloc_22 : memref<1x4x2xf32> to memref<1x4x2xf32>
    memref.dealloc %alloc_21 : memref<1x4x2xf32>
    linalg.batch_matmul ins(%expand_shape_20, %3 : memref<1x4x4xf32>, memref<1x4x2xf32>) outs(%alloc_22 : memref<1x4x2xf32>)
    memref.dealloc %alloc_19 : memref<4x4xf32>
    %collapse_shape_23 = memref.collapse_shape %alloc_22 [[0, 1], [2]] : memref<1x4x2xf32> into memref<4x2xf32>
    %alloc_24 = memref.alloc() {alignment = 64 : i64} : memref<4x2xf32>
    linalg.generic {indexing_maps = [#map4, #map5, #map4], iterator_types = ["parallel", "parallel"]} ins(%collapse_shape_23, %0 : memref<4x2xf32>, memref<2xf32>) outs(%alloc_24 : memref<4x2xf32>) {
    ^bb0(%in: f32, %in_32: f32, %out: f32):
      %8 = arith.addf %in, %in_32 : f32
      linalg.yield %8 : f32
    }
    memref.dealloc %alloc_22 : memref<1x4x2xf32>
    %alloc_25 = memref.alloc() {alignment = 64 : i64} : memref<4x2xf32>
    linalg.generic {indexing_maps = [#map4, #map4], iterator_types = ["parallel", "parallel"]} ins(%alloc_24 : memref<4x2xf32>) outs(%alloc_25 : memref<4x2xf32>) {
    ^bb0(%in: f32, %out: f32):
      %8 = math.exp %in : f32
      linalg.yield %8 : f32
    }
    memref.dealloc %alloc_24 : memref<4x2xf32>
    %alloc_26 = memref.alloc() {alignment = 64 : i64} : memref<4xf32>
    linalg.fill ins(%cst : f32) outs(%alloc_26 : memref<4xf32>)
    %alloc_27 = memref.alloc() {alignment = 64 : i64} : memref<4xf32>
    memref.copy %alloc_26, %alloc_27 : memref<4xf32> to memref<4xf32>
    memref.dealloc %alloc_26 : memref<4xf32>
    linalg.generic {indexing_maps = [#map4, #map6], iterator_types = ["parallel", "reduction"]} ins(%alloc_25 : memref<4x2xf32>) outs(%alloc_27 : memref<4xf32>) {
    ^bb0(%in: f32, %out: f32):
      %8 = arith.addf %in, %out : f32
      linalg.yield %8 : f32
    }
    %expand_shape_28 = memref.expand_shape %alloc_27 [[0, 1]] : memref<4xf32> into memref<4x1xf32>
    %alloc_29 = memref.alloc() {alignment = 64 : i64} : memref<4x1xf32>
    linalg.generic {indexing_maps = [#map4, #map4], iterator_types = ["parallel", "parallel"]} ins(%expand_shape_28 : memref<4x1xf32>) outs(%alloc_29 : memref<4x1xf32>) {
    ^bb0(%in: f32, %out: f32):
      %8 = arith.divf %cst_1, %in : f32
      linalg.yield %8 : f32
    }
    memref.dealloc %alloc_27 : memref<4xf32>
    %collapse_shape_30 = memref.collapse_shape %alloc_29 [[0, 1]] : memref<4x1xf32> into memref<4xf32>
    %alloc_31 = memref.alloc() {alignment = 64 : i64} : memref<4x2xf32>
    linalg.generic {indexing_maps = [#map4, #map6, #map4], iterator_types = ["parallel", "parallel"]} ins(%alloc_25, %collapse_shape_30 : memref<4x2xf32>, memref<4xf32>) outs(%alloc_31 : memref<4x2xf32>) {
    ^bb0(%in: f32, %in_32: f32, %out: f32):
      %8 = arith.mulf %in, %in_32 : f32
      linalg.yield %8 : f32
    }
    memref.dealloc %alloc_29 : memref<4x1xf32>
    memref.dealloc %alloc_25 : memref<4x2xf32>
    memref.copy %alloc_31, %arg1 : memref<4x2xf32> to memref<4x2xf32>
    return
  }
  soda.module @main_kernel {
    soda.func @main_kernel(%arg0: memref<1x4x8xf32>, %arg1: memref<1x8x4xf32>, %arg2: memref<1x4x4xf32>) kernel {
      cf.br ^bb1
    ^bb1:  // pred: ^bb0
      linalg.batch_matmul ins(%arg0, %arg1 : memref<1x4x8xf32>, memref<1x8x4xf32>) outs(%arg2 : memref<1x4x4xf32>)
      soda.return
    }
  }
}


// -----// IR Dump After TestArgumentsToXML (soda-extract-arguments-to-xml) //----- //
#map = affine_map<(d0, d1, d2, d3) -> (d1, d2, d3, d0)>
#map1 = affine_map<(d0, d1, d2, d3) -> (d0, d1, d2, d3)>
#map2 = affine_map<(d0, d1, d2, d3) -> (d3, d0, d1, d2)>
#map3 = affine_map<(d0, d1, d2, d3) -> (d3)>
#map4 = affine_map<(d0, d1) -> (d0, d1)>
#map5 = affine_map<(d0, d1) -> (d1)>
#map6 = affine_map<(d0, d1) -> (d0)>
module attributes {soda.container_module, tf.versions = {bad_consumers = [], min_consumer = 0 : i32, producer = 1482 : i32}} {
  memref.global "private" constant @__constant_5x5x1x1xf32 : memref<5x5x1x1xf32> = dense<[[[[… >
  memref.global "private" constant @__constant_1xf32 : memref<1xf32> = dense<0.000000e+00>
  memref.global "private" constant @__constant_1x256x8xf32 : memref<1x256x8xf32> = dense<"…">
  memref.global "private" constant @__constant_1x8x4xf32 : memref<1x8x4xf32> = dense<[[[… >
  memref.global "private" constant @__constant_1x4x2xf32 : memref<1x4x2xf32> = dense<[[[0.147334099, -0.553795576], [0.135106802, -0.970039606], [0.585191488, -0.218065262], [0.381030798, 0.867018461]]]>
  memref.global "private" constant @__constant_8xf32 : memref<8xf32> = dense<0.000000e+00>
  memref.global "private" constant @__constant_4xf32 : memref<4xf32> = dense<0.000000e+00>
  memref.global "private" constant @__constant_2xf32 : memref<2xf32> = dense<0.000000e+00>
  func.func @main(%arg0: memref<4x32x32x1xf32>, %arg1: memref<4x2xf32>) attributes {tf.entry_function = {control_outputs = "", inputs = "x1", outputs = "Identity"}} {
    %cst = arith.constant 0.000000e+00 : f32
    %cst_0 = arith.constant 3.40282347E+38 : f32
    %cst_1 = arith.constant 1.000000e+00 : f32
    %0 = memref.get_global @__constant_2xf32 : memref<2xf32>
    %1 = memref.get_global @__constant_4xf32 : memref<4xf32>
    %2 = memref.get_global @__constant_8xf32 : memref<8xf32>
    %3 = memref.get_global @__constant_1x4x2xf32 : memref<1x4x2xf32>
    %4 = memref.get_global @__constant_1x8x4xf32 : memref<1x8x4xf32>
    %5 = memref.get_global @__constant_1x256x8xf32 : memref<1x256x8xf32>
    %6 = memref.get_global @__constant_1xf32 : memref<1xf32>
    %7 = memref.get_global @__constant_5x5x1x1xf32 : memref<5x5x1x1xf32>
    %alloc = memref.alloc() {alignment = 64 : i64} : memref<1x5x5x1xf32>
    linalg.generic {indexing_maps = [#map, #map1], iterator_types = ["parallel", "parallel", "parallel", "parallel"]} ins(%7 : memref<5x5x1x1xf32>) outs(%alloc : memref<1x5x5x1xf32>) {
    ^bb0(%in: f32, %out: f32):
      linalg.yield %in : f32
    }
    %alloc_2 = memref.alloc() {alignment = 64 : i64} : memref<4x35x35x1xf32>
    linalg.fill ins(%cst : f32) outs(%alloc_2 : memref<4x35x35x1xf32>)
    %alloc_3 = memref.alloc() {alignment = 64 : i64} : memref<4x35x35x1xf32>
    memref.copy %alloc_2, %alloc_3 : memref<4x35x35x1xf32> to memref<4x35x35x1xf32>
    memref.dealloc %alloc_2 : memref<4x35x35x1xf32>
    %subview = memref.subview %alloc_3[0, 1, 1, 0] [4, 32, 32, 1] [1, 1, 1, 1] : memref<4x35x35x1xf32> to memref<4x32x32x1xf32, strided<[1225, 35, 1, 1], offset: 36>>
    memref.copy %arg0, %subview : memref<4x32x32x1xf32> to memref<4x32x32x1xf32, strided<[1225, 35, 1, 1], offset: 36>>
    %alloc_4 = memref.alloc() {alignment = 64 : i64} : memref<5x5x1x1xf32>
    linalg.generic {indexing_maps = [#map2, #map1], iterator_types = ["parallel", "parallel", "parallel", "parallel"]} ins(%alloc : memref<1x5x5x1xf32>) outs(%alloc_4 : memref<5x5x1x1xf32>) {
    ^bb0(%in: f32, %out: f32):
      linalg.yield %in : f32
    }
    memref.dealloc %alloc : memref<1x5x5x1xf32>
    %alloc_5 = memref.alloc() {alignment = 64 : i64} : memref<4x16x16x1xf32>
    linalg.fill ins(%cst : f32) outs(%alloc_5 : memref<4x16x16x1xf32>)
    %alloc_6 = memref.alloc() {alignment = 64 : i64} : memref<4x16x16x1xf32>
    memref.copy %alloc_5, %alloc_6 : memref<4x16x16x1xf32> to memref<4x16x16x1xf32>
    memref.dealloc %alloc_5 : memref<4x16x16x1xf32>
    linalg.conv_2d_nhwc_hwcf {dilations = dense<1> : tensor<2xi64>, strides = dense<2> : tensor<2xi64>} ins(%alloc_3, %alloc_4 : memref<4x35x35x1xf32>, memref<5x5x1x1xf32>) outs(%alloc_6 : memref<4x16x16x1xf32>)
    memref.dealloc %alloc_4 : memref<5x5x1x1xf32>
    memref.dealloc %alloc_3 : memref<4x35x35x1xf32>
    %alloc_7 = memref.alloc() {alignment = 64 : i64} : memref<4x16x16x1xf32>
    linalg.generic {indexing_maps = [#map3, #map1, #map1], iterator_types = ["parallel", "parallel", "parallel", "parallel"]} ins(%6, %alloc_6 : memref<1xf32>, memref<4x16x16x1xf32>) outs(%alloc_7 : memref<4x16x16x1xf32>) {
    ^bb0(%in: f32, %in_32: f32, %out: f32):
      %8 = arith.addf %in, %in_32 : f32
      linalg.yield %8 : f32
    }
    memref.dealloc %alloc_6 : memref<4x16x16x1xf32>
    %alloc_8 = memref.alloc() {alignment = 64 : i64} : memref<4x16x16x1xf32>
    linalg.generic {indexing_maps = [#map1, #map1], iterator_types = ["parallel", "parallel", "parallel", "parallel"]} ins(%alloc_7 : memref<4x16x16x1xf32>) outs(%alloc_8 : memref<4x16x16x1xf32>) {
    ^bb0(%in: f32, %out: f32):
      %8 = arith.minf %in, %cst_0 : f32
      %9 = arith.maxf %8, %cst : f32
      linalg.yield %9 : f32
    }
    memref.dealloc %alloc_7 : memref<4x16x16x1xf32>
    %collapse_shape = memref.collapse_shape %alloc_8 [[0], [1, 2, 3]] : memref<4x16x16x1xf32> into memref<4x256xf32>
    %expand_shape = memref.expand_shape %collapse_shape [[0, 1], [2]] : memref<4x256xf32> into memref<1x4x256xf32>
    %alloc_9 = memref.alloc() {alignment = 64 : i64} : memref<1x4x8xf32>
    linalg.fill ins(%cst : f32) outs(%alloc_9 : memref<1x4x8xf32>)
    %alloc_10 = memref.alloc() {alignment = 64 : i64} : memref<1x4x8xf32>
    memref.copy %alloc_9, %alloc_10 : memref<1x4x8xf32> to memref<1x4x8xf32>
    memref.dealloc %alloc_9 : memref<1x4x8xf32>
    linalg.batch_matmul ins(%expand_shape, %5 : memref<1x4x256xf32>, memref<1x256x8xf32>) outs(%alloc_10 : memref<1x4x8xf32>)
    memref.dealloc %alloc_8 : memref<4x16x16x1xf32>
    %collapse_shape_11 = memref.collapse_shape %alloc_10 [[0, 1], [2]] : memref<1x4x8xf32> into memref<4x8xf32>
    %alloc_12 = memref.alloc() {alignment = 64 : i64} : memref<4x8xf32>
    linalg.generic {indexing_maps = [#map4, #map5, #map4], iterator_types = ["parallel", "parallel"]} ins(%collapse_shape_11, %2 : memref<4x8xf32>, memref<8xf32>) outs(%alloc_12 : memref<4x8xf32>) {
    ^bb0(%in: f32, %in_32: f32, %out: f32):
      %8 = arith.addf %in, %in_32 : f32
      linalg.yield %8 : f32
    }
    memref.dealloc %alloc_10 : memref<1x4x8xf32>
    %alloc_13 = memref.alloc() {alignment = 64 : i64} : memref<4x8xf32>
    linalg.generic {indexing_maps = [#map4, #map4], iterator_types = ["parallel", "parallel"]} ins(%alloc_12 : memref<4x8xf32>) outs(%alloc_13 : memref<4x8xf32>) {
    ^bb0(%in: f32, %out: f32):
      %8 = arith.minf %in, %cst_0 : f32
      %9 = arith.maxf %8, %cst : f32
      linalg.yield %9 : f32
    }
    memref.dealloc %alloc_12 : memref<4x8xf32>
    %expand_shape_14 = memref.expand_shape %alloc_13 [[0, 1], [2]] : memref<4x8xf32> into memref<1x4x8xf32>
    %alloc_15 = memref.alloc() {alignment = 64 : i64} : memref<1x4x4xf32>
    linalg.fill ins(%cst : f32) outs(%alloc_15 : memref<1x4x4xf32>)
    %alloc_16 = memref.alloc() {alignment = 64 : i64} : memref<1x4x4xf32>
    memref.copy %alloc_15, %alloc_16 : memref<1x4x4xf32> to memref<1x4x4xf32>
    memref.dealloc %alloc_15 : memref<1x4x4xf32>
    soda.launch_func  @main_kernel::@main_kernel args(%expand_shape_14 : memref<1x4x8xf32>, %4 : memref<1x8x4xf32>, %alloc_16 : memref<1x4x4xf32>)
    memref.dealloc %alloc_13 : memref<4x8xf32>
    %collapse_shape_17 = memref.collapse_shape %alloc_16 [[0, 1], [2]] : memref<1x4x4xf32> into memref<4x4xf32>
    %alloc_18 = memref.alloc() {alignment = 64 : i64} : memref<4x4xf32>
    linalg.generic {indexing_maps = [#map4, #map5, #map4], iterator_types = ["parallel", "parallel"]} ins(%collapse_shape_17, %1 : memref<4x4xf32>, memref<4xf32>) outs(%alloc_18 : memref<4x4xf32>) {
    ^bb0(%in: f32, %in_32: f32, %out: f32):
      %8 = arith.addf %in, %in_32 : f32
      linalg.yield %8 : f32
    }
    memref.dealloc %alloc_16 : memref<1x4x4xf32>
    %alloc_19 = memref.alloc() {alignment = 64 : i64} : memref<4x4xf32>
    linalg.generic {indexing_maps = [#map4, #map4], iterator_types = ["parallel", "parallel"]} ins(%alloc_18 : memref<4x4xf32>) outs(%alloc_19 : memref<4x4xf32>) {
    ^bb0(%in: f32, %out: f32):
      %8 = arith.minf %in, %cst_0 : f32
      %9 = arith.maxf %8, %cst : f32
      linalg.yield %9 : f32
    }
    memref.dealloc %alloc_18 : memref<4x4xf32>
    %expand_shape_20 = memref.expand_shape %alloc_19 [[0, 1], [2]] : memref<4x4xf32> into memref<1x4x4xf32>
    %alloc_21 = memref.alloc() {alignment = 64 : i64} : memref<1x4x2xf32>
    linalg.fill ins(%cst : f32) outs(%alloc_21 : memref<1x4x2xf32>)
    %alloc_22 = memref.alloc() {alignment = 64 : i64} : memref<1x4x2xf32>
    memref.copy %alloc_21, %alloc_22 : memref<1x4x2xf32> to memref<1x4x2xf32>
    memref.dealloc %alloc_21 : memref<1x4x2xf32>
    linalg.batch_matmul ins(%expand_shape_20, %3 : memref<1x4x4xf32>, memref<1x4x2xf32>) outs(%alloc_22 : memref<1x4x2xf32>)
    memref.dealloc %alloc_19 : memref<4x4xf32>
    %collapse_shape_23 = memref.collapse_shape %alloc_22 [[0, 1], [2]] : memref<1x4x2xf32> into memref<4x2xf32>
    %alloc_24 = memref.alloc() {alignment = 64 : i64} : memref<4x2xf32>
    linalg.generic {indexing_maps = [#map4, #map5, #map4], iterator_types = ["parallel", "parallel"]} ins(%collapse_shape_23, %0 : memref<4x2xf32>, memref<2xf32>) outs(%alloc_24 : memref<4x2xf32>) {
    ^bb0(%in: f32, %in_32: f32, %out: f32):
      %8 = arith.addf %in, %in_32 : f32
      linalg.yield %8 : f32
    }
    memref.dealloc %alloc_22 : memref<1x4x2xf32>
    %alloc_25 = memref.alloc() {alignment = 64 : i64} : memref<4x2xf32>
    linalg.generic {indexing_maps = [#map4, #map4], iterator_types = ["parallel", "parallel"]} ins(%alloc_24 : memref<4x2xf32>) outs(%alloc_25 : memref<4x2xf32>) {
    ^bb0(%in: f32, %out: f32):
      %8 = math.exp %in : f32
      linalg.yield %8 : f32
    }
    memref.dealloc %alloc_24 : memref<4x2xf32>
    %alloc_26 = memref.alloc() {alignment = 64 : i64} : memref<4xf32>
    linalg.fill ins(%cst : f32) outs(%alloc_26 : memref<4xf32>)
    %alloc_27 = memref.alloc() {alignment = 64 : i64} : memref<4xf32>
    memref.copy %alloc_26, %alloc_27 : memref<4xf32> to memref<4xf32>
    memref.dealloc %alloc_26 : memref<4xf32>
    linalg.generic {indexing_maps = [#map4, #map6], iterator_types = ["parallel", "reduction"]} ins(%alloc_25 : memref<4x2xf32>) outs(%alloc_27 : memref<4xf32>) {
    ^bb0(%in: f32, %out: f32):
      %8 = arith.addf %in, %out : f32
      linalg.yield %8 : f32
    }
    %expand_shape_28 = memref.expand_shape %alloc_27 [[0, 1]] : memref<4xf32> into memref<4x1xf32>
    %alloc_29 = memref.alloc() {alignment = 64 : i64} : memref<4x1xf32>
    linalg.generic {indexing_maps = [#map4, #map4], iterator_types = ["parallel", "parallel"]} ins(%expand_shape_28 : memref<4x1xf32>) outs(%alloc_29 : memref<4x1xf32>) {
    ^bb0(%in: f32, %out: f32):
      %8 = arith.divf %cst_1, %in : f32
      linalg.yield %8 : f32
    }
    memref.dealloc %alloc_27 : memref<4xf32>
    %collapse_shape_30 = memref.collapse_shape %alloc_29 [[0, 1]] : memref<4x1xf32> into memref<4xf32>
    %alloc_31 = memref.alloc() {alignment = 64 : i64} : memref<4x2xf32>
    linalg.generic {indexing_maps = [#map4, #map6, #map4], iterator_types = ["parallel", "parallel"]} ins(%alloc_25, %collapse_shape_30 : memref<4x2xf32>, memref<4xf32>) outs(%alloc_31 : memref<4x2xf32>) {
    ^bb0(%in: f32, %in_32: f32, %out: f32):
      %8 = arith.mulf %in, %in_32 : f32
      linalg.yield %8 : f32
    }
    memref.dealloc %alloc_29 : memref<4x1xf32>
    memref.dealloc %alloc_25 : memref<4x2xf32>
    memref.copy %alloc_31, %arg1 : memref<4x2xf32> to memref<4x2xf32>
    return
  }
  soda.module @main_kernel {
    soda.func @main_kernel(%arg0: memref<1x4x8xf32>, %arg1: memref<1x8x4xf32>, %arg2: memref<1x4x4xf32>) kernel {
      cf.br ^bb1
    ^bb1:  // pred: ^bb0
      linalg.batch_matmul ins(%arg0, %arg1 : memref<1x4x8xf32>, memref<1x8x4xf32>) outs(%arg2 : memref<1x4x4xf32>)
      soda.return
    }
  }
}


// -----// IR Dump After SodaKernelGeneration (soda-generate-bambu-accelcode) //----- //
module attributes {soda.bambu.container_module, soda.container_module, tf.versions = {bad_consumers = [], min_consumer = 0 : i32, producer = 1482 : i32}} {
  func.func @main_kernel(%arg0: memref<1x4x8xf32> {llvm.noalias}, %arg1: memref<1x8x4xf32> {llvm.noalias}, %arg2: memref<1x4x4xf32> {llvm.noalias}) {
    cf.br ^bb1
  ^bb1:  // pred: ^bb0
    linalg.batch_matmul ins(%arg0, %arg1 : memref<1x4x8xf32>, memref<1x8x4xf32>) outs(%arg2 : memref<1x4x4xf32>)
    return
  }
}


// -----// IR Dump After LinalgLowerToAffineLoops (convert-linalg-to-affine-loops) //----- //
func.func @main_kernel(%arg0: memref<1x4x8xf32> {llvm.noalias}, %arg1: memref<1x8x4xf32> {llvm.noalias}, %arg2: memref<1x4x4xf32> {llvm.noalias}) {
  cf.br ^bb1
^bb1:  // pred: ^bb0
  affine.for %arg3 = 0 to 1 {
    affine.for %arg4 = 0 to 4 {
      affine.for %arg5 = 0 to 4 {
        affine.for %arg6 = 0 to 8 {
          %0 = affine.load %arg0[%arg3, %arg4, %arg6] : memref<1x4x8xf32>
          %1 = affine.load %arg1[%arg3, %arg6, %arg5] : memref<1x8x4xf32>
          %2 = affine.load %arg2[%arg3, %arg4, %arg5] : memref<1x4x4xf32>
          %3 = arith.mulf %0, %1 : f32
          %4 = arith.addf %2, %3 : f32
          affine.store %4, %arg2[%arg3, %arg4, %arg5] : memref<1x4x4xf32>
        }
      }
    }
  }
  return
}

// -----// IR Dump After ExpandStridedMetadata (expand-strided-metadata) //----- //
module attributes {soda.bambu.container_module, soda.container_module, tf.versions = {bad_consumers = [], min_consumer = 0 : i32, producer = 1482 : i32}} {
  func.func @main_kernel(%arg0: memref<1x4x8xf32> {llvm.noalias}, %arg1: memref<1x8x4xf32> {llvm.noalias}, %arg2: memref<1x4x4xf32> {llvm.noalias}) {
    cf.br ^bb1
  ^bb1:  // pred: ^bb0
    affine.for %arg3 = 0 to 1 {
      affine.for %arg4 = 0 to 4 {
        affine.for %arg5 = 0 to 4 {
          affine.for %arg6 = 0 to 8 {
            %0 = affine.load %arg0[%arg3, %arg4, %arg6] : memref<1x4x8xf32>
            %1 = affine.load %arg1[%arg3, %arg6, %arg5] : memref<1x8x4xf32>
            %2 = affine.load %arg2[%arg3, %arg4, %arg5] : memref<1x4x4xf32>
            %3 = arith.mulf %0, %1 : f32
            %4 = arith.addf %2, %3 : f32
            affine.store %4, %arg2[%arg3, %arg4, %arg5] : memref<1x4x4xf32>
          }
        }
      }
    }
    return
  }
}


// -----// IR Dump After AffineDataCopyGeneration (affine-data-copy-generate) //----- //
func.func @main_kernel(%arg0: memref<1x4x8xf32> {llvm.noalias}, %arg1: memref<1x8x4xf32> {llvm.noalias}, %arg2: memref<1x4x4xf32> {llvm.noalias}) {
  %c0 = arith.constant 0 : index
  %c0_0 = arith.constant 0 : index
  %c0_1 = arith.constant 0 : index
  %c0_2 = arith.constant 0 : index
  %c16 = arith.constant 16 : index
  %c0_3 = arith.constant 0 : index
  %c16_4 = arith.constant 16 : index
  %c0_5 = arith.constant 0 : index
  %c32 = arith.constant 32 : index
  %c0_6 = arith.constant 0 : index
  %c32_7 = arith.constant 32 : index
  %c0_8 = arith.constant 0 : index
  %c0_9 = arith.constant 0 : index
  cf.br ^bb1
^bb1:  // pred: ^bb0
  %alloc = memref.alloc() : memref<1x4x8xf32>
  affine.for %arg3 = 0 to 4 {
    affine.for %arg4 = 0 to 8 {
      %0 = affine.load %arg0[0, %arg3, %arg4] : memref<1x4x8xf32>
      affine.store %0, %alloc[0, %arg3, %arg4] : memref<1x4x8xf32>
    }
  }
  %alloc_10 = memref.alloc() : memref<1x8x4xf32>
  affine.for %arg3 = 0 to 8 {
    affine.for %arg4 = 0 to 4 {
      %0 = affine.load %arg1[0, %arg3, %arg4] : memref<1x8x4xf32>
      affine.store %0, %alloc_10[0, %arg3, %arg4] : memref<1x8x4xf32>
    }
  }
  %alloc_11 = memref.alloc() : memref<1x4x4xf32>
  affine.for %arg3 = 0 to 4 {
    affine.for %arg4 = 0 to 4 {
      %0 = affine.load %arg2[0, %arg3, %arg4] : memref<1x4x4xf32>
      affine.store %0, %alloc_11[0, %arg3, %arg4] : memref<1x4x4xf32>
    }
  }
  affine.for %arg3 = 0 to 1 {
    affine.for %arg4 = 0 to 4 {
      affine.for %arg5 = 0 to 4 {
        affine.for %arg6 = 0 to 8 {
          %0 = affine.load %alloc[%arg3, %arg4, %arg6] : memref<1x4x8xf32>
          %1 = affine.load %alloc_10[%arg3, %arg6, %arg5] : memref<1x8x4xf32>
          %2 = affine.load %alloc_11[%arg3, %arg4, %arg5] : memref<1x4x4xf32>
          %3 = arith.mulf %0, %1 : f32
          %4 = arith.addf %2, %3 : f32
          affine.store %4, %alloc_11[%arg3, %arg4, %arg5] : memref<1x4x4xf32>
        }
      }
    }
  }
  affine.for %arg3 = 0 to 4 {
    affine.for %arg4 = 0 to 4 {
      %0 = affine.load %alloc_11[0, %arg3, %arg4] : memref<1x4x4xf32>
      affine.store %0, %arg2[0, %arg3, %arg4] : memref<1x4x4xf32>
    }
  }
  memref.dealloc %alloc_11 : memref<1x4x4xf32>
  memref.dealloc %alloc_10 : memref<1x8x4xf32>
  memref.dealloc %alloc : memref<1x4x8xf32>
  return
}

// -----// IR Dump After EraseMemrefDealloc (erase-buffer-deallocation) //----- //
module attributes {soda.bambu.container_module, soda.container_module, tf.versions = {bad_consumers = [], min_consumer = 0 : i32, producer = 1482 : i32}} {
  func.func @main_kernel(%arg0: memref<1x4x8xf32> {llvm.noalias}, %arg1: memref<1x8x4xf32> {llvm.noalias}, %arg2: memref<1x4x4xf32> {llvm.noalias}) {
    cf.br ^bb1
  ^bb1:  // pred: ^bb0
    %alloc = memref.alloc() : memref<1x4x8xf32>
    affine.for %arg3 = 0 to 4 {
      affine.for %arg4 = 0 to 8 {
        %0 = affine.load %arg0[0, %arg3, %arg4] : memref<1x4x8xf32>
        affine.store %0, %alloc[0, %arg3, %arg4] : memref<1x4x8xf32>
      }
    }
    %alloc_0 = memref.alloc() : memref<1x8x4xf32>
    affine.for %arg3 = 0 to 8 {
      affine.for %arg4 = 0 to 4 {
        %0 = affine.load %arg1[0, %arg3, %arg4] : memref<1x8x4xf32>
        affine.store %0, %alloc_0[0, %arg3, %arg4] : memref<1x8x4xf32>
      }
    }
    %alloc_1 = memref.alloc() : memref<1x4x4xf32>
    affine.for %arg3 = 0 to 4 {
      affine.for %arg4 = 0 to 4 {
        %0 = affine.load %arg2[0, %arg3, %arg4] : memref<1x4x4xf32>
        affine.store %0, %alloc_1[0, %arg3, %arg4] : memref<1x4x4xf32>
      }
    }
    affine.for %arg3 = 0 to 1 {
      affine.for %arg4 = 0 to 4 {
        affine.for %arg5 = 0 to 4 {
          affine.for %arg6 = 0 to 8 {
            %0 = affine.load %alloc[%arg3, %arg4, %arg6] : memref<1x4x8xf32>
            %1 = affine.load %alloc_0[%arg3, %arg6, %arg5] : memref<1x8x4xf32>
            %2 = affine.load %alloc_1[%arg3, %arg4, %arg5] : memref<1x4x4xf32>
            %3 = arith.mulf %0, %1 : f32
            %4 = arith.addf %2, %3 : f32
            affine.store %4, %alloc_1[%arg3, %arg4, %arg5] : memref<1x4x4xf32>
          }
        }
      }
    }
    affine.for %arg3 = 0 to 4 {
      affine.for %arg4 = 0 to 4 {
        %0 = affine.load %alloc_1[0, %arg3, %arg4] : memref<1x4x4xf32>
        affine.store %0, %arg2[0, %arg3, %arg4] : memref<1x4x4xf32>
      }
    }
    return
  }
}


// -----// IR Dump After PromoteBuffersToStack (promote-buffers-to-stack) //----- //
func.func @main_kernel(%arg0: memref<1x4x8xf32> {llvm.noalias}, %arg1: memref<1x8x4xf32> {llvm.noalias}, %arg2: memref<1x4x4xf32> {llvm.noalias}) {
  cf.br ^bb1
^bb1:  // pred: ^bb0
  %alloca = memref.alloca() : memref<1x4x8xf32>
  affine.for %arg3 = 0 to 4 {
    affine.for %arg4 = 0 to 8 {
      %0 = affine.load %arg0[0, %arg3, %arg4] : memref<1x4x8xf32>
      affine.store %0, %alloca[0, %arg3, %arg4] : memref<1x4x8xf32>
    }
  }
  %alloca_0 = memref.alloca() : memref<1x8x4xf32>
  affine.for %arg3 = 0 to 8 {
    affine.for %arg4 = 0 to 4 {
      %0 = affine.load %arg1[0, %arg3, %arg4] : memref<1x8x4xf32>
      affine.store %0, %alloca_0[0, %arg3, %arg4] : memref<1x8x4xf32>
    }
  }
  %alloca_1 = memref.alloca() : memref<1x4x4xf32>
  affine.for %arg3 = 0 to 4 {
    affine.for %arg4 = 0 to 4 {
      %0 = affine.load %arg2[0, %arg3, %arg4] : memref<1x4x4xf32>
      affine.store %0, %alloca_1[0, %arg3, %arg4] : memref<1x4x4xf32>
    }
  }
  affine.for %arg3 = 0 to 1 {
    affine.for %arg4 = 0 to 4 {
      affine.for %arg5 = 0 to 4 {
        affine.for %arg6 = 0 to 8 {
          %0 = affine.load %alloca[%arg3, %arg4, %arg6] : memref<1x4x8xf32>
          %1 = affine.load %alloca_0[%arg3, %arg6, %arg5] : memref<1x8x4xf32>
          %2 = affine.load %alloca_1[%arg3, %arg4, %arg5] : memref<1x4x4xf32>
          %3 = arith.mulf %0, %1 : f32
          %4 = arith.addf %2, %3 : f32
          affine.store %4, %alloca_1[%arg3, %arg4, %arg5] : memref<1x4x4xf32>
        }
      }
    }
  }
  affine.for %arg3 = 0 to 4 {
    affine.for %arg4 = 0 to 4 {
      %0 = affine.load %alloca_1[0, %arg3, %arg4] : memref<1x4x4xf32>
      affine.store %0, %arg2[0, %arg3, %arg4] : memref<1x4x4xf32>
    }
  }
  return
}

// -----// IR Dump After AffineLoopUnroll (affine-loop-unroll) //----- //
func.func @main_kernel(%arg0: memref<1x4x8xf32> {llvm.noalias}, %arg1: memref<1x8x4xf32> {llvm.noalias}, %arg2: memref<1x4x4xf32> {llvm.noalias}) {
  %c0 = arith.constant 0 : index
  %c0_0 = arith.constant 0 : index
  %c0_1 = arith.constant 0 : index
  %c0_2 = arith.constant 0 : index
  %c0_3 = arith.constant 0 : index
  cf.br ^bb1
^bb1:  // pred: ^bb0
  %alloca = memref.alloca() : memref<1x4x8xf32>
  affine.for %arg3 = 0 to 4 {
    %0 = affine.load %arg0[0, %arg3, %c0_3] : memref<1x4x8xf32>
    affine.store %0, %alloca[0, %arg3, %c0_3] : memref<1x4x8xf32>
    %1 = affine.apply affine_map<(d0) -> (d0 + 1)>(%c0_3)
    %2 = affine.load %arg0[0, %arg3, %1] : memref<1x4x8xf32>
    affine.store %2, %alloca[0, %arg3, %1] : memref<1x4x8xf32>
    %3 = affine.apply affine_map<(d0) -> (d0 + 2)>(%c0_3)
    %4 = affine.load %arg0[0, %arg3, %3] : memref<1x4x8xf32>
    affine.store %4, %alloca[0, %arg3, %3] : memref<1x4x8xf32>
    %5 = affine.apply affine_map<(d0) -> (d0 + 3)>(%c0_3)
    %6 = affine.load %arg0[0, %arg3, %5] : memref<1x4x8xf32>
    affine.store %6, %alloca[0, %arg3, %5] : memref<1x4x8xf32>
    %7 = affine.apply affine_map<(d0) -> (d0 + 4)>(%c0_3)
    %8 = affine.load %arg0[0, %arg3, %7] : memref<1x4x8xf32>
    affine.store %8, %alloca[0, %arg3, %7] : memref<1x4x8xf32>
    %9 = affine.apply affine_map<(d0) -> (d0 + 5)>(%c0_3)
    %10 = affine.load %arg0[0, %arg3, %9] : memref<1x4x8xf32>
    affine.store %10, %alloca[0, %arg3, %9] : memref<1x4x8xf32>
    %11 = affine.apply affine_map<(d0) -> (d0 + 6)>(%c0_3)
    %12 = affine.load %arg0[0, %arg3, %11] : memref<1x4x8xf32>
    affine.store %12, %alloca[0, %arg3, %11] : memref<1x4x8xf32>
    %13 = affine.apply affine_map<(d0) -> (d0 + 7)>(%c0_3)
    %14 = affine.load %arg0[0, %arg3, %13] : memref<1x4x8xf32>
    affine.store %14, %alloca[0, %arg3, %13] : memref<1x4x8xf32>
  }
  %alloca_4 = memref.alloca() : memref<1x8x4xf32>
  affine.for %arg3 = 0 to 8 {
    %0 = affine.load %arg1[0, %arg3, %c0_2] : memref<1x8x4xf32>
    affine.store %0, %alloca_4[0, %arg3, %c0_2] : memref<1x8x4xf32>
    %1 = affine.apply affine_map<(d0) -> (d0 + 1)>(%c0_2)
    %2 = affine.load %arg1[0, %arg3, %1] : memref<1x8x4xf32>
    affine.store %2, %alloca_4[0, %arg3, %1] : memref<1x8x4xf32>
    %3 = affine.apply affine_map<(d0) -> (d0 + 2)>(%c0_2)
    %4 = affine.load %arg1[0, %arg3, %3] : memref<1x8x4xf32>
    affine.store %4, %alloca_4[0, %arg3, %3] : memref<1x8x4xf32>
    %5 = affine.apply affine_map<(d0) -> (d0 + 3)>(%c0_2)
    %6 = affine.load %arg1[0, %arg3, %5] : memref<1x8x4xf32>
    affine.store %6, %alloca_4[0, %arg3, %5] : memref<1x8x4xf32>
  }
  %alloca_5 = memref.alloca() : memref<1x4x4xf32>
  affine.for %arg3 = 0 to 4 {
    %0 = affine.load %arg2[0, %arg3, %c0_1] : memref<1x4x4xf32>
    affine.store %0, %alloca_5[0, %arg3, %c0_1] : memref<1x4x4xf32>
    %1 = affine.apply affine_map<(d0) -> (d0 + 1)>(%c0_1)
    %2 = affine.load %arg2[0, %arg3, %1] : memref<1x4x4xf32>
    affine.store %2, %alloca_5[0, %arg3, %1] : memref<1x4x4xf32>
    %3 = affine.apply affine_map<(d0) -> (d0 + 2)>(%c0_1)
    %4 = affine.load %arg2[0, %arg3, %3] : memref<1x4x4xf32>
    affine.store %4, %alloca_5[0, %arg3, %3] : memref<1x4x4xf32>
    %5 = affine.apply affine_map<(d0) -> (d0 + 3)>(%c0_1)
    %6 = affine.load %arg2[0, %arg3, %5] : memref<1x4x4xf32>
    affine.store %6, %alloca_5[0, %arg3, %5] : memref<1x4x4xf32>
  }
  affine.for %arg3 = 0 to 1 {
    affine.for %arg4 = 0 to 4 {
      affine.for %arg5 = 0 to 4 {
        %0 = affine.load %alloca[%arg3, %arg4, %c0_0] : memref<1x4x8xf32>
        %1 = affine.load %alloca_4[%arg3, %c0_0, %arg5] : memref<1x8x4xf32>
        %2 = affine.load %alloca_5[%arg3, %arg4, %arg5] : memref<1x4x4xf32>
        %3 = arith.mulf %0, %1 : f32
        %4 = arith.addf %2, %3 : f32
        affine.store %4, %alloca_5[%arg3, %arg4, %arg5] : memref<1x4x4xf32>
        %5 = affine.apply affine_map<(d0) -> (d0 + 1)>(%c0_0)
        %6 = affine.load %alloca[%arg3, %arg4, %5] : memref<1x4x8xf32>
        %7 = affine.load %alloca_4[%arg3, %5, %arg5] : memref<1x8x4xf32>
        %8 = affine.load %alloca_5[%arg3, %arg4, %arg5] : memref<1x4x4xf32>
        %9 = arith.mulf %6, %7 : f32
        %10 = arith.addf %8, %9 : f32
        affine.store %10, %alloca_5[%arg3, %arg4, %arg5] : memref<1x4x4xf32>
        %11 = affine.apply affine_map<(d0) -> (d0 + 2)>(%c0_0)
        %12 = affine.load %alloca[%arg3, %arg4, %11] : memref<1x4x8xf32>
        %13 = affine.load %alloca_4[%arg3, %11, %arg5] : memref<1x8x4xf32>
        %14 = affine.load %alloca_5[%arg3, %arg4, %arg5] : memref<1x4x4xf32>
        %15 = arith.mulf %12, %13 : f32
        %16 = arith.addf %14, %15 : f32
        affine.store %16, %alloca_5[%arg3, %arg4, %arg5] : memref<1x4x4xf32>
        %17 = affine.apply affine_map<(d0) -> (d0 + 3)>(%c0_0)
        %18 = affine.load %alloca[%arg3, %arg4, %17] : memref<1x4x8xf32>
        %19 = affine.load %alloca_4[%arg3, %17, %arg5] : memref<1x8x4xf32>
        %20 = affine.load %alloca_5[%arg3, %arg4, %arg5] : memref<1x4x4xf32>
        %21 = arith.mulf %18, %19 : f32
        %22 = arith.addf %20, %21 : f32
        affine.store %22, %alloca_5[%arg3, %arg4, %arg5] : memref<1x4x4xf32>
        %23 = affine.apply affine_map<(d0) -> (d0 + 4)>(%c0_0)
        %24 = affine.load %alloca[%arg3, %arg4, %23] : memref<1x4x8xf32>
        %25 = affine.load %alloca_4[%arg3, %23, %arg5] : memref<1x8x4xf32>
        %26 = affine.load %alloca_5[%arg3, %arg4, %arg5] : memref<1x4x4xf32>
        %27 = arith.mulf %24, %25 : f32
        %28 = arith.addf %26, %27 : f32
        affine.store %28, %alloca_5[%arg3, %arg4, %arg5] : memref<1x4x4xf32>
        %29 = affine.apply affine_map<(d0) -> (d0 + 5)>(%c0_0)
        %30 = affine.load %alloca[%arg3, %arg4, %29] : memref<1x4x8xf32>
        %31 = affine.load %alloca_4[%arg3, %29, %arg5] : memref<1x8x4xf32>
        %32 = affine.load %alloca_5[%arg3, %arg4, %arg5] : memref<1x4x4xf32>
        %33 = arith.mulf %30, %31 : f32
        %34 = arith.addf %32, %33 : f32
        affine.store %34, %alloca_5[%arg3, %arg4, %arg5] : memref<1x4x4xf32>
        %35 = affine.apply affine_map<(d0) -> (d0 + 6)>(%c0_0)
        %36 = affine.load %alloca[%arg3, %arg4, %35] : memref<1x4x8xf32>
        %37 = affine.load %alloca_4[%arg3, %35, %arg5] : memref<1x8x4xf32>
        %38 = affine.load %alloca_5[%arg3, %arg4, %arg5] : memref<1x4x4xf32>
        %39 = arith.mulf %36, %37 : f32
        %40 = arith.addf %38, %39 : f32
        affine.store %40, %alloca_5[%arg3, %arg4, %arg5] : memref<1x4x4xf32>
        %41 = affine.apply affine_map<(d0) -> (d0 + 7)>(%c0_0)
        %42 = affine.load %alloca[%arg3, %arg4, %41] : memref<1x4x8xf32>
        %43 = affine.load %alloca_4[%arg3, %41, %arg5] : memref<1x8x4xf32>
        %44 = affine.load %alloca_5[%arg3, %arg4, %arg5] : memref<1x4x4xf32>
        %45 = arith.mulf %42, %43 : f32
        %46 = arith.addf %44, %45 : f32
        affine.store %46, %alloca_5[%arg3, %arg4, %arg5] : memref<1x4x4xf32>
      }
    }
  }
  affine.for %arg3 = 0 to 4 {
    %0 = affine.load %alloca_5[0, %arg3, %c0] : memref<1x4x4xf32>
    affine.store %0, %arg2[0, %arg3, %c0] : memref<1x4x4xf32>
    %1 = affine.apply affine_map<(d0) -> (d0 + 1)>(%c0)
    %2 = affine.load %alloca_5[0, %arg3, %1] : memref<1x4x4xf32>
    affine.store %2, %arg2[0, %arg3, %1] : memref<1x4x4xf32>
    %3 = affine.apply affine_map<(d0) -> (d0 + 2)>(%c0)
    %4 = affine.load %alloca_5[0, %arg3, %3] : memref<1x4x4xf32>
    affine.store %4, %arg2[0, %arg3, %3] : memref<1x4x4xf32>
    %5 = affine.apply affine_map<(d0) -> (d0 + 3)>(%c0)
    %6 = affine.load %alloca_5[0, %arg3, %5] : memref<1x4x4xf32>
    affine.store %6, %arg2[0, %arg3, %5] : memref<1x4x4xf32>
  }
  return
}

// -----// IR Dump After AffineLoopUnroll (affine-loop-unroll) //----- //
func.func @main_kernel(%arg0: memref<1x4x8xf32> {llvm.noalias}, %arg1: memref<1x8x4xf32> {llvm.noalias}, %arg2: memref<1x4x4xf32> {llvm.noalias}) {
  %c0 = arith.constant 0 : index
  %c0_0 = arith.constant 0 : index
  %c0_1 = arith.constant 0 : index
  %c0_2 = arith.constant 0 : index
  %c0_3 = arith.constant 0 : index
  %c0_4 = arith.constant 0 : index
  %c0_5 = arith.constant 0 : index
  %c0_6 = arith.constant 0 : index
  %c0_7 = arith.constant 0 : index
  %c0_8 = arith.constant 0 : index
  cf.br ^bb1
^bb1:  // pred: ^bb0
  %alloca = memref.alloca() : memref<1x4x8xf32>
  %0 = affine.load %arg0[0, %c0_3, %c0_8] : memref<1x4x8xf32>
  affine.store %0, %alloca[0, %c0_3, %c0_8] : memref<1x4x8xf32>
  %1 = affine.apply affine_map<(d0) -> (d0 + 1)>(%c0_8)
  %2 = affine.load %arg0[0, %c0_3, %1] : memref<1x4x8xf32>
  affine.store %2, %alloca[0, %c0_3, %1] : memref<1x4x8xf32>
  %3 = affine.apply affine_map<(d0) -> (d0 + 2)>(%c0_8)
  %4 = affine.load %arg0[0, %c0_3, %3] : memref<1x4x8xf32>
  affine.store %4, %alloca[0, %c0_3, %3] : memref<1x4x8xf32>
  %5 = affine.apply affine_map<(d0) -> (d0 + 3)>(%c0_8)
  %6 = affine.load %arg0[0, %c0_3, %5] : memref<1x4x8xf32>
  affine.store %6, %alloca[0, %c0_3, %5] : memref<1x4x8xf32>
  %7 = affine.apply affine_map<(d0) -> (d0 + 4)>(%c0_8)
  %8 = affine.load %arg0[0, %c0_3, %7] : memref<1x4x8xf32>
  affine.store %8, %alloca[0, %c0_3, %7] : memref<1x4x8xf32>
  %9 = affine.apply affine_map<(d0) -> (d0 + 5)>(%c0_8)
  %10 = affine.load %arg0[0, %c0_3, %9] : memref<1x4x8xf32>
  affine.store %10, %alloca[0, %c0_3, %9] : memref<1x4x8xf32>
  %11 = affine.apply affine_map<(d0) -> (d0 + 6)>(%c0_8)
  %12 = affine.load %arg0[0, %c0_3, %11] : memref<1x4x8xf32>
  affine.store %12, %alloca[0, %c0_3, %11] : memref<1x4x8xf32>
  %13 = affine.apply affine_map<(d0) -> (d0 + 7)>(%c0_8)
  %14 = affine.load %arg0[0, %c0_3, %13] : memref<1x4x8xf32>
  affine.store %14, %alloca[0, %c0_3, %13] : memref<1x4x8xf32>
  %15 = affine.apply affine_map<(d0) -> (d0 + 1)>(%c0_3)
  %16 = affine.load %arg0[0, %15, %c0_8] : memref<1x4x8xf32>
  affine.store %16, %alloca[0, %15, %c0_8] : memref<1x4x8xf32>
  %17 = affine.apply affine_map<(d0) -> (d0 + 1)>(%c0_8)
  %18 = affine.load %arg0[0, %15, %17] : memref<1x4x8xf32>
  affine.store %18, %alloca[0, %15, %17] : memref<1x4x8xf32>
  %19 = affine.apply affine_map<(d0) -> (d0 + 2)>(%c0_8)
  %20 = affine.load %arg0[0, %15, %19] : memref<1x4x8xf32>
  affine.store %20, %alloca[0, %15, %19] : memref<1x4x8xf32>
  %21 = affine.apply affine_map<(d0) -> (d0 + 3)>(%c0_8)
  %22 = affine.load %arg0[0, %15, %21] : memref<1x4x8xf32>
  affine.store %22, %alloca[0, %15, %21] : memref<1x4x8xf32>
  %23 = affine.apply affine_map<(d0) -> (d0 + 4)>(%c0_8)
  %24 = affine.load %arg0[0, %15, %23] : memref<1x4x8xf32>
  affine.store %24, %alloca[0, %15, %23] : memref<1x4x8xf32>
  %25 = affine.apply affine_map<(d0) -> (d0 + 5)>(%c0_8)
  %26 = affine.load %arg0[0, %15, %25] : memref<1x4x8xf32>
  affine.store %26, %alloca[0, %15, %25] : memref<1x4x8xf32>
  %27 = affine.apply affine_map<(d0) -> (d0 + 6)>(%c0_8)
  %28 = affine.load %arg0[0, %15, %27] : memref<1x4x8xf32>
  affine.store %28, %alloca[0, %15, %27] : memref<1x4x8xf32>
  %29 = affine.apply affine_map<(d0) -> (d0 + 7)>(%c0_8)
  %30 = affine.load %arg0[0, %15, %29] : memref<1x4x8xf32>
  affine.store %30, %alloca[0, %15, %29] : memref<1x4x8xf32>
  %31 = affine.apply affine_map<(d0) -> (d0 + 2)>(%c0_3)
  %32 = affine.load %arg0[0, %31, %c0_8] : memref<1x4x8xf32>
  affine.store %32, %alloca[0, %31, %c0_8] : memref<1x4x8xf32>
  %33 = affine.apply affine_map<(d0) -> (d0 + 1)>(%c0_8)
  %34 = affine.load %arg0[0, %31, %33] : memref<1x4x8xf32>
  affine.store %34, %alloca[0, %31, %33] : memref<1x4x8xf32>
  %35 = affine.apply affine_map<(d0) -> (d0 + 2)>(%c0_8)
  %36 = affine.load %arg0[0, %31, %35] : memref<1x4x8xf32>
  affine.store %36, %alloca[0, %31, %35] : memref<1x4x8xf32>
  %37 = affine.apply affine_map<(d0) -> (d0 + 3)>(%c0_8)
  %38 = affine.load %arg0[0, %31, %37] : memref<1x4x8xf32>
  affine.store %38, %alloca[0, %31, %37] : memref<1x4x8xf32>
  %39 = affine.apply affine_map<(d0) -> (d0 + 4)>(%c0_8)
  %40 = affine.load %arg0[0, %31, %39] : memref<1x4x8xf32>
  affine.store %40, %alloca[0, %31, %39] : memref<1x4x8xf32>
  %41 = affine.apply affine_map<(d0) -> (d0 + 5)>(%c0_8)
  %42 = affine.load %arg0[0, %31, %41] : memref<1x4x8xf32>
  affine.store %42, %alloca[0, %31, %41] : memref<1x4x8xf32>
  %43 = affine.apply affine_map<(d0) -> (d0 + 6)>(%c0_8)
  %44 = affine.load %arg0[0, %31, %43] : memref<1x4x8xf32>
  affine.store %44, %alloca[0, %31, %43] : memref<1x4x8xf32>
  %45 = affine.apply affine_map<(d0) -> (d0 + 7)>(%c0_8)
  %46 = affine.load %arg0[0, %31, %45] : memref<1x4x8xf32>
  affine.store %46, %alloca[0, %31, %45] : memref<1x4x8xf32>
  %47 = affine.apply affine_map<(d0) -> (d0 + 3)>(%c0_3)
  %48 = affine.load %arg0[0, %47, %c0_8] : memref<1x4x8xf32>
  affine.store %48, %alloca[0, %47, %c0_8] : memref<1x4x8xf32>
  %49 = affine.apply affine_map<(d0) -> (d0 + 1)>(%c0_8)
  %50 = affine.load %arg0[0, %47, %49] : memref<1x4x8xf32>
  affine.store %50, %alloca[0, %47, %49] : memref<1x4x8xf32>
  %51 = affine.apply affine_map<(d0) -> (d0 + 2)>(%c0_8)
  %52 = affine.load %arg0[0, %47, %51] : memref<1x4x8xf32>
  affine.store %52, %alloca[0, %47, %51] : memref<1x4x8xf32>
  %53 = affine.apply affine_map<(d0) -> (d0 + 3)>(%c0_8)
  %54 = affine.load %arg0[0, %47, %53] : memref<1x4x8xf32>
  affine.store %54, %alloca[0, %47, %53] : memref<1x4x8xf32>
  %55 = affine.apply affine_map<(d0) -> (d0 + 4)>(%c0_8)
  %56 = affine.load %arg0[0, %47, %55] : memref<1x4x8xf32>
  affine.store %56, %alloca[0, %47, %55] : memref<1x4x8xf32>
  %57 = affine.apply affine_map<(d0) -> (d0 + 5)>(%c0_8)
  %58 = affine.load %arg0[0, %47, %57] : memref<1x4x8xf32>
  affine.store %58, %alloca[0, %47, %57] : memref<1x4x8xf32>
  %59 = affine.apply affine_map<(d0) -> (d0 + 6)>(%c0_8)
  %60 = affine.load %arg0[0, %47, %59] : memref<1x4x8xf32>
  affine.store %60, %alloca[0, %47, %59] : memref<1x4x8xf32>
  %61 = affine.apply affine_map<(d0) -> (d0 + 7)>(%c0_8)
  %62 = affine.load %arg0[0, %47, %61] : memref<1x4x8xf32>
  affine.store %62, %alloca[0, %47, %61] : memref<1x4x8xf32>
  %alloca_9 = memref.alloca() : memref<1x8x4xf32>
  %63 = affine.load %arg1[0, %c0_2, %c0_7] : memref<1x8x4xf32>
  affine.store %63, %alloca_9[0, %c0_2, %c0_7] : memref<1x8x4xf32>
  %64 = affine.apply affine_map<(d0) -> (d0 + 1)>(%c0_7)
  %65 = affine.load %arg1[0, %c0_2, %64] : memref<1x8x4xf32>
  affine.store %65, %alloca_9[0, %c0_2, %64] : memref<1x8x4xf32>
  %66 = affine.apply affine_map<(d0) -> (d0 + 2)>(%c0_7)
  %67 = affine.load %arg1[0, %c0_2, %66] : memref<1x8x4xf32>
  affine.store %67, %alloca_9[0, %c0_2, %66] : memref<1x8x4xf32>
  %68 = affine.apply affine_map<(d0) -> (d0 + 3)>(%c0_7)
  %69 = affine.load %arg1[0, %c0_2, %68] : memref<1x8x4xf32>
  affine.store %69, %alloca_9[0, %c0_2, %68] : memref<1x8x4xf32>
  %70 = affine.apply affine_map<(d0) -> (d0 + 1)>(%c0_2)
  %71 = affine.load %arg1[0, %70, %c0_7] : memref<1x8x4xf32>
  affine.store %71, %alloca_9[0, %70, %c0_7] : memref<1x8x4xf32>
  %72 = affine.apply affine_map<(d0) -> (d0 + 1)>(%c0_7)
  %73 = affine.load %arg1[0, %70, %72] : memref<1x8x4xf32>
  affine.store %73, %alloca_9[0, %70, %72] : memref<1x8x4xf32>
  %74 = affine.apply affine_map<(d0) -> (d0 + 2)>(%c0_7)
  %75 = affine.load %arg1[0, %70, %74] : memref<1x8x4xf32>
  affine.store %75, %alloca_9[0, %70, %74] : memref<1x8x4xf32>
  %76 = affine.apply affine_map<(d0) -> (d0 + 3)>(%c0_7)
  %77 = affine.load %arg1[0, %70, %76] : memref<1x8x4xf32>
  affine.store %77, %alloca_9[0, %70, %76] : memref<1x8x4xf32>
  %78 = affine.apply affine_map<(d0) -> (d0 + 2)>(%c0_2)
  %79 = affine.load %arg1[0, %78, %c0_7] : memref<1x8x4xf32>
  affine.store %79, %alloca_9[0, %78, %c0_7] : memref<1x8x4xf32>
  %80 = affine.apply affine_map<(d0) -> (d0 + 1)>(%c0_7)
  %81 = affine.load %arg1[0, %78, %80] : memref<1x8x4xf32>
  affine.store %81, %alloca_9[0, %78, %80] : memref<1x8x4xf32>
  %82 = affine.apply affine_map<(d0) -> (d0 + 2)>(%c0_7)
  %83 = affine.load %arg1[0, %78, %82] : memref<1x8x4xf32>
  affine.store %83, %alloca_9[0, %78, %82] : memref<1x8x4xf32>
  %84 = affine.apply affine_map<(d0) -> (d0 + 3)>(%c0_7)
  %85 = affine.load %arg1[0, %78, %84] : memref<1x8x4xf32>
  affine.store %85, %alloca_9[0, %78, %84] : memref<1x8x4xf32>
  %86 = affine.apply affine_map<(d0) -> (d0 + 3)>(%c0_2)
  %87 = affine.load %arg1[0, %86, %c0_7] : memref<1x8x4xf32>
  affine.store %87, %alloca_9[0, %86, %c0_7] : memref<1x8x4xf32>
  %88 = affine.apply affine_map<(d0) -> (d0 + 1)>(%c0_7)
  %89 = affine.load %arg1[0, %86, %88] : memref<1x8x4xf32>
  affine.store %89, %alloca_9[0, %86, %88] : memref<1x8x4xf32>
  %90 = affine.apply affine_map<(d0) -> (d0 + 2)>(%c0_7)
  %91 = affine.load %arg1[0, %86, %90] : memref<1x8x4xf32>
  affine.store %91, %alloca_9[0, %86, %90] : memref<1x8x4xf32>
  %92 = affine.apply affine_map<(d0) -> (d0 + 3)>(%c0_7)
  %93 = affine.load %arg1[0, %86, %92] : memref<1x8x4xf32>
  affine.store %93, %alloca_9[0, %86, %92] : memref<1x8x4xf32>
  %94 = affine.apply affine_map<(d0) -> (d0 + 4)>(%c0_2)
  %95 = affine.load %arg1[0, %94, %c0_7] : memref<1x8x4xf32>
  affine.store %95, %alloca_9[0, %94, %c0_7] : memref<1x8x4xf32>
  %96 = affine.apply affine_map<(d0) -> (d0 + 1)>(%c0_7)
  %97 = affine.load %arg1[0, %94, %96] : memref<1x8x4xf32>
  affine.store %97, %alloca_9[0, %94, %96] : memref<1x8x4xf32>
  %98 = affine.apply affine_map<(d0) -> (d0 + 2)>(%c0_7)
  %99 = affine.load %arg1[0, %94, %98] : memref<1x8x4xf32>
  affine.store %99, %alloca_9[0, %94, %98] : memref<1x8x4xf32>
  %100 = affine.apply affine_map<(d0) -> (d0 + 3)>(%c0_7)
  %101 = affine.load %arg1[0, %94, %100] : memref<1x8x4xf32>
  affine.store %101, %alloca_9[0, %94, %100] : memref<1x8x4xf32>
  %102 = affine.apply affine_map<(d0) -> (d0 + 5)>(%c0_2)
  %103 = affine.load %arg1[0, %102, %c0_7] : memref<1x8x4xf32>
  affine.store %103, %alloca_9[0, %102, %c0_7] : memref<1x8x4xf32>
  %104 = affine.apply affine_map<(d0) -> (d0 + 1)>(%c0_7)
  %105 = affine.load %arg1[0, %102, %104] : memref<1x8x4xf32>
  affine.store %105, %alloca_9[0, %102, %104] : memref<1x8x4xf32>
  %106 = affine.apply affine_map<(d0) -> (d0 + 2)>(%c0_7)
  %107 = affine.load %arg1[0, %102, %106] : memref<1x8x4xf32>
  affine.store %107, %alloca_9[0, %102, %106] : memref<1x8x4xf32>
  %108 = affine.apply affine_map<(d0) -> (d0 + 3)>(%c0_7)
  %109 = affine.load %arg1[0, %102, %108] : memref<1x8x4xf32>
  affine.store %109, %alloca_9[0, %102, %108] : memref<1x8x4xf32>
  %110 = affine.apply affine_map<(d0) -> (d0 + 6)>(%c0_2)
  %111 = affine.load %arg1[0, %110, %c0_7] : memref<1x8x4xf32>
  affine.store %111, %alloca_9[0, %110, %c0_7] : memref<1x8x4xf32>
  %112 = affine.apply affine_map<(d0) -> (d0 + 1)>(%c0_7)
  %113 = affine.load %arg1[0, %110, %112] : memref<1x8x4xf32>
  affine.store %113, %alloca_9[0, %110, %112] : memref<1x8x4xf32>
  %114 = affine.apply affine_map<(d0) -> (d0 + 2)>(%c0_7)
  %115 = affine.load %arg1[0, %110, %114] : memref<1x8x4xf32>
  affine.store %115, %alloca_9[0, %110, %114] : memref<1x8x4xf32>
  %116 = affine.apply affine_map<(d0) -> (d0 + 3)>(%c0_7)
  %117 = affine.load %arg1[0, %110, %116] : memref<1x8x4xf32>
  affine.store %117, %alloca_9[0, %110, %116] : memref<1x8x4xf32>
  %118 = affine.apply affine_map<(d0) -> (d0 + 7)>(%c0_2)
  %119 = affine.load %arg1[0, %118, %c0_7] : memref<1x8x4xf32>
  affine.store %119, %alloca_9[0, %118, %c0_7] : memref<1x8x4xf32>
  %120 = affine.apply affine_map<(d0) -> (d0 + 1)>(%c0_7)
  %121 = affine.load %arg1[0, %118, %120] : memref<1x8x4xf32>
  affine.store %121, %alloca_9[0, %118, %120] : memref<1x8x4xf32>
  %122 = affine.apply affine_map<(d0) -> (d0 + 2)>(%c0_7)
  %123 = affine.load %arg1[0, %118, %122] : memref<1x8x4xf32>
  affine.store %123, %alloca_9[0, %118, %122] : memref<1x8x4xf32>
  %124 = affine.apply affine_map<(d0) -> (d0 + 3)>(%c0_7)
  %125 = affine.load %arg1[0, %118, %124] : memref<1x8x4xf32>
  affine.store %125, %alloca_9[0, %118, %124] : memref<1x8x4xf32>
  %alloca_10 = memref.alloca() : memref<1x4x4xf32>
  %126 = affine.load %arg2[0, %c0_1, %c0_6] : memref<1x4x4xf32>
  affine.store %126, %alloca_10[0, %c0_1, %c0_6] : memref<1x4x4xf32>
  %127 = affine.apply affine_map<(d0) -> (d0 + 1)>(%c0_6)
  %128 = affine.load %arg2[0, %c0_1, %127] : memref<1x4x4xf32>
  affine.store %128, %alloca_10[0, %c0_1, %127] : memref<1x4x4xf32>
  %129 = affine.apply affine_map<(d0) -> (d0 + 2)>(%c0_6)
  %130 = affine.load %arg2[0, %c0_1, %129] : memref<1x4x4xf32>
  affine.store %130, %alloca_10[0, %c0_1, %129] : memref<1x4x4xf32>
  %131 = affine.apply affine_map<(d0) -> (d0 + 3)>(%c0_6)
  %132 = affine.load %arg2[0, %c0_1, %131] : memref<1x4x4xf32>
  affine.store %132, %alloca_10[0, %c0_1, %131] : memref<1x4x4xf32>
  %133 = affine.apply affine_map<(d0) -> (d0 + 1)>(%c0_1)
  %134 = affine.load %arg2[0, %133, %c0_6] : memref<1x4x4xf32>
  affine.store %134, %alloca_10[0, %133, %c0_6] : memref<1x4x4xf32>
  %135 = affine.apply affine_map<(d0) -> (d0 + 1)>(%c0_6)
  %136 = affine.load %arg2[0, %133, %135] : memref<1x4x4xf32>
  affine.store %136, %alloca_10[0, %133, %135] : memref<1x4x4xf32>
  %137 = affine.apply affine_map<(d0) -> (d0 + 2)>(%c0_6)
  %138 = affine.load %arg2[0, %133, %137] : memref<1x4x4xf32>
  affine.store %138, %alloca_10[0, %133, %137] : memref<1x4x4xf32>
  %139 = affine.apply affine_map<(d0) -> (d0 + 3)>(%c0_6)
  %140 = affine.load %arg2[0, %133, %139] : memref<1x4x4xf32>
  affine.store %140, %alloca_10[0, %133, %139] : memref<1x4x4xf32>
  %141 = affine.apply affine_map<(d0) -> (d0 + 2)>(%c0_1)
  %142 = affine.load %arg2[0, %141, %c0_6] : memref<1x4x4xf32>
  affine.store %142, %alloca_10[0, %141, %c0_6] : memref<1x4x4xf32>
  %143 = affine.apply affine_map<(d0) -> (d0 + 1)>(%c0_6)
  %144 = affine.load %arg2[0, %141, %143] : memref<1x4x4xf32>
  affine.store %144, %alloca_10[0, %141, %143] : memref<1x4x4xf32>
  %145 = affine.apply affine_map<(d0) -> (d0 + 2)>(%c0_6)
  %146 = affine.load %arg2[0, %141, %145] : memref<1x4x4xf32>
  affine.store %146, %alloca_10[0, %141, %145] : memref<1x4x4xf32>
  %147 = affine.apply affine_map<(d0) -> (d0 + 3)>(%c0_6)
  %148 = affine.load %arg2[0, %141, %147] : memref<1x4x4xf32>
  affine.store %148, %alloca_10[0, %141, %147] : memref<1x4x4xf32>
  %149 = affine.apply affine_map<(d0) -> (d0 + 3)>(%c0_1)
  %150 = affine.load %arg2[0, %149, %c0_6] : memref<1x4x4xf32>
  affine.store %150, %alloca_10[0, %149, %c0_6] : memref<1x4x4xf32>
  %151 = affine.apply affine_map<(d0) -> (d0 + 1)>(%c0_6)
  %152 = affine.load %arg2[0, %149, %151] : memref<1x4x4xf32>
  affine.store %152, %alloca_10[0, %149, %151] : memref<1x4x4xf32>
  %153 = affine.apply affine_map<(d0) -> (d0 + 2)>(%c0_6)
  %154 = affine.load %arg2[0, %149, %153] : memref<1x4x4xf32>
  affine.store %154, %alloca_10[0, %149, %153] : memref<1x4x4xf32>
  %155 = affine.apply affine_map<(d0) -> (d0 + 3)>(%c0_6)
  %156 = affine.load %arg2[0, %149, %155] : memref<1x4x4xf32>
  affine.store %156, %alloca_10[0, %149, %155] : memref<1x4x4xf32>
  affine.for %arg3 = 0 to 1 {
    affine.for %arg4 = 0 to 4 {
      %188 = affine.load %alloca[%arg3, %arg4, %c0_5] : memref<1x4x8xf32>
      %189 = affine.load %alloca_9[%arg3, %c0_5, %c0_0] : memref<1x8x4xf32>
      %190 = affine.load %alloca_10[%arg3, %arg4, %c0_0] : memref<1x4x4xf32>
      %191 = arith.mulf %188, %189 : f32
      %192 = arith.addf %190, %191 : f32
      affine.store %192, %alloca_10[%arg3, %arg4, %c0_0] : memref<1x4x4xf32>
      %193 = affine.apply affine_map<(d0) -> (d0 + 1)>(%c0_5)
      %194 = affine.load %alloca[%arg3, %arg4, %193] : memref<1x4x8xf32>
      %195 = affine.load %alloca_9[%arg3, %193, %c0_0] : memref<1x8x4xf32>
      %196 = affine.load %alloca_10[%arg3, %arg4, %c0_0] : memref<1x4x4xf32>
      %197 = arith.mulf %194, %195 : f32
      %198 = arith.addf %196, %197 : f32
      affine.store %198, %alloca_10[%arg3, %arg4, %c0_0] : memref<1x4x4xf32>
      %199 = affine.apply affine_map<(d0) -> (d0 + 2)>(%c0_5)
      %200 = affine.load %alloca[%arg3, %arg4, %199] : memref<1x4x8xf32>
      %201 = affine.load %alloca_9[%arg3, %199, %c0_0] : memref<1x8x4xf32>
      %202 = affine.load %alloca_10[%arg3, %arg4, %c0_0] : memref<1x4x4xf32>
      %203 = arith.mulf %200, %201 : f32
      %204 = arith.addf %202, %203 : f32
      affine.store %204, %alloca_10[%arg3, %arg4, %c0_0] : memref<1x4x4xf32>
      %205 = affine.apply affine_map<(d0) -> (d0 + 3)>(%c0_5)
      %206 = affine.load %alloca[%arg3, %arg4, %205] : memref<1x4x8xf32>
      %207 = affine.load %alloca_9[%arg3, %205, %c0_0] : memref<1x8x4xf32>
      %208 = affine.load %alloca_10[%arg3, %arg4, %c0_0] : memref<1x4x4xf32>
      %209 = arith.mulf %206, %207 : f32
      %210 = arith.addf %208, %209 : f32
      affine.store %210, %alloca_10[%arg3, %arg4, %c0_0] : memref<1x4x4xf32>
      %211 = affine.apply affine_map<(d0) -> (d0 + 4)>(%c0_5)
      %212 = affine.load %alloca[%arg3, %arg4, %211] : memref<1x4x8xf32>
      %213 = affine.load %alloca_9[%arg3, %211, %c0_0] : memref<1x8x4xf32>
      %214 = affine.load %alloca_10[%arg3, %arg4, %c0_0] : memref<1x4x4xf32>
      %215 = arith.mulf %212, %213 : f32
      %216 = arith.addf %214, %215 : f32
      affine.store %216, %alloca_10[%arg3, %arg4, %c0_0] : memref<1x4x4xf32>
      %217 = affine.apply affine_map<(d0) -> (d0 + 5)>(%c0_5)
      %218 = affine.load %alloca[%arg3, %arg4, %217] : memref<1x4x8xf32>
      %219 = affine.load %alloca_9[%arg3, %217, %c0_0] : memref<1x8x4xf32>
      %220 = affine.load %alloca_10[%arg3, %arg4, %c0_0] : memref<1x4x4xf32>
      %221 = arith.mulf %218, %219 : f32
      %222 = arith.addf %220, %221 : f32
      affine.store %222, %alloca_10[%arg3, %arg4, %c0_0] : memref<1x4x4xf32>
      %223 = affine.apply affine_map<(d0) -> (d0 + 6)>(%c0_5)
      %224 = affine.load %alloca[%arg3, %arg4, %223] : memref<1x4x8xf32>
      %225 = affine.load %alloca_9[%arg3, %223, %c0_0] : memref<1x8x4xf32>
      %226 = affine.load %alloca_10[%arg3, %arg4, %c0_0] : memref<1x4x4xf32>
      %227 = arith.mulf %224, %225 : f32
      %228 = arith.addf %226, %227 : f32
      affine.store %228, %alloca_10[%arg3, %arg4, %c0_0] : memref<1x4x4xf32>
      %229 = affine.apply affine_map<(d0) -> (d0 + 7)>(%c0_5)
      %230 = affine.load %alloca[%arg3, %arg4, %229] : memref<1x4x8xf32>
      %231 = affine.load %alloca_9[%arg3, %229, %c0_0] : memref<1x8x4xf32>
      %232 = affine.load %alloca_10[%arg3, %arg4, %c0_0] : memref<1x4x4xf32>
      %233 = arith.mulf %230, %231 : f32
      %234 = arith.addf %232, %233 : f32
      affine.store %234, %alloca_10[%arg3, %arg4, %c0_0] : memref<1x4x4xf32>
      %235 = affine.apply affine_map<(d0) -> (d0 + 1)>(%c0_0)
      %236 = affine.load %alloca[%arg3, %arg4, %c0_5] : memref<1x4x8xf32>
      %237 = affine.load %alloca_9[%arg3, %c0_5, %235] : memref<1x8x4xf32>
      %238 = affine.load %alloca_10[%arg3, %arg4, %235] : memref<1x4x4xf32>
      %239 = arith.mulf %236, %237 : f32
      %240 = arith.addf %238, %239 : f32
      affine.store %240, %alloca_10[%arg3, %arg4, %235] : memref<1x4x4xf32>
      %241 = affine.apply affine_map<(d0) -> (d0 + 1)>(%c0_5)
      %242 = affine.load %alloca[%arg3, %arg4, %241] : memref<1x4x8xf32>
      %243 = affine.load %alloca_9[%arg3, %241, %235] : memref<1x8x4xf32>
      %244 = affine.load %alloca_10[%arg3, %arg4, %235] : memref<1x4x4xf32>
      %245 = arith.mulf %242, %243 : f32
      %246 = arith.addf %244, %245 : f32
      affine.store %246, %alloca_10[%arg3, %arg4, %235] : memref<1x4x4xf32>
      %247 = affine.apply affine_map<(d0) -> (d0 + 2)>(%c0_5)
      %248 = affine.load %alloca[%arg3, %arg4, %247] : memref<1x4x8xf32>
      %249 = affine.load %alloca_9[%arg3, %247, %235] : memref<1x8x4xf32>
      %250 = affine.load %alloca_10[%arg3, %arg4, %235] : memref<1x4x4xf32>
      %251 = arith.mulf %248, %249 : f32
      %252 = arith.addf %250, %251 : f32
      affine.store %252, %alloca_10[%arg3, %arg4, %235] : memref<1x4x4xf32>
      %253 = affine.apply affine_map<(d0) -> (d0 + 3)>(%c0_5)
      %254 = affine.load %alloca[%arg3, %arg4, %253] : memref<1x4x8xf32>
      %255 = affine.load %alloca_9[%arg3, %253, %235] : memref<1x8x4xf32>
      %256 = affine.load %alloca_10[%arg3, %arg4, %235] : memref<1x4x4xf32>
      %257 = arith.mulf %254, %255 : f32
      %258 = arith.addf %256, %257 : f32
      affine.store %258, %alloca_10[%arg3, %arg4, %235] : memref<1x4x4xf32>
      %259 = affine.apply affine_map<(d0) -> (d0 + 4)>(%c0_5)
      %260 = affine.load %alloca[%arg3, %arg4, %259] : memref<1x4x8xf32>
      %261 = affine.load %alloca_9[%arg3, %259, %235] : memref<1x8x4xf32>
      %262 = affine.load %alloca_10[%arg3, %arg4, %235] : memref<1x4x4xf32>
      %263 = arith.mulf %260, %261 : f32
      %264 = arith.addf %262, %263 : f32
      affine.store %264, %alloca_10[%arg3, %arg4, %235] : memref<1x4x4xf32>
      %265 = affine.apply affine_map<(d0) -> (d0 + 5)>(%c0_5)
      %266 = affine.load %alloca[%arg3, %arg4, %265] : memref<1x4x8xf32>
      %267 = affine.load %alloca_9[%arg3, %265, %235] : memref<1x8x4xf32>
      %268 = affine.load %alloca_10[%arg3, %arg4, %235] : memref<1x4x4xf32>
      %269 = arith.mulf %266, %267 : f32
      %270 = arith.addf %268, %269 : f32
      affine.store %270, %alloca_10[%arg3, %arg4, %235] : memref<1x4x4xf32>
      %271 = affine.apply affine_map<(d0) -> (d0 + 6)>(%c0_5)
      %272 = affine.load %alloca[%arg3, %arg4, %271] : memref<1x4x8xf32>
      %273 = affine.load %alloca_9[%arg3, %271, %235] : memref<1x8x4xf32>
      %274 = affine.load %alloca_10[%arg3, %arg4, %235] : memref<1x4x4xf32>
      %275 = arith.mulf %272, %273 : f32
      %276 = arith.addf %274, %275 : f32
      affine.store %276, %alloca_10[%arg3, %arg4, %235] : memref<1x4x4xf32>
      %277 = affine.apply affine_map<(d0) -> (d0 + 7)>(%c0_5)
      %278 = affine.load %alloca[%arg3, %arg4, %277] : memref<1x4x8xf32>
      %279 = affine.load %alloca_9[%arg3, %277, %235] : memref<1x8x4xf32>
      %280 = affine.load %alloca_10[%arg3, %arg4, %235] : memref<1x4x4xf32>
      %281 = arith.mulf %278, %279 : f32
      %282 = arith.addf %280, %281 : f32
      affine.store %282, %alloca_10[%arg3, %arg4, %235] : memref<1x4x4xf32>
      %283 = affine.apply affine_map<(d0) -> (d0 + 2)>(%c0_0)
      %284 = affine.load %alloca[%arg3, %arg4, %c0_5] : memref<1x4x8xf32>
      %285 = affine.load %alloca_9[%arg3, %c0_5, %283] : memref<1x8x4xf32>
      %286 = affine.load %alloca_10[%arg3, %arg4, %283] : memref<1x4x4xf32>
      %287 = arith.mulf %284, %285 : f32
      %288 = arith.addf %286, %287 : f32
      affine.store %288, %alloca_10[%arg3, %arg4, %283] : memref<1x4x4xf32>
      %289 = affine.apply affine_map<(d0) -> (d0 + 1)>(%c0_5)
      %290 = affine.load %alloca[%arg3, %arg4, %289] : memref<1x4x8xf32>
      %291 = affine.load %alloca_9[%arg3, %289, %283] : memref<1x8x4xf32>
      %292 = affine.load %alloca_10[%arg3, %arg4, %283] : memref<1x4x4xf32>
      %293 = arith.mulf %290, %291 : f32
      %294 = arith.addf %292, %293 : f32
      affine.store %294, %alloca_10[%arg3, %arg4, %283] : memref<1x4x4xf32>
      %295 = affine.apply affine_map<(d0) -> (d0 + 2)>(%c0_5)
      %296 = affine.load %alloca[%arg3, %arg4, %295] : memref<1x4x8xf32>
      %297 = affine.load %alloca_9[%arg3, %295, %283] : memref<1x8x4xf32>
      %298 = affine.load %alloca_10[%arg3, %arg4, %283] : memref<1x4x4xf32>
      %299 = arith.mulf %296, %297 : f32
      %300 = arith.addf %298, %299 : f32
      affine.store %300, %alloca_10[%arg3, %arg4, %283] : memref<1x4x4xf32>
      %301 = affine.apply affine_map<(d0) -> (d0 + 3)>(%c0_5)
      %302 = affine.load %alloca[%arg3, %arg4, %301] : memref<1x4x8xf32>
      %303 = affine.load %alloca_9[%arg3, %301, %283] : memref<1x8x4xf32>
      %304 = affine.load %alloca_10[%arg3, %arg4, %283] : memref<1x4x4xf32>
      %305 = arith.mulf %302, %303 : f32
      %306 = arith.addf %304, %305 : f32
      affine.store %306, %alloca_10[%arg3, %arg4, %283] : memref<1x4x4xf32>
      %307 = affine.apply affine_map<(d0) -> (d0 + 4)>(%c0_5)
      %308 = affine.load %alloca[%arg3, %arg4, %307] : memref<1x4x8xf32>
      %309 = affine.load %alloca_9[%arg3, %307, %283] : memref<1x8x4xf32>
      %310 = affine.load %alloca_10[%arg3, %arg4, %283] : memref<1x4x4xf32>
      %311 = arith.mulf %308, %309 : f32
      %312 = arith.addf %310, %311 : f32
      affine.store %312, %alloca_10[%arg3, %arg4, %283] : memref<1x4x4xf32>
      %313 = affine.apply affine_map<(d0) -> (d0 + 5)>(%c0_5)
      %314 = affine.load %alloca[%arg3, %arg4, %313] : memref<1x4x8xf32>
      %315 = affine.load %alloca_9[%arg3, %313, %283] : memref<1x8x4xf32>
      %316 = affine.load %alloca_10[%arg3, %arg4, %283] : memref<1x4x4xf32>
      %317 = arith.mulf %314, %315 : f32
      %318 = arith.addf %316, %317 : f32
      affine.store %318, %alloca_10[%arg3, %arg4, %283] : memref<1x4x4xf32>
      %319 = affine.apply affine_map<(d0) -> (d0 + 6)>(%c0_5)
      %320 = affine.load %alloca[%arg3, %arg4, %319] : memref<1x4x8xf32>
      %321 = affine.load %alloca_9[%arg3, %319, %283] : memref<1x8x4xf32>
      %322 = affine.load %alloca_10[%arg3, %arg4, %283] : memref<1x4x4xf32>
      %323 = arith.mulf %320, %321 : f32
      %324 = arith.addf %322, %323 : f32
      affine.store %324, %alloca_10[%arg3, %arg4, %283] : memref<1x4x4xf32>
      %325 = affine.apply affine_map<(d0) -> (d0 + 7)>(%c0_5)
      %326 = affine.load %alloca[%arg3, %arg4, %325] : memref<1x4x8xf32>
      %327 = affine.load %alloca_9[%arg3, %325, %283] : memref<1x8x4xf32>
      %328 = affine.load %alloca_10[%arg3, %arg4, %283] : memref<1x4x4xf32>
      %329 = arith.mulf %326, %327 : f32
      %330 = arith.addf %328, %329 : f32
      affine.store %330, %alloca_10[%arg3, %arg4, %283] : memref<1x4x4xf32>
      %331 = affine.apply affine_map<(d0) -> (d0 + 3)>(%c0_0)
      %332 = affine.load %alloca[%arg3, %arg4, %c0_5] : memref<1x4x8xf32>
      %333 = affine.load %alloca_9[%arg3, %c0_5, %331] : memref<1x8x4xf32>
      %334 = affine.load %alloca_10[%arg3, %arg4, %331] : memref<1x4x4xf32>
      %335 = arith.mulf %332, %333 : f32
      %336 = arith.addf %334, %335 : f32
      affine.store %336, %alloca_10[%arg3, %arg4, %331] : memref<1x4x4xf32>
      %337 = affine.apply affine_map<(d0) -> (d0 + 1)>(%c0_5)
      %338 = affine.load %alloca[%arg3, %arg4, %337] : memref<1x4x8xf32>
      %339 = affine.load %alloca_9[%arg3, %337, %331] : memref<1x8x4xf32>
      %340 = affine.load %alloca_10[%arg3, %arg4, %331] : memref<1x4x4xf32>
      %341 = arith.mulf %338, %339 : f32
      %342 = arith.addf %340, %341 : f32
      affine.store %342, %alloca_10[%arg3, %arg4, %331] : memref<1x4x4xf32>
      %343 = affine.apply affine_map<(d0) -> (d0 + 2)>(%c0_5)
      %344 = affine.load %alloca[%arg3, %arg4, %343] : memref<1x4x8xf32>
      %345 = affine.load %alloca_9[%arg3, %343, %331] : memref<1x8x4xf32>
      %346 = affine.load %alloca_10[%arg3, %arg4, %331] : memref<1x4x4xf32>
      %347 = arith.mulf %344, %345 : f32
      %348 = arith.addf %346, %347 : f32
      affine.store %348, %alloca_10[%arg3, %arg4, %331] : memref<1x4x4xf32>
      %349 = affine.apply affine_map<(d0) -> (d0 + 3)>(%c0_5)
      %350 = affine.load %alloca[%arg3, %arg4, %349] : memref<1x4x8xf32>
      %351 = affine.load %alloca_9[%arg3, %349, %331] : memref<1x8x4xf32>
      %352 = affine.load %alloca_10[%arg3, %arg4, %331] : memref<1x4x4xf32>
      %353 = arith.mulf %350, %351 : f32
      %354 = arith.addf %352, %353 : f32
      affine.store %354, %alloca_10[%arg3, %arg4, %331] : memref<1x4x4xf32>
      %355 = affine.apply affine_map<(d0) -> (d0 + 4)>(%c0_5)
      %356 = affine.load %alloca[%arg3, %arg4, %355] : memref<1x4x8xf32>
      %357 = affine.load %alloca_9[%arg3, %355, %331] : memref<1x8x4xf32>
      %358 = affine.load %alloca_10[%arg3, %arg4, %331] : memref<1x4x4xf32>
      %359 = arith.mulf %356, %357 : f32
      %360 = arith.addf %358, %359 : f32
      affine.store %360, %alloca_10[%arg3, %arg4, %331] : memref<1x4x4xf32>
      %361 = affine.apply affine_map<(d0) -> (d0 + 5)>(%c0_5)
      %362 = affine.load %alloca[%arg3, %arg4, %361] : memref<1x4x8xf32>
      %363 = affine.load %alloca_9[%arg3, %361, %331] : memref<1x8x4xf32>
      %364 = affine.load %alloca_10[%arg3, %arg4, %331] : memref<1x4x4xf32>
      %365 = arith.mulf %362, %363 : f32
      %366 = arith.addf %364, %365 : f32
      affine.store %366, %alloca_10[%arg3, %arg4, %331] : memref<1x4x4xf32>
      %367 = affine.apply affine_map<(d0) -> (d0 + 6)>(%c0_5)
      %368 = affine.load %alloca[%arg3, %arg4, %367] : memref<1x4x8xf32>
      %369 = affine.load %alloca_9[%arg3, %367, %331] : memref<1x8x4xf32>
      %370 = affine.load %alloca_10[%arg3, %arg4, %331] : memref<1x4x4xf32>
      %371 = arith.mulf %368, %369 : f32
      %372 = arith.addf %370, %371 : f32
      affine.store %372, %alloca_10[%arg3, %arg4, %331] : memref<1x4x4xf32>
      %373 = affine.apply affine_map<(d0) -> (d0 + 7)>(%c0_5)
      %374 = affine.load %alloca[%arg3, %arg4, %373] : memref<1x4x8xf32>
      %375 = affine.load %alloca_9[%arg3, %373, %331] : memref<1x8x4xf32>
      %376 = affine.load %alloca_10[%arg3, %arg4, %331] : memref<1x4x4xf32>
      %377 = arith.mulf %374, %375 : f32
      %378 = arith.addf %376, %377 : f32
      affine.store %378, %alloca_10[%arg3, %arg4, %331] : memref<1x4x4xf32>
    }
  }
  %157 = affine.load %alloca_10[0, %c0, %c0_4] : memref<1x4x4xf32>
  affine.store %157, %arg2[0, %c0, %c0_4] : memref<1x4x4xf32>
  %158 = affine.apply affine_map<(d0) -> (d0 + 1)>(%c0_4)
  %159 = affine.load %alloca_10[0, %c0, %158] : memref<1x4x4xf32>
  affine.store %159, %arg2[0, %c0, %158] : memref<1x4x4xf32>
  %160 = affine.apply affine_map<(d0) -> (d0 + 2)>(%c0_4)
  %161 = affine.load %alloca_10[0, %c0, %160] : memref<1x4x4xf32>
  affine.store %161, %arg2[0, %c0, %160] : memref<1x4x4xf32>
  %162 = affine.apply affine_map<(d0) -> (d0 + 3)>(%c0_4)
  %163 = affine.load %alloca_10[0, %c0, %162] : memref<1x4x4xf32>
  affine.store %163, %arg2[0, %c0, %162] : memref<1x4x4xf32>
  %164 = affine.apply affine_map<(d0) -> (d0 + 1)>(%c0)
  %165 = affine.load %alloca_10[0, %164, %c0_4] : memref<1x4x4xf32>
  affine.store %165, %arg2[0, %164, %c0_4] : memref<1x4x4xf32>
  %166 = affine.apply affine_map<(d0) -> (d0 + 1)>(%c0_4)
  %167 = affine.load %alloca_10[0, %164, %166] : memref<1x4x4xf32>
  affine.store %167, %arg2[0, %164, %166] : memref<1x4x4xf32>
  %168 = affine.apply affine_map<(d0) -> (d0 + 2)>(%c0_4)
  %169 = affine.load %alloca_10[0, %164, %168] : memref<1x4x4xf32>
  affine.store %169, %arg2[0, %164, %168] : memref<1x4x4xf32>
  %170 = affine.apply affine_map<(d0) -> (d0 + 3)>(%c0_4)
  %171 = affine.load %alloca_10[0, %164, %170] : memref<1x4x4xf32>
  affine.store %171, %arg2[0, %164, %170] : memref<1x4x4xf32>
  %172 = affine.apply affine_map<(d0) -> (d0 + 2)>(%c0)
  %173 = affine.load %alloca_10[0, %172, %c0_4] : memref<1x4x4xf32>
  affine.store %173, %arg2[0, %172, %c0_4] : memref<1x4x4xf32>
  %174 = affine.apply affine_map<(d0) -> (d0 + 1)>(%c0_4)
  %175 = affine.load %alloca_10[0, %172, %174] : memref<1x4x4xf32>
  affine.store %175, %arg2[0, %172, %174] : memref<1x4x4xf32>
  %176 = affine.apply affine_map<(d0) -> (d0 + 2)>(%c0_4)
  %177 = affine.load %alloca_10[0, %172, %176] : memref<1x4x4xf32>
  affine.store %177, %arg2[0, %172, %176] : memref<1x4x4xf32>
  %178 = affine.apply affine_map<(d0) -> (d0 + 3)>(%c0_4)
  %179 = affine.load %alloca_10[0, %172, %178] : memref<1x4x4xf32>
  affine.store %179, %arg2[0, %172, %178] : memref<1x4x4xf32>
  %180 = affine.apply affine_map<(d0) -> (d0 + 3)>(%c0)
  %181 = affine.load %alloca_10[0, %180, %c0_4] : memref<1x4x4xf32>
  affine.store %181, %arg2[0, %180, %c0_4] : memref<1x4x4xf32>
  %182 = affine.apply affine_map<(d0) -> (d0 + 1)>(%c0_4)
  %183 = affine.load %alloca_10[0, %180, %182] : memref<1x4x4xf32>
  affine.store %183, %arg2[0, %180, %182] : memref<1x4x4xf32>
  %184 = affine.apply affine_map<(d0) -> (d0 + 2)>(%c0_4)
  %185 = affine.load %alloca_10[0, %180, %184] : memref<1x4x4xf32>
  affine.store %185, %arg2[0, %180, %184] : memref<1x4x4xf32>
  %186 = affine.apply affine_map<(d0) -> (d0 + 3)>(%c0_4)
  %187 = affine.load %alloca_10[0, %180, %186] : memref<1x4x4xf32>
  affine.store %187, %arg2[0, %180, %186] : memref<1x4x4xf32>
  return
}

// -----// IR Dump After AffineLoopUnroll (affine-loop-unroll) //----- //
func.func @main_kernel(%arg0: memref<1x4x8xf32> {llvm.noalias}, %arg1: memref<1x8x4xf32> {llvm.noalias}, %arg2: memref<1x4x4xf32> {llvm.noalias}) {
  %c0 = arith.constant 0 : index
  %c0_0 = arith.constant 0 : index
  %c0_1 = arith.constant 0 : index
  %c0_2 = arith.constant 0 : index
  %c0_3 = arith.constant 0 : index
  %c0_4 = arith.constant 0 : index
  %c0_5 = arith.constant 0 : index
  %c0_6 = arith.constant 0 : index
  %c0_7 = arith.constant 0 : index
  %c0_8 = arith.constant 0 : index
  %c0_9 = arith.constant 0 : index
  cf.br ^bb1
^bb1:  // pred: ^bb0
  %alloca = memref.alloca() : memref<1x4x8xf32>
  %0 = affine.load %arg0[0, %c0_4, %c0_9] : memref<1x4x8xf32>
  affine.store %0, %alloca[0, %c0_4, %c0_9] : memref<1x4x8xf32>
  %1 = affine.apply affine_map<(d0) -> (d0 + 1)>(%c0_9)
  %2 = affine.load %arg0[0, %c0_4, %1] : memref<1x4x8xf32>
  affine.store %2, %alloca[0, %c0_4, %1] : memref<1x4x8xf32>
  %3 = affine.apply affine_map<(d0) -> (d0 + 2)>(%c0_9)
  %4 = affine.load %arg0[0, %c0_4, %3] : memref<1x4x8xf32>
  affine.store %4, %alloca[0, %c0_4, %3] : memref<1x4x8xf32>
  %5 = affine.apply affine_map<(d0) -> (d0 + 3)>(%c0_9)
  %6 = affine.load %arg0[0, %c0_4, %5] : memref<1x4x8xf32>
  affine.store %6, %alloca[0, %c0_4, %5] : memref<1x4x8xf32>
  %7 = affine.apply affine_map<(d0) -> (d0 + 4)>(%c0_9)
  %8 = affine.load %arg0[0, %c0_4, %7] : memref<1x4x8xf32>
  affine.store %8, %alloca[0, %c0_4, %7] : memref<1x4x8xf32>
  %9 = affine.apply affine_map<(d0) -> (d0 + 5)>(%c0_9)
  %10 = affine.load %arg0[0, %c0_4, %9] : memref<1x4x8xf32>
  affine.store %10, %alloca[0, %c0_4, %9] : memref<1x4x8xf32>
  %11 = affine.apply affine_map<(d0) -> (d0 + 6)>(%c0_9)
  %12 = affine.load %arg0[0, %c0_4, %11] : memref<1x4x8xf32>
  affine.store %12, %alloca[0, %c0_4, %11] : memref<1x4x8xf32>
  %13 = affine.apply affine_map<(d0) -> (d0 + 7)>(%c0_9)
  %14 = affine.load %arg0[0, %c0_4, %13] : memref<1x4x8xf32>
  affine.store %14, %alloca[0, %c0_4, %13] : memref<1x4x8xf32>
  %15 = affine.apply affine_map<(d0) -> (d0 + 1)>(%c0_4)
  %16 = affine.load %arg0[0, %15, %c0_9] : memref<1x4x8xf32>
  affine.store %16, %alloca[0, %15, %c0_9] : memref<1x4x8xf32>
  %17 = affine.apply affine_map<(d0) -> (d0 + 1)>(%c0_9)
  %18 = affine.load %arg0[0, %15, %17] : memref<1x4x8xf32>
  affine.store %18, %alloca[0, %15, %17] : memref<1x4x8xf32>
  %19 = affine.apply affine_map<(d0) -> (d0 + 2)>(%c0_9)
  %20 = affine.load %arg0[0, %15, %19] : memref<1x4x8xf32>
  affine.store %20, %alloca[0, %15, %19] : memref<1x4x8xf32>
  %21 = affine.apply affine_map<(d0) -> (d0 + 3)>(%c0_9)
  %22 = affine.load %arg0[0, %15, %21] : memref<1x4x8xf32>
  affine.store %22, %alloca[0, %15, %21] : memref<1x4x8xf32>
  %23 = affine.apply affine_map<(d0) -> (d0 + 4)>(%c0_9)
  %24 = affine.load %arg0[0, %15, %23] : memref<1x4x8xf32>
  affine.store %24, %alloca[0, %15, %23] : memref<1x4x8xf32>
  %25 = affine.apply affine_map<(d0) -> (d0 + 5)>(%c0_9)
  %26 = affine.load %arg0[0, %15, %25] : memref<1x4x8xf32>
  affine.store %26, %alloca[0, %15, %25] : memref<1x4x8xf32>
  %27 = affine.apply affine_map<(d0) -> (d0 + 6)>(%c0_9)
  %28 = affine.load %arg0[0, %15, %27] : memref<1x4x8xf32>
  affine.store %28, %alloca[0, %15, %27] : memref<1x4x8xf32>
  %29 = affine.apply affine_map<(d0) -> (d0 + 7)>(%c0_9)
  %30 = affine.load %arg0[0, %15, %29] : memref<1x4x8xf32>
  affine.store %30, %alloca[0, %15, %29] : memref<1x4x8xf32>
  %31 = affine.apply affine_map<(d0) -> (d0 + 2)>(%c0_4)
  %32 = affine.load %arg0[0, %31, %c0_9] : memref<1x4x8xf32>
  affine.store %32, %alloca[0, %31, %c0_9] : memref<1x4x8xf32>
  %33 = affine.apply affine_map<(d0) -> (d0 + 1)>(%c0_9)
  %34 = affine.load %arg0[0, %31, %33] : memref<1x4x8xf32>
  affine.store %34, %alloca[0, %31, %33] : memref<1x4x8xf32>
  %35 = affine.apply affine_map<(d0) -> (d0 + 2)>(%c0_9)
  %36 = affine.load %arg0[0, %31, %35] : memref<1x4x8xf32>
  affine.store %36, %alloca[0, %31, %35] : memref<1x4x8xf32>
  %37 = affine.apply affine_map<(d0) -> (d0 + 3)>(%c0_9)
  %38 = affine.load %arg0[0, %31, %37] : memref<1x4x8xf32>
  affine.store %38, %alloca[0, %31, %37] : memref<1x4x8xf32>
  %39 = affine.apply affine_map<(d0) -> (d0 + 4)>(%c0_9)
  %40 = affine.load %arg0[0, %31, %39] : memref<1x4x8xf32>
  affine.store %40, %alloca[0, %31, %39] : memref<1x4x8xf32>
  %41 = affine.apply affine_map<(d0) -> (d0 + 5)>(%c0_9)
  %42 = affine.load %arg0[0, %31, %41] : memref<1x4x8xf32>
  affine.store %42, %alloca[0, %31, %41] : memref<1x4x8xf32>
  %43 = affine.apply affine_map<(d0) -> (d0 + 6)>(%c0_9)
  %44 = affine.load %arg0[0, %31, %43] : memref<1x4x8xf32>
  affine.store %44, %alloca[0, %31, %43] : memref<1x4x8xf32>
  %45 = affine.apply affine_map<(d0) -> (d0 + 7)>(%c0_9)
  %46 = affine.load %arg0[0, %31, %45] : memref<1x4x8xf32>
  affine.store %46, %alloca[0, %31, %45] : memref<1x4x8xf32>
  %47 = affine.apply affine_map<(d0) -> (d0 + 3)>(%c0_4)
  %48 = affine.load %arg0[0, %47, %c0_9] : memref<1x4x8xf32>
  affine.store %48, %alloca[0, %47, %c0_9] : memref<1x4x8xf32>
  %49 = affine.apply affine_map<(d0) -> (d0 + 1)>(%c0_9)
  %50 = affine.load %arg0[0, %47, %49] : memref<1x4x8xf32>
  affine.store %50, %alloca[0, %47, %49] : memref<1x4x8xf32>
  %51 = affine.apply affine_map<(d0) -> (d0 + 2)>(%c0_9)
  %52 = affine.load %arg0[0, %47, %51] : memref<1x4x8xf32>
  affine.store %52, %alloca[0, %47, %51] : memref<1x4x8xf32>
  %53 = affine.apply affine_map<(d0) -> (d0 + 3)>(%c0_9)
  %54 = affine.load %arg0[0, %47, %53] : memref<1x4x8xf32>
  affine.store %54, %alloca[0, %47, %53] : memref<1x4x8xf32>
  %55 = affine.apply affine_map<(d0) -> (d0 + 4)>(%c0_9)
  %56 = affine.load %arg0[0, %47, %55] : memref<1x4x8xf32>
  affine.store %56, %alloca[0, %47, %55] : memref<1x4x8xf32>
  %57 = affine.apply affine_map<(d0) -> (d0 + 5)>(%c0_9)
  %58 = affine.load %arg0[0, %47, %57] : memref<1x4x8xf32>
  affine.store %58, %alloca[0, %47, %57] : memref<1x4x8xf32>
  %59 = affine.apply affine_map<(d0) -> (d0 + 6)>(%c0_9)
  %60 = affine.load %arg0[0, %47, %59] : memref<1x4x8xf32>
  affine.store %60, %alloca[0, %47, %59] : memref<1x4x8xf32>
  %61 = affine.apply affine_map<(d0) -> (d0 + 7)>(%c0_9)
  %62 = affine.load %arg0[0, %47, %61] : memref<1x4x8xf32>
  affine.store %62, %alloca[0, %47, %61] : memref<1x4x8xf32>
  %alloca_10 = memref.alloca() : memref<1x8x4xf32>
  %63 = affine.load %arg1[0, %c0_3, %c0_8] : memref<1x8x4xf32>
  affine.store %63, %alloca_10[0, %c0_3, %c0_8] : memref<1x8x4xf32>
  %64 = affine.apply affine_map<(d0) -> (d0 + 1)>(%c0_8)
  %65 = affine.load %arg1[0, %c0_3, %64] : memref<1x8x4xf32>
  affine.store %65, %alloca_10[0, %c0_3, %64] : memref<1x8x4xf32>
  %66 = affine.apply affine_map<(d0) -> (d0 + 2)>(%c0_8)
  %67 = affine.load %arg1[0, %c0_3, %66] : memref<1x8x4xf32>
  affine.store %67, %alloca_10[0, %c0_3, %66] : memref<1x8x4xf32>
  %68 = affine.apply affine_map<(d0) -> (d0 + 3)>(%c0_8)
  %69 = affine.load %arg1[0, %c0_3, %68] : memref<1x8x4xf32>
  affine.store %69, %alloca_10[0, %c0_3, %68] : memref<1x8x4xf32>
  %70 = affine.apply affine_map<(d0) -> (d0 + 1)>(%c0_3)
  %71 = affine.load %arg1[0, %70, %c0_8] : memref<1x8x4xf32>
  affine.store %71, %alloca_10[0, %70, %c0_8] : memref<1x8x4xf32>
  %72 = affine.apply affine_map<(d0) -> (d0 + 1)>(%c0_8)
  %73 = affine.load %arg1[0, %70, %72] : memref<1x8x4xf32>
  affine.store %73, %alloca_10[0, %70, %72] : memref<1x8x4xf32>
  %74 = affine.apply affine_map<(d0) -> (d0 + 2)>(%c0_8)
  %75 = affine.load %arg1[0, %70, %74] : memref<1x8x4xf32>
  affine.store %75, %alloca_10[0, %70, %74] : memref<1x8x4xf32>
  %76 = affine.apply affine_map<(d0) -> (d0 + 3)>(%c0_8)
  %77 = affine.load %arg1[0, %70, %76] : memref<1x8x4xf32>
  affine.store %77, %alloca_10[0, %70, %76] : memref<1x8x4xf32>
  %78 = affine.apply affine_map<(d0) -> (d0 + 2)>(%c0_3)
  %79 = affine.load %arg1[0, %78, %c0_8] : memref<1x8x4xf32>
  affine.store %79, %alloca_10[0, %78, %c0_8] : memref<1x8x4xf32>
  %80 = affine.apply affine_map<(d0) -> (d0 + 1)>(%c0_8)
  %81 = affine.load %arg1[0, %78, %80] : memref<1x8x4xf32>
  affine.store %81, %alloca_10[0, %78, %80] : memref<1x8x4xf32>
  %82 = affine.apply affine_map<(d0) -> (d0 + 2)>(%c0_8)
  %83 = affine.load %arg1[0, %78, %82] : memref<1x8x4xf32>
  affine.store %83, %alloca_10[0, %78, %82] : memref<1x8x4xf32>
  %84 = affine.apply affine_map<(d0) -> (d0 + 3)>(%c0_8)
  %85 = affine.load %arg1[0, %78, %84] : memref<1x8x4xf32>
  affine.store %85, %alloca_10[0, %78, %84] : memref<1x8x4xf32>
  %86 = affine.apply affine_map<(d0) -> (d0 + 3)>(%c0_3)
  %87 = affine.load %arg1[0, %86, %c0_8] : memref<1x8x4xf32>
  affine.store %87, %alloca_10[0, %86, %c0_8] : memref<1x8x4xf32>
  %88 = affine.apply affine_map<(d0) -> (d0 + 1)>(%c0_8)
  %89 = affine.load %arg1[0, %86, %88] : memref<1x8x4xf32>
  affine.store %89, %alloca_10[0, %86, %88] : memref<1x8x4xf32>
  %90 = affine.apply affine_map<(d0) -> (d0 + 2)>(%c0_8)
  %91 = affine.load %arg1[0, %86, %90] : memref<1x8x4xf32>
  affine.store %91, %alloca_10[0, %86, %90] : memref<1x8x4xf32>
  %92 = affine.apply affine_map<(d0) -> (d0 + 3)>(%c0_8)
  %93 = affine.load %arg1[0, %86, %92] : memref<1x8x4xf32>
  affine.store %93, %alloca_10[0, %86, %92] : memref<1x8x4xf32>
  %94 = affine.apply affine_map<(d0) -> (d0 + 4)>(%c0_3)
  %95 = affine.load %arg1[0, %94, %c0_8] : memref<1x8x4xf32>
  affine.store %95, %alloca_10[0, %94, %c0_8] : memref<1x8x4xf32>
  %96 = affine.apply affine_map<(d0) -> (d0 + 1)>(%c0_8)
  %97 = affine.load %arg1[0, %94, %96] : memref<1x8x4xf32>
  affine.store %97, %alloca_10[0, %94, %96] : memref<1x8x4xf32>
  %98 = affine.apply affine_map<(d0) -> (d0 + 2)>(%c0_8)
  %99 = affine.load %arg1[0, %94, %98] : memref<1x8x4xf32>
  affine.store %99, %alloca_10[0, %94, %98] : memref<1x8x4xf32>
  %100 = affine.apply affine_map<(d0) -> (d0 + 3)>(%c0_8)
  %101 = affine.load %arg1[0, %94, %100] : memref<1x8x4xf32>
  affine.store %101, %alloca_10[0, %94, %100] : memref<1x8x4xf32>
  %102 = affine.apply affine_map<(d0) -> (d0 + 5)>(%c0_3)
  %103 = affine.load %arg1[0, %102, %c0_8] : memref<1x8x4xf32>
  affine.store %103, %alloca_10[0, %102, %c0_8] : memref<1x8x4xf32>
  %104 = affine.apply affine_map<(d0) -> (d0 + 1)>(%c0_8)
  %105 = affine.load %arg1[0, %102, %104] : memref<1x8x4xf32>
  affine.store %105, %alloca_10[0, %102, %104] : memref<1x8x4xf32>
  %106 = affine.apply affine_map<(d0) -> (d0 + 2)>(%c0_8)
  %107 = affine.load %arg1[0, %102, %106] : memref<1x8x4xf32>
  affine.store %107, %alloca_10[0, %102, %106] : memref<1x8x4xf32>
  %108 = affine.apply affine_map<(d0) -> (d0 + 3)>(%c0_8)
  %109 = affine.load %arg1[0, %102, %108] : memref<1x8x4xf32>
  affine.store %109, %alloca_10[0, %102, %108] : memref<1x8x4xf32>
  %110 = affine.apply affine_map<(d0) -> (d0 + 6)>(%c0_3)
  %111 = affine.load %arg1[0, %110, %c0_8] : memref<1x8x4xf32>
  affine.store %111, %alloca_10[0, %110, %c0_8] : memref<1x8x4xf32>
  %112 = affine.apply affine_map<(d0) -> (d0 + 1)>(%c0_8)
  %113 = affine.load %arg1[0, %110, %112] : memref<1x8x4xf32>
  affine.store %113, %alloca_10[0, %110, %112] : memref<1x8x4xf32>
  %114 = affine.apply affine_map<(d0) -> (d0 + 2)>(%c0_8)
  %115 = affine.load %arg1[0, %110, %114] : memref<1x8x4xf32>
  affine.store %115, %alloca_10[0, %110, %114] : memref<1x8x4xf32>
  %116 = affine.apply affine_map<(d0) -> (d0 + 3)>(%c0_8)
  %117 = affine.load %arg1[0, %110, %116] : memref<1x8x4xf32>
  affine.store %117, %alloca_10[0, %110, %116] : memref<1x8x4xf32>
  %118 = affine.apply affine_map<(d0) -> (d0 + 7)>(%c0_3)
  %119 = affine.load %arg1[0, %118, %c0_8] : memref<1x8x4xf32>
  affine.store %119, %alloca_10[0, %118, %c0_8] : memref<1x8x4xf32>
  %120 = affine.apply affine_map<(d0) -> (d0 + 1)>(%c0_8)
  %121 = affine.load %arg1[0, %118, %120] : memref<1x8x4xf32>
  affine.store %121, %alloca_10[0, %118, %120] : memref<1x8x4xf32>
  %122 = affine.apply affine_map<(d0) -> (d0 + 2)>(%c0_8)
  %123 = affine.load %arg1[0, %118, %122] : memref<1x8x4xf32>
  affine.store %123, %alloca_10[0, %118, %122] : memref<1x8x4xf32>
  %124 = affine.apply affine_map<(d0) -> (d0 + 3)>(%c0_8)
  %125 = affine.load %arg1[0, %118, %124] : memref<1x8x4xf32>
  affine.store %125, %alloca_10[0, %118, %124] : memref<1x8x4xf32>
  %alloca_11 = memref.alloca() : memref<1x4x4xf32>
  %126 = affine.load %arg2[0, %c0_2, %c0_7] : memref<1x4x4xf32>
  affine.store %126, %alloca_11[0, %c0_2, %c0_7] : memref<1x4x4xf32>
  %127 = affine.apply affine_map<(d0) -> (d0 + 1)>(%c0_7)
  %128 = affine.load %arg2[0, %c0_2, %127] : memref<1x4x4xf32>
  affine.store %128, %alloca_11[0, %c0_2, %127] : memref<1x4x4xf32>
  %129 = affine.apply affine_map<(d0) -> (d0 + 2)>(%c0_7)
  %130 = affine.load %arg2[0, %c0_2, %129] : memref<1x4x4xf32>
  affine.store %130, %alloca_11[0, %c0_2, %129] : memref<1x4x4xf32>
  %131 = affine.apply affine_map<(d0) -> (d0 + 3)>(%c0_7)
  %132 = affine.load %arg2[0, %c0_2, %131] : memref<1x4x4xf32>
  affine.store %132, %alloca_11[0, %c0_2, %131] : memref<1x4x4xf32>
  %133 = affine.apply affine_map<(d0) -> (d0 + 1)>(%c0_2)
  %134 = affine.load %arg2[0, %133, %c0_7] : memref<1x4x4xf32>
  affine.store %134, %alloca_11[0, %133, %c0_7] : memref<1x4x4xf32>
  %135 = affine.apply affine_map<(d0) -> (d0 + 1)>(%c0_7)
  %136 = affine.load %arg2[0, %133, %135] : memref<1x4x4xf32>
  affine.store %136, %alloca_11[0, %133, %135] : memref<1x4x4xf32>
  %137 = affine.apply affine_map<(d0) -> (d0 + 2)>(%c0_7)
  %138 = affine.load %arg2[0, %133, %137] : memref<1x4x4xf32>
  affine.store %138, %alloca_11[0, %133, %137] : memref<1x4x4xf32>
  %139 = affine.apply affine_map<(d0) -> (d0 + 3)>(%c0_7)
  %140 = affine.load %arg2[0, %133, %139] : memref<1x4x4xf32>
  affine.store %140, %alloca_11[0, %133, %139] : memref<1x4x4xf32>
  %141 = affine.apply affine_map<(d0) -> (d0 + 2)>(%c0_2)
  %142 = affine.load %arg2[0, %141, %c0_7] : memref<1x4x4xf32>
  affine.store %142, %alloca_11[0, %141, %c0_7] : memref<1x4x4xf32>
  %143 = affine.apply affine_map<(d0) -> (d0 + 1)>(%c0_7)
  %144 = affine.load %arg2[0, %141, %143] : memref<1x4x4xf32>
  affine.store %144, %alloca_11[0, %141, %143] : memref<1x4x4xf32>
  %145 = affine.apply affine_map<(d0) -> (d0 + 2)>(%c0_7)
  %146 = affine.load %arg2[0, %141, %145] : memref<1x4x4xf32>
  affine.store %146, %alloca_11[0, %141, %145] : memref<1x4x4xf32>
  %147 = affine.apply affine_map<(d0) -> (d0 + 3)>(%c0_7)
  %148 = affine.load %arg2[0, %141, %147] : memref<1x4x4xf32>
  affine.store %148, %alloca_11[0, %141, %147] : memref<1x4x4xf32>
  %149 = affine.apply affine_map<(d0) -> (d0 + 3)>(%c0_2)
  %150 = affine.load %arg2[0, %149, %c0_7] : memref<1x4x4xf32>
  affine.store %150, %alloca_11[0, %149, %c0_7] : memref<1x4x4xf32>
  %151 = affine.apply affine_map<(d0) -> (d0 + 1)>(%c0_7)
  %152 = affine.load %arg2[0, %149, %151] : memref<1x4x4xf32>
  affine.store %152, %alloca_11[0, %149, %151] : memref<1x4x4xf32>
  %153 = affine.apply affine_map<(d0) -> (d0 + 2)>(%c0_7)
  %154 = affine.load %arg2[0, %149, %153] : memref<1x4x4xf32>
  affine.store %154, %alloca_11[0, %149, %153] : memref<1x4x4xf32>
  %155 = affine.apply affine_map<(d0) -> (d0 + 3)>(%c0_7)
  %156 = affine.load %arg2[0, %149, %155] : memref<1x4x4xf32>
  affine.store %156, %alloca_11[0, %149, %155] : memref<1x4x4xf32>
  affine.for %arg3 = 0 to 1 {
    %188 = affine.load %alloca[%arg3, %c0, %c0_6] : memref<1x4x8xf32>
    %189 = affine.load %alloca_10[%arg3, %c0_6, %c0_1] : memref<1x8x4xf32>
    %190 = affine.load %alloca_11[%arg3, %c0, %c0_1] : memref<1x4x4xf32>
    %191 = arith.mulf %188, %189 : f32
    %192 = arith.addf %190, %191 : f32
    affine.store %192, %alloca_11[%arg3, %c0, %c0_1] : memref<1x4x4xf32>
    %193 = affine.apply affine_map<(d0) -> (d0 + 1)>(%c0_6)
    %194 = affine.load %alloca[%arg3, %c0, %193] : memref<1x4x8xf32>
    %195 = affine.load %alloca_10[%arg3, %193, %c0_1] : memref<1x8x4xf32>
    %196 = affine.load %alloca_11[%arg3, %c0, %c0_1] : memref<1x4x4xf32>
    %197 = arith.mulf %194, %195 : f32
    %198 = arith.addf %196, %197 : f32
    affine.store %198, %alloca_11[%arg3, %c0, %c0_1] : memref<1x4x4xf32>
    %199 = affine.apply affine_map<(d0) -> (d0 + 2)>(%c0_6)
    %200 = affine.load %alloca[%arg3, %c0, %199] : memref<1x4x8xf32>
    %201 = affine.load %alloca_10[%arg3, %199, %c0_1] : memref<1x8x4xf32>
    %202 = affine.load %alloca_11[%arg3, %c0, %c0_1] : memref<1x4x4xf32>
    %203 = arith.mulf %200, %201 : f32
    %204 = arith.addf %202, %203 : f32
    affine.store %204, %alloca_11[%arg3, %c0, %c0_1] : memref<1x4x4xf32>
    %205 = affine.apply affine_map<(d0) -> (d0 + 3)>(%c0_6)
    %206 = affine.load %alloca[%arg3, %c0, %205] : memref<1x4x8xf32>
    %207 = affine.load %alloca_10[%arg3, %205, %c0_1] : memref<1x8x4xf32>
    %208 = affine.load %alloca_11[%arg3, %c0, %c0_1] : memref<1x4x4xf32>
    %209 = arith.mulf %206, %207 : f32
    %210 = arith.addf %208, %209 : f32
    affine.store %210, %alloca_11[%arg3, %c0, %c0_1] : memref<1x4x4xf32>
    %211 = affine.apply affine_map<(d0) -> (d0 + 4)>(%c0_6)
    %212 = affine.load %alloca[%arg3, %c0, %211] : memref<1x4x8xf32>
    %213 = affine.load %alloca_10[%arg3, %211, %c0_1] : memref<1x8x4xf32>
    %214 = affine.load %alloca_11[%arg3, %c0, %c0_1] : memref<1x4x4xf32>
    %215 = arith.mulf %212, %213 : f32
    %216 = arith.addf %214, %215 : f32
    affine.store %216, %alloca_11[%arg3, %c0, %c0_1] : memref<1x4x4xf32>
    %217 = affine.apply affine_map<(d0) -> (d0 + 5)>(%c0_6)
    %218 = affine.load %alloca[%arg3, %c0, %217] : memref<1x4x8xf32>
    %219 = affine.load %alloca_10[%arg3, %217, %c0_1] : memref<1x8x4xf32>
    %220 = affine.load %alloca_11[%arg3, %c0, %c0_1] : memref<1x4x4xf32>
    %221 = arith.mulf %218, %219 : f32
    %222 = arith.addf %220, %221 : f32
    affine.store %222, %alloca_11[%arg3, %c0, %c0_1] : memref<1x4x4xf32>
    %223 = affine.apply affine_map<(d0) -> (d0 + 6)>(%c0_6)
    %224 = affine.load %alloca[%arg3, %c0, %223] : memref<1x4x8xf32>
    %225 = affine.load %alloca_10[%arg3, %223, %c0_1] : memref<1x8x4xf32>
    %226 = affine.load %alloca_11[%arg3, %c0, %c0_1] : memref<1x4x4xf32>
    %227 = arith.mulf %224, %225 : f32
    %228 = arith.addf %226, %227 : f32
    affine.store %228, %alloca_11[%arg3, %c0, %c0_1] : memref<1x4x4xf32>
    %229 = affine.apply affine_map<(d0) -> (d0 + 7)>(%c0_6)
    %230 = affine.load %alloca[%arg3, %c0, %229] : memref<1x4x8xf32>
    %231 = affine.load %alloca_10[%arg3, %229, %c0_1] : memref<1x8x4xf32>
    %232 = affine.load %alloca_11[%arg3, %c0, %c0_1] : memref<1x4x4xf32>
    %233 = arith.mulf %230, %231 : f32
    %234 = arith.addf %232, %233 : f32
    affine.store %234, %alloca_11[%arg3, %c0, %c0_1] : memref<1x4x4xf32>
    %235 = affine.apply affine_map<(d0) -> (d0 + 1)>(%c0_1)
    %236 = affine.load %alloca[%arg3, %c0, %c0_6] : memref<1x4x8xf32>
    %237 = affine.load %alloca_10[%arg3, %c0_6, %235] : memref<1x8x4xf32>
    %238 = affine.load %alloca_11[%arg3, %c0, %235] : memref<1x4x4xf32>
    %239 = arith.mulf %236, %237 : f32
    %240 = arith.addf %238, %239 : f32
    affine.store %240, %alloca_11[%arg3, %c0, %235] : memref<1x4x4xf32>
    %241 = affine.apply affine_map<(d0) -> (d0 + 1)>(%c0_6)
    %242 = affine.load %alloca[%arg3, %c0, %241] : memref<1x4x8xf32>
    %243 = affine.load %alloca_10[%arg3, %241, %235] : memref<1x8x4xf32>
    %244 = affine.load %alloca_11[%arg3, %c0, %235] : memref<1x4x4xf32>
    %245 = arith.mulf %242, %243 : f32
    %246 = arith.addf %244, %245 : f32
    affine.store %246, %alloca_11[%arg3, %c0, %235] : memref<1x4x4xf32>
    %247 = affine.apply affine_map<(d0) -> (d0 + 2)>(%c0_6)
    %248 = affine.load %alloca[%arg3, %c0, %247] : memref<1x4x8xf32>
    %249 = affine.load %alloca_10[%arg3, %247, %235] : memref<1x8x4xf32>
    %250 = affine.load %alloca_11[%arg3, %c0, %235] : memref<1x4x4xf32>
    %251 = arith.mulf %248, %249 : f32
    %252 = arith.addf %250, %251 : f32
    affine.store %252, %alloca_11[%arg3, %c0, %235] : memref<1x4x4xf32>
    %253 = affine.apply affine_map<(d0) -> (d0 + 3)>(%c0_6)
    %254 = affine.load %alloca[%arg3, %c0, %253] : memref<1x4x8xf32>
    %255 = affine.load %alloca_10[%arg3, %253, %235] : memref<1x8x4xf32>
    %256 = affine.load %alloca_11[%arg3, %c0, %235] : memref<1x4x4xf32>
    %257 = arith.mulf %254, %255 : f32
    %258 = arith.addf %256, %257 : f32
    affine.store %258, %alloca_11[%arg3, %c0, %235] : memref<1x4x4xf32>
    %259 = affine.apply affine_map<(d0) -> (d0 + 4)>(%c0_6)
    %260 = affine.load %alloca[%arg3, %c0, %259] : memref<1x4x8xf32>
    %261 = affine.load %alloca_10[%arg3, %259, %235] : memref<1x8x4xf32>
    %262 = affine.load %alloca_11[%arg3, %c0, %235] : memref<1x4x4xf32>
    %263 = arith.mulf %260, %261 : f32
    %264 = arith.addf %262, %263 : f32
    affine.store %264, %alloca_11[%arg3, %c0, %235] : memref<1x4x4xf32>
    %265 = affine.apply affine_map<(d0) -> (d0 + 5)>(%c0_6)
    %266 = affine.load %alloca[%arg3, %c0, %265] : memref<1x4x8xf32>
    %267 = affine.load %alloca_10[%arg3, %265, %235] : memref<1x8x4xf32>
    %268 = affine.load %alloca_11[%arg3, %c0, %235] : memref<1x4x4xf32>
    %269 = arith.mulf %266, %267 : f32
    %270 = arith.addf %268, %269 : f32
    affine.store %270, %alloca_11[%arg3, %c0, %235] : memref<1x4x4xf32>
    %271 = affine.apply affine_map<(d0) -> (d0 + 6)>(%c0_6)
    %272 = affine.load %alloca[%arg3, %c0, %271] : memref<1x4x8xf32>
    %273 = affine.load %alloca_10[%arg3, %271, %235] : memref<1x8x4xf32>
    %274 = affine.load %alloca_11[%arg3, %c0, %235] : memref<1x4x4xf32>
    %275 = arith.mulf %272, %273 : f32
    %276 = arith.addf %274, %275 : f32
    affine.store %276, %alloca_11[%arg3, %c0, %235] : memref<1x4x4xf32>
    %277 = affine.apply affine_map<(d0) -> (d0 + 7)>(%c0_6)
    %278 = affine.load %alloca[%arg3, %c0, %277] : memref<1x4x8xf32>
    %279 = affine.load %alloca_10[%arg3, %277, %235] : memref<1x8x4xf32>
    %280 = affine.load %alloca_11[%arg3, %c0, %235] : memref<1x4x4xf32>
    %281 = arith.mulf %278, %279 : f32
    %282 = arith.addf %280, %281 : f32
    affine.store %282, %alloca_11[%arg3, %c0, %235] : memref<1x4x4xf32>
    %283 = affine.apply affine_map<(d0) -> (d0 + 2)>(%c0_1)
    %284 = affine.load %alloca[%arg3, %c0, %c0_6] : memref<1x4x8xf32>
    %285 = affine.load %alloca_10[%arg3, %c0_6, %283] : memref<1x8x4xf32>
    %286 = affine.load %alloca_11[%arg3, %c0, %283] : memref<1x4x4xf32>
    %287 = arith.mulf %284, %285 : f32
    %288 = arith.addf %286, %287 : f32
    affine.store %288, %alloca_11[%arg3, %c0, %283] : memref<1x4x4xf32>
    %289 = affine.apply affine_map<(d0) -> (d0 + 1)>(%c0_6)
    %290 = affine.load %alloca[%arg3, %c0, %289] : memref<1x4x8xf32>
    %291 = affine.load %alloca_10[%arg3, %289, %283] : memref<1x8x4xf32>
    %292 = affine.load %alloca_11[%arg3, %c0, %283] : memref<1x4x4xf32>
    %293 = arith.mulf %290, %291 : f32
    %294 = arith.addf %292, %293 : f32
    affine.store %294, %alloca_11[%arg3, %c0, %283] : memref<1x4x4xf32>
    %295 = affine.apply affine_map<(d0) -> (d0 + 2)>(%c0_6)
    %296 = affine.load %alloca[%arg3, %c0, %295] : memref<1x4x8xf32>
    %297 = affine.load %alloca_10[%arg3, %295, %283] : memref<1x8x4xf32>
    %298 = affine.load %alloca_11[%arg3, %c0, %283] : memref<1x4x4xf32>
    %299 = arith.mulf %296, %297 : f32
    %300 = arith.addf %298, %299 : f32
    affine.store %300, %alloca_11[%arg3, %c0, %283] : memref<1x4x4xf32>
    %301 = affine.apply affine_map<(d0) -> (d0 + 3)>(%c0_6)
    %302 = affine.load %alloca[%arg3, %c0, %301] : memref<1x4x8xf32>
    %303 = affine.load %alloca_10[%arg3, %301, %283] : memref<1x8x4xf32>
    %304 = affine.load %alloca_11[%arg3, %c0, %283] : memref<1x4x4xf32>
    %305 = arith.mulf %302, %303 : f32
    %306 = arith.addf %304, %305 : f32
    affine.store %306, %alloca_11[%arg3, %c0, %283] : memref<1x4x4xf32>
    %307 = affine.apply affine_map<(d0) -> (d0 + 4)>(%c0_6)
    %308 = affine.load %alloca[%arg3, %c0, %307] : memref<1x4x8xf32>
    %309 = affine.load %alloca_10[%arg3, %307, %283] : memref<1x8x4xf32>
    %310 = affine.load %alloca_11[%arg3, %c0, %283] : memref<1x4x4xf32>
    %311 = arith.mulf %308, %309 : f32
    %312 = arith.addf %310, %311 : f32
    affine.store %312, %alloca_11[%arg3, %c0, %283] : memref<1x4x4xf32>
    %313 = affine.apply affine_map<(d0) -> (d0 + 5)>(%c0_6)
    %314 = affine.load %alloca[%arg3, %c0, %313] : memref<1x4x8xf32>
    %315 = affine.load %alloca_10[%arg3, %313, %283] : memref<1x8x4xf32>
    %316 = affine.load %alloca_11[%arg3, %c0, %283] : memref<1x4x4xf32>
    %317 = arith.mulf %314, %315 : f32
    %318 = arith.addf %316, %317 : f32
    affine.store %318, %alloca_11[%arg3, %c0, %283] : memref<1x4x4xf32>
    %319 = affine.apply affine_map<(d0) -> (d0 + 6)>(%c0_6)
    %320 = affine.load %alloca[%arg3, %c0, %319] : memref<1x4x8xf32>
    %321 = affine.load %alloca_10[%arg3, %319, %283] : memref<1x8x4xf32>
    %322 = affine.load %alloca_11[%arg3, %c0, %283] : memref<1x4x4xf32>
    %323 = arith.mulf %320, %321 : f32
    %324 = arith.addf %322, %323 : f32
    affine.store %324, %alloca_11[%arg3, %c0, %283] : memref<1x4x4xf32>
    %325 = affine.apply affine_map<(d0) -> (d0 + 7)>(%c0_6)
    %326 = affine.load %alloca[%arg3, %c0, %325] : memref<1x4x8xf32>
    %327 = affine.load %alloca_10[%arg3, %325, %283] : memref<1x8x4xf32>
    %328 = affine.load %alloca_11[%arg3, %c0, %283] : memref<1x4x4xf32>
    %329 = arith.mulf %326, %327 : f32
    %330 = arith.addf %328, %329 : f32
    affine.store %330, %alloca_11[%arg3, %c0, %283] : memref<1x4x4xf32>
    %331 = affine.apply affine_map<(d0) -> (d0 + 3)>(%c0_1)
    %332 = affine.load %alloca[%arg3, %c0, %c0_6] : memref<1x4x8xf32>
    %333 = affine.load %alloca_10[%arg3, %c0_6, %331] : memref<1x8x4xf32>
    %334 = affine.load %alloca_11[%arg3, %c0, %331] : memref<1x4x4xf32>
    %335 = arith.mulf %332, %333 : f32
    %336 = arith.addf %334, %335 : f32
    affine.store %336, %alloca_11[%arg3, %c0, %331] : memref<1x4x4xf32>
    %337 = affine.apply affine_map<(d0) -> (d0 + 1)>(%c0_6)
    %338 = affine.load %alloca[%arg3, %c0, %337] : memref<1x4x8xf32>
    %339 = affine.load %alloca_10[%arg3, %337, %331] : memref<1x8x4xf32>
    %340 = affine.load %alloca_11[%arg3, %c0, %331] : memref<1x4x4xf32>
    %341 = arith.mulf %338, %339 : f32
    %342 = arith.addf %340, %341 : f32
    affine.store %342, %alloca_11[%arg3, %c0, %331] : memref<1x4x4xf32>
    %343 = affine.apply affine_map<(d0) -> (d0 + 2)>(%c0_6)
    %344 = affine.load %alloca[%arg3, %c0, %343] : memref<1x4x8xf32>
    %345 = affine.load %alloca_10[%arg3, %343, %331] : memref<1x8x4xf32>
    %346 = affine.load %alloca_11[%arg3, %c0, %331] : memref<1x4x4xf32>
    %347 = arith.mulf %344, %345 : f32
    %348 = arith.addf %346, %347 : f32
    affine.store %348, %alloca_11[%arg3, %c0, %331] : memref<1x4x4xf32>
    %349 = affine.apply affine_map<(d0) -> (d0 + 3)>(%c0_6)
    %350 = affine.load %alloca[%arg3, %c0, %349] : memref<1x4x8xf32>
    %351 = affine.load %alloca_10[%arg3, %349, %331] : memref<1x8x4xf32>
    %352 = affine.load %alloca_11[%arg3, %c0, %331] : memref<1x4x4xf32>
    %353 = arith.mulf %350, %351 : f32
    %354 = arith.addf %352, %353 : f32
    affine.store %354, %alloca_11[%arg3, %c0, %331] : memref<1x4x4xf32>
    %355 = affine.apply affine_map<(d0) -> (d0 + 4)>(%c0_6)
    %356 = affine.load %alloca[%arg3, %c0, %355] : memref<1x4x8xf32>
    %357 = affine.load %alloca_10[%arg3, %355, %331] : memref<1x8x4xf32>
    %358 = affine.load %alloca_11[%arg3, %c0, %331] : memref<1x4x4xf32>
    %359 = arith.mulf %356, %357 : f32
    %360 = arith.addf %358, %359 : f32
    affine.store %360, %alloca_11[%arg3, %c0, %331] : memref<1x4x4xf32>
    %361 = affine.apply affine_map<(d0) -> (d0 + 5)>(%c0_6)
    %362 = affine.load %alloca[%arg3, %c0, %361] : memref<1x4x8xf32>
    %363 = affine.load %alloca_10[%arg3, %361, %331] : memref<1x8x4xf32>
    %364 = affine.load %alloca_11[%arg3, %c0, %331] : memref<1x4x4xf32>
    %365 = arith.mulf %362, %363 : f32
    %366 = arith.addf %364, %365 : f32
    affine.store %366, %alloca_11[%arg3, %c0, %331] : memref<1x4x4xf32>
    %367 = affine.apply affine_map<(d0) -> (d0 + 6)>(%c0_6)
    %368 = affine.load %alloca[%arg3, %c0, %367] : memref<1x4x8xf32>
    %369 = affine.load %alloca_10[%arg3, %367, %331] : memref<1x8x4xf32>
    %370 = affine.load %alloca_11[%arg3, %c0, %331] : memref<1x4x4xf32>
    %371 = arith.mulf %368, %369 : f32
    %372 = arith.addf %370, %371 : f32
    affine.store %372, %alloca_11[%arg3, %c0, %331] : memref<1x4x4xf32>
    %373 = affine.apply affine_map<(d0) -> (d0 + 7)>(%c0_6)
    %374 = affine.load %alloca[%arg3, %c0, %373] : memref<1x4x8xf32>
    %375 = affine.load %alloca_10[%arg3, %373, %331] : memref<1x8x4xf32>
    %376 = affine.load %alloca_11[%arg3, %c0, %331] : memref<1x4x4xf32>
    %377 = arith.mulf %374, %375 : f32
    %378 = arith.addf %376, %377 : f32
    affine.store %378, %alloca_11[%arg3, %c0, %331] : memref<1x4x4xf32>
    %379 = affine.apply affine_map<(d0) -> (d0 + 1)>(%c0)
    %380 = affine.load %alloca[%arg3, %379, %c0_6] : memref<1x4x8xf32>
    %381 = affine.load %alloca_10[%arg3, %c0_6, %c0_1] : memref<1x8x4xf32>
    %382 = affine.load %alloca_11[%arg3, %379, %c0_1] : memref<1x4x4xf32>
    %383 = arith.mulf %380, %381 : f32
    %384 = arith.addf %382, %383 : f32
    affine.store %384, %alloca_11[%arg3, %379, %c0_1] : memref<1x4x4xf32>
    %385 = affine.apply affine_map<(d0) -> (d0 + 1)>(%c0_6)
    %386 = affine.load %alloca[%arg3, %379, %385] : memref<1x4x8xf32>
    %387 = affine.load %alloca_10[%arg3, %385, %c0_1] : memref<1x8x4xf32>
    %388 = affine.load %alloca_11[%arg3, %379, %c0_1] : memref<1x4x4xf32>
    %389 = arith.mulf %386, %387 : f32
    %390 = arith.addf %388, %389 : f32
    affine.store %390, %alloca_11[%arg3, %379, %c0_1] : memref<1x4x4xf32>
    %391 = affine.apply affine_map<(d0) -> (d0 + 2)>(%c0_6)
    %392 = affine.load %alloca[%arg3, %379, %391] : memref<1x4x8xf32>
    %393 = affine.load %alloca_10[%arg3, %391, %c0_1] : memref<1x8x4xf32>
    %394 = affine.load %alloca_11[%arg3, %379, %c0_1] : memref<1x4x4xf32>
    %395 = arith.mulf %392, %393 : f32
    %396 = arith.addf %394, %395 : f32
    affine.store %396, %alloca_11[%arg3, %379, %c0_1] : memref<1x4x4xf32>
    %397 = affine.apply affine_map<(d0) -> (d0 + 3)>(%c0_6)
    %398 = affine.load %alloca[%arg3, %379, %397] : memref<1x4x8xf32>
    %399 = affine.load %alloca_10[%arg3, %397, %c0_1] : memref<1x8x4xf32>
    %400 = affine.load %alloca_11[%arg3, %379, %c0_1] : memref<1x4x4xf32>
    %401 = arith.mulf %398, %399 : f32
    %402 = arith.addf %400, %401 : f32
    affine.store %402, %alloca_11[%arg3, %379, %c0_1] : memref<1x4x4xf32>
    %403 = affine.apply affine_map<(d0) -> (d0 + 4)>(%c0_6)
    %404 = affine.load %alloca[%arg3, %379, %403] : memref<1x4x8xf32>
    %405 = affine.load %alloca_10[%arg3, %403, %c0_1] : memref<1x8x4xf32>
    %406 = affine.load %alloca_11[%arg3, %379, %c0_1] : memref<1x4x4xf32>
    %407 = arith.mulf %404, %405 : f32
    %408 = arith.addf %406, %407 : f32
    affine.store %408, %alloca_11[%arg3, %379, %c0_1] : memref<1x4x4xf32>
    %409 = affine.apply affine_map<(d0) -> (d0 + 5)>(%c0_6)
    %410 = affine.load %alloca[%arg3, %379, %409] : memref<1x4x8xf32>
    %411 = affine.load %alloca_10[%arg3, %409, %c0_1] : memref<1x8x4xf32>
    %412 = affine.load %alloca_11[%arg3, %379, %c0_1] : memref<1x4x4xf32>
    %413 = arith.mulf %410, %411 : f32
    %414 = arith.addf %412, %413 : f32
    affine.store %414, %alloca_11[%arg3, %379, %c0_1] : memref<1x4x4xf32>
    %415 = affine.apply affine_map<(d0) -> (d0 + 6)>(%c0_6)
    %416 = affine.load %alloca[%arg3, %379, %415] : memref<1x4x8xf32>
    %417 = affine.load %alloca_10[%arg3, %415, %c0_1] : memref<1x8x4xf32>
    %418 = affine.load %alloca_11[%arg3, %379, %c0_1] : memref<1x4x4xf32>
    %419 = arith.mulf %416, %417 : f32
    %420 = arith.addf %418, %419 : f32
    affine.store %420, %alloca_11[%arg3, %379, %c0_1] : memref<1x4x4xf32>
    %421 = affine.apply affine_map<(d0) -> (d0 + 7)>(%c0_6)
    %422 = affine.load %alloca[%arg3, %379, %421] : memref<1x4x8xf32>
    %423 = affine.load %alloca_10[%arg3, %421, %c0_1] : memref<1x8x4xf32>
    %424 = affine.load %alloca_11[%arg3, %379, %c0_1] : memref<1x4x4xf32>
    %425 = arith.mulf %422, %423 : f32
    %426 = arith.addf %424, %425 : f32
    affine.store %426, %alloca_11[%arg3, %379, %c0_1] : memref<1x4x4xf32>
    %427 = affine.apply affine_map<(d0) -> (d0 + 1)>(%c0_1)
    %428 = affine.load %alloca[%arg3, %379, %c0_6] : memref<1x4x8xf32>
    %429 = affine.load %alloca_10[%arg3, %c0_6, %427] : memref<1x8x4xf32>
    %430 = affine.load %alloca_11[%arg3, %379, %427] : memref<1x4x4xf32>
    %431 = arith.mulf %428, %429 : f32
    %432 = arith.addf %430, %431 : f32
    affine.store %432, %alloca_11[%arg3, %379, %427] : memref<1x4x4xf32>
    %433 = affine.apply affine_map<(d0) -> (d0 + 1)>(%c0_6)
    %434 = affine.load %alloca[%arg3, %379, %433] : memref<1x4x8xf32>
    %435 = affine.load %alloca_10[%arg3, %433, %427] : memref<1x8x4xf32>
    %436 = affine.load %alloca_11[%arg3, %379, %427] : memref<1x4x4xf32>
    %437 = arith.mulf %434, %435 : f32
    %438 = arith.addf %436, %437 : f32
    affine.store %438, %alloca_11[%arg3, %379, %427] : memref<1x4x4xf32>
    %439 = affine.apply affine_map<(d0) -> (d0 + 2)>(%c0_6)
    %440 = affine.load %alloca[%arg3, %379, %439] : memref<1x4x8xf32>
    %441 = affine.load %alloca_10[%arg3, %439, %427] : memref<1x8x4xf32>
    %442 = affine.load %alloca_11[%arg3, %379, %427] : memref<1x4x4xf32>
    %443 = arith.mulf %440, %441 : f32
    %444 = arith.addf %442, %443 : f32
    affine.store %444, %alloca_11[%arg3, %379, %427] : memref<1x4x4xf32>
    %445 = affine.apply affine_map<(d0) -> (d0 + 3)>(%c0_6)
    %446 = affine.load %alloca[%arg3, %379, %445] : memref<1x4x8xf32>
    %447 = affine.load %alloca_10[%arg3, %445, %427] : memref<1x8x4xf32>
    %448 = affine.load %alloca_11[%arg3, %379, %427] : memref<1x4x4xf32>
    %449 = arith.mulf %446, %447 : f32
    %450 = arith.addf %448, %449 : f32
    affine.store %450, %alloca_11[%arg3, %379, %427] : memref<1x4x4xf32>
    %451 = affine.apply affine_map<(d0) -> (d0 + 4)>(%c0_6)
    %452 = affine.load %alloca[%arg3, %379, %451] : memref<1x4x8xf32>
    %453 = affine.load %alloca_10[%arg3, %451, %427] : memref<1x8x4xf32>
    %454 = affine.load %alloca_11[%arg3, %379, %427] : memref<1x4x4xf32>
    %455 = arith.mulf %452, %453 : f32
    %456 = arith.addf %454, %455 : f32
    affine.store %456, %alloca_11[%arg3, %379, %427] : memref<1x4x4xf32>
    %457 = affine.apply affine_map<(d0) -> (d0 + 5)>(%c0_6)
    %458 = affine.load %alloca[%arg3, %379, %457] : memref<1x4x8xf32>
    %459 = affine.load %alloca_10[%arg3, %457, %427] : memref<1x8x4xf32>
    %460 = affine.load %alloca_11[%arg3, %379, %427] : memref<1x4x4xf32>
    %461 = arith.mulf %458, %459 : f32
    %462 = arith.addf %460, %461 : f32
    affine.store %462, %alloca_11[%arg3, %379, %427] : memref<1x4x4xf32>
    %463 = affine.apply affine_map<(d0) -> (d0 + 6)>(%c0_6)
    %464 = affine.load %alloca[%arg3, %379, %463] : memref<1x4x8xf32>
    %465 = affine.load %alloca_10[%arg3, %463, %427] : memref<1x8x4xf32>
    %466 = affine.load %alloca_11[%arg3, %379, %427] : memref<1x4x4xf32>
    %467 = arith.mulf %464, %465 : f32
    %468 = arith.addf %466, %467 : f32
    affine.store %468, %alloca_11[%arg3, %379, %427] : memref<1x4x4xf32>
    %469 = affine.apply affine_map<(d0) -> (d0 + 7)>(%c0_6)
    %470 = affine.load %alloca[%arg3, %379, %469] : memref<1x4x8xf32>
    %471 = affine.load %alloca_10[%arg3, %469, %427] : memref<1x8x4xf32>
    %472 = affine.load %alloca_11[%arg3, %379, %427] : memref<1x4x4xf32>
    %473 = arith.mulf %470, %471 : f32
    %474 = arith.addf %472, %473 : f32
    affine.store %474, %alloca_11[%arg3, %379, %427] : memref<1x4x4xf32>
    %475 = affine.apply affine_map<(d0) -> (d0 + 2)>(%c0_1)
    %476 = affine.load %alloca[%arg3, %379, %c0_6] : memref<1x4x8xf32>
    %477 = affine.load %alloca_10[%arg3, %c0_6, %475] : memref<1x8x4xf32>
    %478 = affine.load %alloca_11[%arg3, %379, %475] : memref<1x4x4xf32>
    %479 = arith.mulf %476, %477 : f32
    %480 = arith.addf %478, %479 : f32
    affine.store %480, %alloca_11[%arg3, %379, %475] : memref<1x4x4xf32>
    %481 = affine.apply affine_map<(d0) -> (d0 + 1)>(%c0_6)
    %482 = affine.load %alloca[%arg3, %379, %481] : memref<1x4x8xf32>
    %483 = affine.load %alloca_10[%arg3, %481, %475] : memref<1x8x4xf32>
    %484 = affine.load %alloca_11[%arg3, %379, %475] : memref<1x4x4xf32>
    %485 = arith.mulf %482, %483 : f32
    %486 = arith.addf %484, %485 : f32
    affine.store %486, %alloca_11[%arg3, %379, %475] : memref<1x4x4xf32>
    %487 = affine.apply affine_map<(d0) -> (d0 + 2)>(%c0_6)
    %488 = affine.load %alloca[%arg3, %379, %487] : memref<1x4x8xf32>
    %489 = affine.load %alloca_10[%arg3, %487, %475] : memref<1x8x4xf32>
    %490 = affine.load %alloca_11[%arg3, %379, %475] : memref<1x4x4xf32>
    %491 = arith.mulf %488, %489 : f32
    %492 = arith.addf %490, %491 : f32
    affine.store %492, %alloca_11[%arg3, %379, %475] : memref<1x4x4xf32>
    %493 = affine.apply affine_map<(d0) -> (d0 + 3)>(%c0_6)
    %494 = affine.load %alloca[%arg3, %379, %493] : memref<1x4x8xf32>
    %495 = affine.load %alloca_10[%arg3, %493, %475] : memref<1x8x4xf32>
    %496 = affine.load %alloca_11[%arg3, %379, %475] : memref<1x4x4xf32>
    %497 = arith.mulf %494, %495 : f32
    %498 = arith.addf %496, %497 : f32
    affine.store %498, %alloca_11[%arg3, %379, %475] : memref<1x4x4xf32>
    %499 = affine.apply affine_map<(d0) -> (d0 + 4)>(%c0_6)
    %500 = affine.load %alloca[%arg3, %379, %499] : memref<1x4x8xf32>
    %501 = affine.load %alloca_10[%arg3, %499, %475] : memref<1x8x4xf32>
    %502 = affine.load %alloca_11[%arg3, %379, %475] : memref<1x4x4xf32>
    %503 = arith.mulf %500, %501 : f32
    %504 = arith.addf %502, %503 : f32
    affine.store %504, %alloca_11[%arg3, %379, %475] : memref<1x4x4xf32>
    %505 = affine.apply affine_map<(d0) -> (d0 + 5)>(%c0_6)
    %506 = affine.load %alloca[%arg3, %379, %505] : memref<1x4x8xf32>
    %507 = affine.load %alloca_10[%arg3, %505, %475] : memref<1x8x4xf32>
    %508 = affine.load %alloca_11[%arg3, %379, %475] : memref<1x4x4xf32>
    %509 = arith.mulf %506, %507 : f32
    %510 = arith.addf %508, %509 : f32
    affine.store %510, %alloca_11[%arg3, %379, %475] : memref<1x4x4xf32>
    %511 = affine.apply affine_map<(d0) -> (d0 + 6)>(%c0_6)
    %512 = affine.load %alloca[%arg3, %379, %511] : memref<1x4x8xf32>
    %513 = affine.load %alloca_10[%arg3, %511, %475] : memref<1x8x4xf32>
    %514 = affine.load %alloca_11[%arg3, %379, %475] : memref<1x4x4xf32>
    %515 = arith.mulf %512, %513 : f32
    %516 = arith.addf %514, %515 : f32
    affine.store %516, %alloca_11[%arg3, %379, %475] : memref<1x4x4xf32>
    %517 = affine.apply affine_map<(d0) -> (d0 + 7)>(%c0_6)
    %518 = affine.load %alloca[%arg3, %379, %517] : memref<1x4x8xf32>
    %519 = affine.load %alloca_10[%arg3, %517, %475] : memref<1x8x4xf32>
    %520 = affine.load %alloca_11[%arg3, %379, %475] : memref<1x4x4xf32>
    %521 = arith.mulf %518, %519 : f32
    %522 = arith.addf %520, %521 : f32
    affine.store %522, %alloca_11[%arg3, %379, %475] : memref<1x4x4xf32>
    %523 = affine.apply affine_map<(d0) -> (d0 + 3)>(%c0_1)
    %524 = affine.load %alloca[%arg3, %379, %c0_6] : memref<1x4x8xf32>
    %525 = affine.load %alloca_10[%arg3, %c0_6, %523] : memref<1x8x4xf32>
    %526 = affine.load %alloca_11[%arg3, %379, %523] : memref<1x4x4xf32>
    %527 = arith.mulf %524, %525 : f32
    %528 = arith.addf %526, %527 : f32
    affine.store %528, %alloca_11[%arg3, %379, %523] : memref<1x4x4xf32>
    %529 = affine.apply affine_map<(d0) -> (d0 + 1)>(%c0_6)
    %530 = affine.load %alloca[%arg3, %379, %529] : memref<1x4x8xf32>
    %531 = affine.load %alloca_10[%arg3, %529, %523] : memref<1x8x4xf32>
    %532 = affine.load %alloca_11[%arg3, %379, %523] : memref<1x4x4xf32>
    %533 = arith.mulf %530, %531 : f32
    %534 = arith.addf %532, %533 : f32
    affine.store %534, %alloca_11[%arg3, %379, %523] : memref<1x4x4xf32>
    %535 = affine.apply affine_map<(d0) -> (d0 + 2)>(%c0_6)
    %536 = affine.load %alloca[%arg3, %379, %535] : memref<1x4x8xf32>
    %537 = affine.load %alloca_10[%arg3, %535, %523] : memref<1x8x4xf32>
    %538 = affine.load %alloca_11[%arg3, %379, %523] : memref<1x4x4xf32>
    %539 = arith.mulf %536, %537 : f32
    %540 = arith.addf %538, %539 : f32
    affine.store %540, %alloca_11[%arg3, %379, %523] : memref<1x4x4xf32>
    %541 = affine.apply affine_map<(d0) -> (d0 + 3)>(%c0_6)
    %542 = affine.load %alloca[%arg3, %379, %541] : memref<1x4x8xf32>
    %543 = affine.load %alloca_10[%arg3, %541, %523] : memref<1x8x4xf32>
    %544 = affine.load %alloca_11[%arg3, %379, %523] : memref<1x4x4xf32>
    %545 = arith.mulf %542, %543 : f32
    %546 = arith.addf %544, %545 : f32
    affine.store %546, %alloca_11[%arg3, %379, %523] : memref<1x4x4xf32>
    %547 = affine.apply affine_map<(d0) -> (d0 + 4)>(%c0_6)
    %548 = affine.load %alloca[%arg3, %379, %547] : memref<1x4x8xf32>
    %549 = affine.load %alloca_10[%arg3, %547, %523] : memref<1x8x4xf32>
    %550 = affine.load %alloca_11[%arg3, %379, %523] : memref<1x4x4xf32>
    %551 = arith.mulf %548, %549 : f32
    %552 = arith.addf %550, %551 : f32
    affine.store %552, %alloca_11[%arg3, %379, %523] : memref<1x4x4xf32>
    %553 = affine.apply affine_map<(d0) -> (d0 + 5)>(%c0_6)
    %554 = affine.load %alloca[%arg3, %379, %553] : memref<1x4x8xf32>
    %555 = affine.load %alloca_10[%arg3, %553, %523] : memref<1x8x4xf32>
    %556 = affine.load %alloca_11[%arg3, %379, %523] : memref<1x4x4xf32>
    %557 = arith.mulf %554, %555 : f32
    %558 = arith.addf %556, %557 : f32
    affine.store %558, %alloca_11[%arg3, %379, %523] : memref<1x4x4xf32>
    %559 = affine.apply affine_map<(d0) -> (d0 + 6)>(%c0_6)
    %560 = affine.load %alloca[%arg3, %379, %559] : memref<1x4x8xf32>
    %561 = affine.load %alloca_10[%arg3, %559, %523] : memref<1x8x4xf32>
    %562 = affine.load %alloca_11[%arg3, %379, %523] : memref<1x4x4xf32>
    %563 = arith.mulf %560, %561 : f32
    %564 = arith.addf %562, %563 : f32
    affine.store %564, %alloca_11[%arg3, %379, %523] : memref<1x4x4xf32>
    %565 = affine.apply affine_map<(d0) -> (d0 + 7)>(%c0_6)
    %566 = affine.load %alloca[%arg3, %379, %565] : memref<1x4x8xf32>
    %567 = affine.load %alloca_10[%arg3, %565, %523] : memref<1x8x4xf32>
    %568 = affine.load %alloca_11[%arg3, %379, %523] : memref<1x4x4xf32>
    %569 = arith.mulf %566, %567 : f32
    %570 = arith.addf %568, %569 : f32
    affine.store %570, %alloca_11[%arg3, %379, %523] : memref<1x4x4xf32>
    %571 = affine.apply affine_map<(d0) -> (d0 + 2)>(%c0)
    %572 = affine.load %alloca[%arg3, %571, %c0_6] : memref<1x4x8xf32>
    %573 = affine.load %alloca_10[%arg3, %c0_6, %c0_1] : memref<1x8x4xf32>
    %574 = affine.load %alloca_11[%arg3, %571, %c0_1] : memref<1x4x4xf32>
    %575 = arith.mulf %572, %573 : f32
    %576 = arith.addf %574, %575 : f32
    affine.store %576, %alloca_11[%arg3, %571, %c0_1] : memref<1x4x4xf32>
    %577 = affine.apply affine_map<(d0) -> (d0 + 1)>(%c0_6)
    %578 = affine.load %alloca[%arg3, %571, %577] : memref<1x4x8xf32>
    %579 = affine.load %alloca_10[%arg3, %577, %c0_1] : memref<1x8x4xf32>
    %580 = affine.load %alloca_11[%arg3, %571, %c0_1] : memref<1x4x4xf32>
    %581 = arith.mulf %578, %579 : f32
    %582 = arith.addf %580, %581 : f32
    affine.store %582, %alloca_11[%arg3, %571, %c0_1] : memref<1x4x4xf32>
    %583 = affine.apply affine_map<(d0) -> (d0 + 2)>(%c0_6)
    %584 = affine.load %alloca[%arg3, %571, %583] : memref<1x4x8xf32>
    %585 = affine.load %alloca_10[%arg3, %583, %c0_1] : memref<1x8x4xf32>
    %586 = affine.load %alloca_11[%arg3, %571, %c0_1] : memref<1x4x4xf32>
    %587 = arith.mulf %584, %585 : f32
    %588 = arith.addf %586, %587 : f32
    affine.store %588, %alloca_11[%arg3, %571, %c0_1] : memref<1x4x4xf32>
    %589 = affine.apply affine_map<(d0) -> (d0 + 3)>(%c0_6)
    %590 = affine.load %alloca[%arg3, %571, %589] : memref<1x4x8xf32>
    %591 = affine.load %alloca_10[%arg3, %589, %c0_1] : memref<1x8x4xf32>
    %592 = affine.load %alloca_11[%arg3, %571, %c0_1] : memref<1x4x4xf32>
    %593 = arith.mulf %590, %591 : f32
    %594 = arith.addf %592, %593 : f32
    affine.store %594, %alloca_11[%arg3, %571, %c0_1] : memref<1x4x4xf32>
    %595 = affine.apply affine_map<(d0) -> (d0 + 4)>(%c0_6)
    %596 = affine.load %alloca[%arg3, %571, %595] : memref<1x4x8xf32>
    %597 = affine.load %alloca_10[%arg3, %595, %c0_1] : memref<1x8x4xf32>
    %598 = affine.load %alloca_11[%arg3, %571, %c0_1] : memref<1x4x4xf32>
    %599 = arith.mulf %596, %597 : f32
    %600 = arith.addf %598, %599 : f32
    affine.store %600, %alloca_11[%arg3, %571, %c0_1] : memref<1x4x4xf32>
    %601 = affine.apply affine_map<(d0) -> (d0 + 5)>(%c0_6)
    %602 = affine.load %alloca[%arg3, %571, %601] : memref<1x4x8xf32>
    %603 = affine.load %alloca_10[%arg3, %601, %c0_1] : memref<1x8x4xf32>
    %604 = affine.load %alloca_11[%arg3, %571, %c0_1] : memref<1x4x4xf32>
    %605 = arith.mulf %602, %603 : f32
    %606 = arith.addf %604, %605 : f32
    affine.store %606, %alloca_11[%arg3, %571, %c0_1] : memref<1x4x4xf32>
    %607 = affine.apply affine_map<(d0) -> (d0 + 6)>(%c0_6)
    %608 = affine.load %alloca[%arg3, %571, %607] : memref<1x4x8xf32>
    %609 = affine.load %alloca_10[%arg3, %607, %c0_1] : memref<1x8x4xf32>
    %610 = affine.load %alloca_11[%arg3, %571, %c0_1] : memref<1x4x4xf32>
    %611 = arith.mulf %608, %609 : f32
    %612 = arith.addf %610, %611 : f32
    affine.store %612, %alloca_11[%arg3, %571, %c0_1] : memref<1x4x4xf32>
    %613 = affine.apply affine_map<(d0) -> (d0 + 7)>(%c0_6)
    %614 = affine.load %alloca[%arg3, %571, %613] : memref<1x4x8xf32>
    %615 = affine.load %alloca_10[%arg3, %613, %c0_1] : memref<1x8x4xf32>
    %616 = affine.load %alloca_11[%arg3, %571, %c0_1] : memref<1x4x4xf32>
    %617 = arith.mulf %614, %615 : f32
    %618 = arith.addf %616, %617 : f32
    affine.store %618, %alloca_11[%arg3, %571, %c0_1] : memref<1x4x4xf32>
    %619 = affine.apply affine_map<(d0) -> (d0 + 1)>(%c0_1)
    %620 = affine.load %alloca[%arg3, %571, %c0_6] : memref<1x4x8xf32>
    %621 = affine.load %alloca_10[%arg3, %c0_6, %619] : memref<1x8x4xf32>
    %622 = affine.load %alloca_11[%arg3, %571, %619] : memref<1x4x4xf32>
    %623 = arith.mulf %620, %621 : f32
    %624 = arith.addf %622, %623 : f32
    affine.store %624, %alloca_11[%arg3, %571, %619] : memref<1x4x4xf32>
    %625 = affine.apply affine_map<(d0) -> (d0 + 1)>(%c0_6)
    %626 = affine.load %alloca[%arg3, %571, %625] : memref<1x4x8xf32>
    %627 = affine.load %alloca_10[%arg3, %625, %619] : memref<1x8x4xf32>
    %628 = affine.load %alloca_11[%arg3, %571, %619] : memref<1x4x4xf32>
    %629 = arith.mulf %626, %627 : f32
    %630 = arith.addf %628, %629 : f32
    affine.store %630, %alloca_11[%arg3, %571, %619] : memref<1x4x4xf32>
    %631 = affine.apply affine_map<(d0) -> (d0 + 2)>(%c0_6)
    %632 = affine.load %alloca[%arg3, %571, %631] : memref<1x4x8xf32>
    %633 = affine.load %alloca_10[%arg3, %631, %619] : memref<1x8x4xf32>
    %634 = affine.load %alloca_11[%arg3, %571, %619] : memref<1x4x4xf32>
    %635 = arith.mulf %632, %633 : f32
    %636 = arith.addf %634, %635 : f32
    affine.store %636, %alloca_11[%arg3, %571, %619] : memref<1x4x4xf32>
    %637 = affine.apply affine_map<(d0) -> (d0 + 3)>(%c0_6)
    %638 = affine.load %alloca[%arg3, %571, %637] : memref<1x4x8xf32>
    %639 = affine.load %alloca_10[%arg3, %637, %619] : memref<1x8x4xf32>
    %640 = affine.load %alloca_11[%arg3, %571, %619] : memref<1x4x4xf32>
    %641 = arith.mulf %638, %639 : f32
    %642 = arith.addf %640, %641 : f32
    affine.store %642, %alloca_11[%arg3, %571, %619] : memref<1x4x4xf32>
    %643 = affine.apply affine_map<(d0) -> (d0 + 4)>(%c0_6)
    %644 = affine.load %alloca[%arg3, %571, %643] : memref<1x4x8xf32>
    %645 = affine.load %alloca_10[%arg3, %643, %619] : memref<1x8x4xf32>
    %646 = affine.load %alloca_11[%arg3, %571, %619] : memref<1x4x4xf32>
    %647 = arith.mulf %644, %645 : f32
    %648 = arith.addf %646, %647 : f32
    affine.store %648, %alloca_11[%arg3, %571, %619] : memref<1x4x4xf32>
    %649 = affine.apply affine_map<(d0) -> (d0 + 5)>(%c0_6)
    %650 = affine.load %alloca[%arg3, %571, %649] : memref<1x4x8xf32>
    %651 = affine.load %alloca_10[%arg3, %649, %619] : memref<1x8x4xf32>
    %652 = affine.load %alloca_11[%arg3, %571, %619] : memref<1x4x4xf32>
    %653 = arith.mulf %650, %651 : f32
    %654 = arith.addf %652, %653 : f32
    affine.store %654, %alloca_11[%arg3, %571, %619] : memref<1x4x4xf32>
    %655 = affine.apply affine_map<(d0) -> (d0 + 6)>(%c0_6)
    %656 = affine.load %alloca[%arg3, %571, %655] : memref<1x4x8xf32>
    %657 = affine.load %alloca_10[%arg3, %655, %619] : memref<1x8x4xf32>
    %658 = affine.load %alloca_11[%arg3, %571, %619] : memref<1x4x4xf32>
    %659 = arith.mulf %656, %657 : f32
    %660 = arith.addf %658, %659 : f32
    affine.store %660, %alloca_11[%arg3, %571, %619] : memref<1x4x4xf32>
    %661 = affine.apply affine_map<(d0) -> (d0 + 7)>(%c0_6)
    %662 = affine.load %alloca[%arg3, %571, %661] : memref<1x4x8xf32>
    %663 = affine.load %alloca_10[%arg3, %661, %619] : memref<1x8x4xf32>
    %664 = affine.load %alloca_11[%arg3, %571, %619] : memref<1x4x4xf32>
    %665 = arith.mulf %662, %663 : f32
    %666 = arith.addf %664, %665 : f32
    affine.store %666, %alloca_11[%arg3, %571, %619] : memref<1x4x4xf32>
    %667 = affine.apply affine_map<(d0) -> (d0 + 2)>(%c0_1)
    %668 = affine.load %alloca[%arg3, %571, %c0_6] : memref<1x4x8xf32>
    %669 = affine.load %alloca_10[%arg3, %c0_6, %667] : memref<1x8x4xf32>
    %670 = affine.load %alloca_11[%arg3, %571, %667] : memref<1x4x4xf32>
    %671 = arith.mulf %668, %669 : f32
    %672 = arith.addf %670, %671 : f32
    affine.store %672, %alloca_11[%arg3, %571, %667] : memref<1x4x4xf32>
    %673 = affine.apply affine_map<(d0) -> (d0 + 1)>(%c0_6)
    %674 = affine.load %alloca[%arg3, %571, %673] : memref<1x4x8xf32>
    %675 = affine.load %alloca_10[%arg3, %673, %667] : memref<1x8x4xf32>
    %676 = affine.load %alloca_11[%arg3, %571, %667] : memref<1x4x4xf32>
    %677 = arith.mulf %674, %675 : f32
    %678 = arith.addf %676, %677 : f32
    affine.store %678, %alloca_11[%arg3, %571, %667] : memref<1x4x4xf32>
    %679 = affine.apply affine_map<(d0) -> (d0 + 2)>(%c0_6)
    %680 = affine.load %alloca[%arg3, %571, %679] : memref<1x4x8xf32>
    %681 = affine.load %alloca_10[%arg3, %679, %667] : memref<1x8x4xf32>
    %682 = affine.load %alloca_11[%arg3, %571, %667] : memref<1x4x4xf32>
    %683 = arith.mulf %680, %681 : f32
    %684 = arith.addf %682, %683 : f32
    affine.store %684, %alloca_11[%arg3, %571, %667] : memref<1x4x4xf32>
    %685 = affine.apply affine_map<(d0) -> (d0 + 3)>(%c0_6)
    %686 = affine.load %alloca[%arg3, %571, %685] : memref<1x4x8xf32>
    %687 = affine.load %alloca_10[%arg3, %685, %667] : memref<1x8x4xf32>
    %688 = affine.load %alloca_11[%arg3, %571, %667] : memref<1x4x4xf32>
    %689 = arith.mulf %686, %687 : f32
    %690 = arith.addf %688, %689 : f32
    affine.store %690, %alloca_11[%arg3, %571, %667] : memref<1x4x4xf32>
    %691 = affine.apply affine_map<(d0) -> (d0 + 4)>(%c0_6)
    %692 = affine.load %alloca[%arg3, %571, %691] : memref<1x4x8xf32>
    %693 = affine.load %alloca_10[%arg3, %691, %667] : memref<1x8x4xf32>
    %694 = affine.load %alloca_11[%arg3, %571, %667] : memref<1x4x4xf32>
    %695 = arith.mulf %692, %693 : f32
    %696 = arith.addf %694, %695 : f32
    affine.store %696, %alloca_11[%arg3, %571, %667] : memref<1x4x4xf32>
    %697 = affine.apply affine_map<(d0) -> (d0 + 5)>(%c0_6)
    %698 = affine.load %alloca[%arg3, %571, %697] : memref<1x4x8xf32>
    %699 = affine.load %alloca_10[%arg3, %697, %667] : memref<1x8x4xf32>
    %700 = affine.load %alloca_11[%arg3, %571, %667] : memref<1x4x4xf32>
    %701 = arith.mulf %698, %699 : f32
    %702 = arith.addf %700, %701 : f32
    affine.store %702, %alloca_11[%arg3, %571, %667] : memref<1x4x4xf32>
    %703 = affine.apply affine_map<(d0) -> (d0 + 6)>(%c0_6)
    %704 = affine.load %alloca[%arg3, %571, %703] : memref<1x4x8xf32>
    %705 = affine.load %alloca_10[%arg3, %703, %667] : memref<1x8x4xf32>
    %706 = affine.load %alloca_11[%arg3, %571, %667] : memref<1x4x4xf32>
    %707 = arith.mulf %704, %705 : f32
    %708 = arith.addf %706, %707 : f32
    affine.store %708, %alloca_11[%arg3, %571, %667] : memref<1x4x4xf32>
    %709 = affine.apply affine_map<(d0) -> (d0 + 7)>(%c0_6)
    %710 = affine.load %alloca[%arg3, %571, %709] : memref<1x4x8xf32>
    %711 = affine.load %alloca_10[%arg3, %709, %667] : memref<1x8x4xf32>
    %712 = affine.load %alloca_11[%arg3, %571, %667] : memref<1x4x4xf32>
    %713 = arith.mulf %710, %711 : f32
    %714 = arith.addf %712, %713 : f32
    affine.store %714, %alloca_11[%arg3, %571, %667] : memref<1x4x4xf32>
    %715 = affine.apply affine_map<(d0) -> (d0 + 3)>(%c0_1)
    %716 = affine.load %alloca[%arg3, %571, %c0_6] : memref<1x4x8xf32>
    %717 = affine.load %alloca_10[%arg3, %c0_6, %715] : memref<1x8x4xf32>
    %718 = affine.load %alloca_11[%arg3, %571, %715] : memref<1x4x4xf32>
    %719 = arith.mulf %716, %717 : f32
    %720 = arith.addf %718, %719 : f32
    affine.store %720, %alloca_11[%arg3, %571, %715] : memref<1x4x4xf32>
    %721 = affine.apply affine_map<(d0) -> (d0 + 1)>(%c0_6)
    %722 = affine.load %alloca[%arg3, %571, %721] : memref<1x4x8xf32>
    %723 = affine.load %alloca_10[%arg3, %721, %715] : memref<1x8x4xf32>
    %724 = affine.load %alloca_11[%arg3, %571, %715] : memref<1x4x4xf32>
    %725 = arith.mulf %722, %723 : f32
    %726 = arith.addf %724, %725 : f32
    affine.store %726, %alloca_11[%arg3, %571, %715] : memref<1x4x4xf32>
    %727 = affine.apply affine_map<(d0) -> (d0 + 2)>(%c0_6)
    %728 = affine.load %alloca[%arg3, %571, %727] : memref<1x4x8xf32>
    %729 = affine.load %alloca_10[%arg3, %727, %715] : memref<1x8x4xf32>
    %730 = affine.load %alloca_11[%arg3, %571, %715] : memref<1x4x4xf32>
    %731 = arith.mulf %728, %729 : f32
    %732 = arith.addf %730, %731 : f32
    affine.store %732, %alloca_11[%arg3, %571, %715] : memref<1x4x4xf32>
    %733 = affine.apply affine_map<(d0) -> (d0 + 3)>(%c0_6)
    %734 = affine.load %alloca[%arg3, %571, %733] : memref<1x4x8xf32>
    %735 = affine.load %alloca_10[%arg3, %733, %715] : memref<1x8x4xf32>
    %736 = affine.load %alloca_11[%arg3, %571, %715] : memref<1x4x4xf32>
    %737 = arith.mulf %734, %735 : f32
    %738 = arith.addf %736, %737 : f32
    affine.store %738, %alloca_11[%arg3, %571, %715] : memref<1x4x4xf32>
    %739 = affine.apply affine_map<(d0) -> (d0 + 4)>(%c0_6)
    %740 = affine.load %alloca[%arg3, %571, %739] : memref<1x4x8xf32>
    %741 = affine.load %alloca_10[%arg3, %739, %715] : memref<1x8x4xf32>
    %742 = affine.load %alloca_11[%arg3, %571, %715] : memref<1x4x4xf32>
    %743 = arith.mulf %740, %741 : f32
    %744 = arith.addf %742, %743 : f32
    affine.store %744, %alloca_11[%arg3, %571, %715] : memref<1x4x4xf32>
    %745 = affine.apply affine_map<(d0) -> (d0 + 5)>(%c0_6)
    %746 = affine.load %alloca[%arg3, %571, %745] : memref<1x4x8xf32>
    %747 = affine.load %alloca_10[%arg3, %745, %715] : memref<1x8x4xf32>
    %748 = affine.load %alloca_11[%arg3, %571, %715] : memref<1x4x4xf32>
    %749 = arith.mulf %746, %747 : f32
    %750 = arith.addf %748, %749 : f32
    affine.store %750, %alloca_11[%arg3, %571, %715] : memref<1x4x4xf32>
    %751 = affine.apply affine_map<(d0) -> (d0 + 6)>(%c0_6)
    %752 = affine.load %alloca[%arg3, %571, %751] : memref<1x4x8xf32>
    %753 = affine.load %alloca_10[%arg3, %751, %715] : memref<1x8x4xf32>
    %754 = affine.load %alloca_11[%arg3, %571, %715] : memref<1x4x4xf32>
    %755 = arith.mulf %752, %753 : f32
    %756 = arith.addf %754, %755 : f32
    affine.store %756, %alloca_11[%arg3, %571, %715] : memref<1x4x4xf32>
    %757 = affine.apply affine_map<(d0) -> (d0 + 7)>(%c0_6)
    %758 = affine.load %alloca[%arg3, %571, %757] : memref<1x4x8xf32>
    %759 = affine.load %alloca_10[%arg3, %757, %715] : memref<1x8x4xf32>
    %760 = affine.load %alloca_11[%arg3, %571, %715] : memref<1x4x4xf32>
    %761 = arith.mulf %758, %759 : f32
    %762 = arith.addf %760, %761 : f32
    affine.store %762, %alloca_11[%arg3, %571, %715] : memref<1x4x4xf32>
    %763 = affine.apply affine_map<(d0) -> (d0 + 3)>(%c0)
    %764 = affine.load %alloca[%arg3, %763, %c0_6] : memref<1x4x8xf32>
    %765 = affine.load %alloca_10[%arg3, %c0_6, %c0_1] : memref<1x8x4xf32>
    %766 = affine.load %alloca_11[%arg3, %763, %c0_1] : memref<1x4x4xf32>
    %767 = arith.mulf %764, %765 : f32
    %768 = arith.addf %766, %767 : f32
    affine.store %768, %alloca_11[%arg3, %763, %c0_1] : memref<1x4x4xf32>
    %769 = affine.apply affine_map<(d0) -> (d0 + 1)>(%c0_6)
    %770 = affine.load %alloca[%arg3, %763, %769] : memref<1x4x8xf32>
    %771 = affine.load %alloca_10[%arg3, %769, %c0_1] : memref<1x8x4xf32>
    %772 = affine.load %alloca_11[%arg3, %763, %c0_1] : memref<1x4x4xf32>
    %773 = arith.mulf %770, %771 : f32
    %774 = arith.addf %772, %773 : f32
    affine.store %774, %alloca_11[%arg3, %763, %c0_1] : memref<1x4x4xf32>
    %775 = affine.apply affine_map<(d0) -> (d0 + 2)>(%c0_6)
    %776 = affine.load %alloca[%arg3, %763, %775] : memref<1x4x8xf32>
    %777 = affine.load %alloca_10[%arg3, %775, %c0_1] : memref<1x8x4xf32>
    %778 = affine.load %alloca_11[%arg3, %763, %c0_1] : memref<1x4x4xf32>
    %779 = arith.mulf %776, %777 : f32
    %780 = arith.addf %778, %779 : f32
    affine.store %780, %alloca_11[%arg3, %763, %c0_1] : memref<1x4x4xf32>
    %781 = affine.apply affine_map<(d0) -> (d0 + 3)>(%c0_6)
    %782 = affine.load %alloca[%arg3, %763, %781] : memref<1x4x8xf32>
    %783 = affine.load %alloca_10[%arg3, %781, %c0_1] : memref<1x8x4xf32>
    %784 = affine.load %alloca_11[%arg3, %763, %c0_1] : memref<1x4x4xf32>
    %785 = arith.mulf %782, %783 : f32
    %786 = arith.addf %784, %785 : f32
    affine.store %786, %alloca_11[%arg3, %763, %c0_1] : memref<1x4x4xf32>
    %787 = affine.apply affine_map<(d0) -> (d0 + 4)>(%c0_6)
    %788 = affine.load %alloca[%arg3, %763, %787] : memref<1x4x8xf32>
    %789 = affine.load %alloca_10[%arg3, %787, %c0_1] : memref<1x8x4xf32>
    %790 = affine.load %alloca_11[%arg3, %763, %c0_1] : memref<1x4x4xf32>
    %791 = arith.mulf %788, %789 : f32
    %792 = arith.addf %790, %791 : f32
    affine.store %792, %alloca_11[%arg3, %763, %c0_1] : memref<1x4x4xf32>
    %793 = affine.apply affine_map<(d0) -> (d0 + 5)>(%c0_6)
    %794 = affine.load %alloca[%arg3, %763, %793] : memref<1x4x8xf32>
    %795 = affine.load %alloca_10[%arg3, %793, %c0_1] : memref<1x8x4xf32>
    %796 = affine.load %alloca_11[%arg3, %763, %c0_1] : memref<1x4x4xf32>
    %797 = arith.mulf %794, %795 : f32
    %798 = arith.addf %796, %797 : f32
    affine.store %798, %alloca_11[%arg3, %763, %c0_1] : memref<1x4x4xf32>
    %799 = affine.apply affine_map<(d0) -> (d0 + 6)>(%c0_6)
    %800 = affine.load %alloca[%arg3, %763, %799] : memref<1x4x8xf32>
    %801 = affine.load %alloca_10[%arg3, %799, %c0_1] : memref<1x8x4xf32>
    %802 = affine.load %alloca_11[%arg3, %763, %c0_1] : memref<1x4x4xf32>
    %803 = arith.mulf %800, %801 : f32
    %804 = arith.addf %802, %803 : f32
    affine.store %804, %alloca_11[%arg3, %763, %c0_1] : memref<1x4x4xf32>
    %805 = affine.apply affine_map<(d0) -> (d0 + 7)>(%c0_6)
    %806 = affine.load %alloca[%arg3, %763, %805] : memref<1x4x8xf32>
    %807 = affine.load %alloca_10[%arg3, %805, %c0_1] : memref<1x8x4xf32>
    %808 = affine.load %alloca_11[%arg3, %763, %c0_1] : memref<1x4x4xf32>
    %809 = arith.mulf %806, %807 : f32
    %810 = arith.addf %808, %809 : f32
    affine.store %810, %alloca_11[%arg3, %763, %c0_1] : memref<1x4x4xf32>
    %811 = affine.apply affine_map<(d0) -> (d0 + 1)>(%c0_1)
    %812 = affine.load %alloca[%arg3, %763, %c0_6] : memref<1x4x8xf32>
    %813 = affine.load %alloca_10[%arg3, %c0_6, %811] : memref<1x8x4xf32>
    %814 = affine.load %alloca_11[%arg3, %763, %811] : memref<1x4x4xf32>
    %815 = arith.mulf %812, %813 : f32
    %816 = arith.addf %814, %815 : f32
    affine.store %816, %alloca_11[%arg3, %763, %811] : memref<1x4x4xf32>
    %817 = affine.apply affine_map<(d0) -> (d0 + 1)>(%c0_6)
    %818 = affine.load %alloca[%arg3, %763, %817] : memref<1x4x8xf32>
    %819 = affine.load %alloca_10[%arg3, %817, %811] : memref<1x8x4xf32>
    %820 = affine.load %alloca_11[%arg3, %763, %811] : memref<1x4x4xf32>
    %821 = arith.mulf %818, %819 : f32
    %822 = arith.addf %820, %821 : f32
    affine.store %822, %alloca_11[%arg3, %763, %811] : memref<1x4x4xf32>
    %823 = affine.apply affine_map<(d0) -> (d0 + 2)>(%c0_6)
    %824 = affine.load %alloca[%arg3, %763, %823] : memref<1x4x8xf32>
    %825 = affine.load %alloca_10[%arg3, %823, %811] : memref<1x8x4xf32>
    %826 = affine.load %alloca_11[%arg3, %763, %811] : memref<1x4x4xf32>
    %827 = arith.mulf %824, %825 : f32
    %828 = arith.addf %826, %827 : f32
    affine.store %828, %alloca_11[%arg3, %763, %811] : memref<1x4x4xf32>
    %829 = affine.apply affine_map<(d0) -> (d0 + 3)>(%c0_6)
    %830 = affine.load %alloca[%arg3, %763, %829] : memref<1x4x8xf32>
    %831 = affine.load %alloca_10[%arg3, %829, %811] : memref<1x8x4xf32>
    %832 = affine.load %alloca_11[%arg3, %763, %811] : memref<1x4x4xf32>
    %833 = arith.mulf %830, %831 : f32
    %834 = arith.addf %832, %833 : f32
    affine.store %834, %alloca_11[%arg3, %763, %811] : memref<1x4x4xf32>
    %835 = affine.apply affine_map<(d0) -> (d0 + 4)>(%c0_6)
    %836 = affine.load %alloca[%arg3, %763, %835] : memref<1x4x8xf32>
    %837 = affine.load %alloca_10[%arg3, %835, %811] : memref<1x8x4xf32>
    %838 = affine.load %alloca_11[%arg3, %763, %811] : memref<1x4x4xf32>
    %839 = arith.mulf %836, %837 : f32
    %840 = arith.addf %838, %839 : f32
    affine.store %840, %alloca_11[%arg3, %763, %811] : memref<1x4x4xf32>
    %841 = affine.apply affine_map<(d0) -> (d0 + 5)>(%c0_6)
    %842 = affine.load %alloca[%arg3, %763, %841] : memref<1x4x8xf32>
    %843 = affine.load %alloca_10[%arg3, %841, %811] : memref<1x8x4xf32>
    %844 = affine.load %alloca_11[%arg3, %763, %811] : memref<1x4x4xf32>
    %845 = arith.mulf %842, %843 : f32
    %846 = arith.addf %844, %845 : f32
    affine.store %846, %alloca_11[%arg3, %763, %811] : memref<1x4x4xf32>
    %847 = affine.apply affine_map<(d0) -> (d0 + 6)>(%c0_6)
    %848 = affine.load %alloca[%arg3, %763, %847] : memref<1x4x8xf32>
    %849 = affine.load %alloca_10[%arg3, %847, %811] : memref<1x8x4xf32>
    %850 = affine.load %alloca_11[%arg3, %763, %811] : memref<1x4x4xf32>
    %851 = arith.mulf %848, %849 : f32
    %852 = arith.addf %850, %851 : f32
    affine.store %852, %alloca_11[%arg3, %763, %811] : memref<1x4x4xf32>
    %853 = affine.apply affine_map<(d0) -> (d0 + 7)>(%c0_6)
    %854 = affine.load %alloca[%arg3, %763, %853] : memref<1x4x8xf32>
    %855 = affine.load %alloca_10[%arg3, %853, %811] : memref<1x8x4xf32>
    %856 = affine.load %alloca_11[%arg3, %763, %811] : memref<1x4x4xf32>
    %857 = arith.mulf %854, %855 : f32
    %858 = arith.addf %856, %857 : f32
    affine.store %858, %alloca_11[%arg3, %763, %811] : memref<1x4x4xf32>
    %859 = affine.apply affine_map<(d0) -> (d0 + 2)>(%c0_1)
    %860 = affine.load %alloca[%arg3, %763, %c0_6] : memref<1x4x8xf32>
    %861 = affine.load %alloca_10[%arg3, %c0_6, %859] : memref<1x8x4xf32>
    %862 = affine.load %alloca_11[%arg3, %763, %859] : memref<1x4x4xf32>
    %863 = arith.mulf %860, %861 : f32
    %864 = arith.addf %862, %863 : f32
    affine.store %864, %alloca_11[%arg3, %763, %859] : memref<1x4x4xf32>
    %865 = affine.apply affine_map<(d0) -> (d0 + 1)>(%c0_6)
    %866 = affine.load %alloca[%arg3, %763, %865] : memref<1x4x8xf32>
    %867 = affine.load %alloca_10[%arg3, %865, %859] : memref<1x8x4xf32>
    %868 = affine.load %alloca_11[%arg3, %763, %859] : memref<1x4x4xf32>
    %869 = arith.mulf %866, %867 : f32
    %870 = arith.addf %868, %869 : f32
    affine.store %870, %alloca_11[%arg3, %763, %859] : memref<1x4x4xf32>
    %871 = affine.apply affine_map<(d0) -> (d0 + 2)>(%c0_6)
    %872 = affine.load %alloca[%arg3, %763, %871] : memref<1x4x8xf32>
    %873 = affine.load %alloca_10[%arg3, %871, %859] : memref<1x8x4xf32>
    %874 = affine.load %alloca_11[%arg3, %763, %859] : memref<1x4x4xf32>
    %875 = arith.mulf %872, %873 : f32
    %876 = arith.addf %874, %875 : f32
    affine.store %876, %alloca_11[%arg3, %763, %859] : memref<1x4x4xf32>
    %877 = affine.apply affine_map<(d0) -> (d0 + 3)>(%c0_6)
    %878 = affine.load %alloca[%arg3, %763, %877] : memref<1x4x8xf32>
    %879 = affine.load %alloca_10[%arg3, %877, %859] : memref<1x8x4xf32>
    %880 = affine.load %alloca_11[%arg3, %763, %859] : memref<1x4x4xf32>
    %881 = arith.mulf %878, %879 : f32
    %882 = arith.addf %880, %881 : f32
    affine.store %882, %alloca_11[%arg3, %763, %859] : memref<1x4x4xf32>
    %883 = affine.apply affine_map<(d0) -> (d0 + 4)>(%c0_6)
    %884 = affine.load %alloca[%arg3, %763, %883] : memref<1x4x8xf32>
    %885 = affine.load %alloca_10[%arg3, %883, %859] : memref<1x8x4xf32>
    %886 = affine.load %alloca_11[%arg3, %763, %859] : memref<1x4x4xf32>
    %887 = arith.mulf %884, %885 : f32
    %888 = arith.addf %886, %887 : f32
    affine.store %888, %alloca_11[%arg3, %763, %859] : memref<1x4x4xf32>
    %889 = affine.apply affine_map<(d0) -> (d0 + 5)>(%c0_6)
    %890 = affine.load %alloca[%arg3, %763, %889] : memref<1x4x8xf32>
    %891 = affine.load %alloca_10[%arg3, %889, %859] : memref<1x8x4xf32>
    %892 = affine.load %alloca_11[%arg3, %763, %859] : memref<1x4x4xf32>
    %893 = arith.mulf %890, %891 : f32
    %894 = arith.addf %892, %893 : f32
    affine.store %894, %alloca_11[%arg3, %763, %859] : memref<1x4x4xf32>
    %895 = affine.apply affine_map<(d0) -> (d0 + 6)>(%c0_6)
    %896 = affine.load %alloca[%arg3, %763, %895] : memref<1x4x8xf32>
    %897 = affine.load %alloca_10[%arg3, %895, %859] : memref<1x8x4xf32>
    %898 = affine.load %alloca_11[%arg3, %763, %859] : memref<1x4x4xf32>
    %899 = arith.mulf %896, %897 : f32
    %900 = arith.addf %898, %899 : f32
    affine.store %900, %alloca_11[%arg3, %763, %859] : memref<1x4x4xf32>
    %901 = affine.apply affine_map<(d0) -> (d0 + 7)>(%c0_6)
    %902 = affine.load %alloca[%arg3, %763, %901] : memref<1x4x8xf32>
    %903 = affine.load %alloca_10[%arg3, %901, %859] : memref<1x8x4xf32>
    %904 = affine.load %alloca_11[%arg3, %763, %859] : memref<1x4x4xf32>
    %905 = arith.mulf %902, %903 : f32
    %906 = arith.addf %904, %905 : f32
    affine.store %906, %alloca_11[%arg3, %763, %859] : memref<1x4x4xf32>
    %907 = affine.apply affine_map<(d0) -> (d0 + 3)>(%c0_1)
    %908 = affine.load %alloca[%arg3, %763, %c0_6] : memref<1x4x8xf32>
    %909 = affine.load %alloca_10[%arg3, %c0_6, %907] : memref<1x8x4xf32>
    %910 = affine.load %alloca_11[%arg3, %763, %907] : memref<1x4x4xf32>
    %911 = arith.mulf %908, %909 : f32
    %912 = arith.addf %910, %911 : f32
    affine.store %912, %alloca_11[%arg3, %763, %907] : memref<1x4x4xf32>
    %913 = affine.apply affine_map<(d0) -> (d0 + 1)>(%c0_6)
    %914 = affine.load %alloca[%arg3, %763, %913] : memref<1x4x8xf32>
    %915 = affine.load %alloca_10[%arg3, %913, %907] : memref<1x8x4xf32>
    %916 = affine.load %alloca_11[%arg3, %763, %907] : memref<1x4x4xf32>
    %917 = arith.mulf %914, %915 : f32
    %918 = arith.addf %916, %917 : f32
    affine.store %918, %alloca_11[%arg3, %763, %907] : memref<1x4x4xf32>
    %919 = affine.apply affine_map<(d0) -> (d0 + 2)>(%c0_6)
    %920 = affine.load %alloca[%arg3, %763, %919] : memref<1x4x8xf32>
    %921 = affine.load %alloca_10[%arg3, %919, %907] : memref<1x8x4xf32>
    %922 = affine.load %alloca_11[%arg3, %763, %907] : memref<1x4x4xf32>
    %923 = arith.mulf %920, %921 : f32
    %924 = arith.addf %922, %923 : f32
    affine.store %924, %alloca_11[%arg3, %763, %907] : memref<1x4x4xf32>
    %925 = affine.apply affine_map<(d0) -> (d0 + 3)>(%c0_6)
    %926 = affine.load %alloca[%arg3, %763, %925] : memref<1x4x8xf32>
    %927 = affine.load %alloca_10[%arg3, %925, %907] : memref<1x8x4xf32>
    %928 = affine.load %alloca_11[%arg3, %763, %907] : memref<1x4x4xf32>
    %929 = arith.mulf %926, %927 : f32
    %930 = arith.addf %928, %929 : f32
    affine.store %930, %alloca_11[%arg3, %763, %907] : memref<1x4x4xf32>
    %931 = affine.apply affine_map<(d0) -> (d0 + 4)>(%c0_6)
    %932 = affine.load %alloca[%arg3, %763, %931] : memref<1x4x8xf32>
    %933 = affine.load %alloca_10[%arg3, %931, %907] : memref<1x8x4xf32>
    %934 = affine.load %alloca_11[%arg3, %763, %907] : memref<1x4x4xf32>
    %935 = arith.mulf %932, %933 : f32
    %936 = arith.addf %934, %935 : f32
    affine.store %936, %alloca_11[%arg3, %763, %907] : memref<1x4x4xf32>
    %937 = affine.apply affine_map<(d0) -> (d0 + 5)>(%c0_6)
    %938 = affine.load %alloca[%arg3, %763, %937] : memref<1x4x8xf32>
    %939 = affine.load %alloca_10[%arg3, %937, %907] : memref<1x8x4xf32>
    %940 = affine.load %alloca_11[%arg3, %763, %907] : memref<1x4x4xf32>
    %941 = arith.mulf %938, %939 : f32
    %942 = arith.addf %940, %941 : f32
    affine.store %942, %alloca_11[%arg3, %763, %907] : memref<1x4x4xf32>
    %943 = affine.apply affine_map<(d0) -> (d0 + 6)>(%c0_6)
    %944 = affine.load %alloca[%arg3, %763, %943] : memref<1x4x8xf32>
    %945 = affine.load %alloca_10[%arg3, %943, %907] : memref<1x8x4xf32>
    %946 = affine.load %alloca_11[%arg3, %763, %907] : memref<1x4x4xf32>
    %947 = arith.mulf %944, %945 : f32
    %948 = arith.addf %946, %947 : f32
    affine.store %948, %alloca_11[%arg3, %763, %907] : memref<1x4x4xf32>
    %949 = affine.apply affine_map<(d0) -> (d0 + 7)>(%c0_6)
    %950 = affine.load %alloca[%arg3, %763, %949] : memref<1x4x8xf32>
    %951 = affine.load %alloca_10[%arg3, %949, %907] : memref<1x8x4xf32>
    %952 = affine.load %alloca_11[%arg3, %763, %907] : memref<1x4x4xf32>
    %953 = arith.mulf %950, %951 : f32
    %954 = arith.addf %952, %953 : f32
    affine.store %954, %alloca_11[%arg3, %763, %907] : memref<1x4x4xf32>
  }
  %157 = affine.load %alloca_11[0, %c0_0, %c0_5] : memref<1x4x4xf32>
  affine.store %157, %arg2[0, %c0_0, %c0_5] : memref<1x4x4xf32>
  %158 = affine.apply affine_map<(d0) -> (d0 + 1)>(%c0_5)
  %159 = affine.load %alloca_11[0, %c0_0, %158] : memref<1x4x4xf32>
  affine.store %159, %arg2[0, %c0_0, %158] : memref<1x4x4xf32>
  %160 = affine.apply affine_map<(d0) -> (d0 + 2)>(%c0_5)
  %161 = affine.load %alloca_11[0, %c0_0, %160] : memref<1x4x4xf32>
  affine.store %161, %arg2[0, %c0_0, %160] : memref<1x4x4xf32>
  %162 = affine.apply affine_map<(d0) -> (d0 + 3)>(%c0_5)
  %163 = affine.load %alloca_11[0, %c0_0, %162] : memref<1x4x4xf32>
  affine.store %163, %arg2[0, %c0_0, %162] : memref<1x4x4xf32>
  %164 = affine.apply affine_map<(d0) -> (d0 + 1)>(%c0_0)
  %165 = affine.load %alloca_11[0, %164, %c0_5] : memref<1x4x4xf32>
  affine.store %165, %arg2[0, %164, %c0_5] : memref<1x4x4xf32>
  %166 = affine.apply affine_map<(d0) -> (d0 + 1)>(%c0_5)
  %167 = affine.load %alloca_11[0, %164, %166] : memref<1x4x4xf32>
  affine.store %167, %arg2[0, %164, %166] : memref<1x4x4xf32>
  %168 = affine.apply affine_map<(d0) -> (d0 + 2)>(%c0_5)
  %169 = affine.load %alloca_11[0, %164, %168] : memref<1x4x4xf32>
  affine.store %169, %arg2[0, %164, %168] : memref<1x4x4xf32>
  %170 = affine.apply affine_map<(d0) -> (d0 + 3)>(%c0_5)
  %171 = affine.load %alloca_11[0, %164, %170] : memref<1x4x4xf32>
  affine.store %171, %arg2[0, %164, %170] : memref<1x4x4xf32>
  %172 = affine.apply affine_map<(d0) -> (d0 + 2)>(%c0_0)
  %173 = affine.load %alloca_11[0, %172, %c0_5] : memref<1x4x4xf32>
  affine.store %173, %arg2[0, %172, %c0_5] : memref<1x4x4xf32>
  %174 = affine.apply affine_map<(d0) -> (d0 + 1)>(%c0_5)
  %175 = affine.load %alloca_11[0, %172, %174] : memref<1x4x4xf32>
  affine.store %175, %arg2[0, %172, %174] : memref<1x4x4xf32>
  %176 = affine.apply affine_map<(d0) -> (d0 + 2)>(%c0_5)
  %177 = affine.load %alloca_11[0, %172, %176] : memref<1x4x4xf32>
  affine.store %177, %arg2[0, %172, %176] : memref<1x4x4xf32>
  %178 = affine.apply affine_map<(d0) -> (d0 + 3)>(%c0_5)
  %179 = affine.load %alloca_11[0, %172, %178] : memref<1x4x4xf32>
  affine.store %179, %arg2[0, %172, %178] : memref<1x4x4xf32>
  %180 = affine.apply affine_map<(d0) -> (d0 + 3)>(%c0_0)
  %181 = affine.load %alloca_11[0, %180, %c0_5] : memref<1x4x4xf32>
  affine.store %181, %arg2[0, %180, %c0_5] : memref<1x4x4xf32>
  %182 = affine.apply affine_map<(d0) -> (d0 + 1)>(%c0_5)
  %183 = affine.load %alloca_11[0, %180, %182] : memref<1x4x4xf32>
  affine.store %183, %arg2[0, %180, %182] : memref<1x4x4xf32>
  %184 = affine.apply affine_map<(d0) -> (d0 + 2)>(%c0_5)
  %185 = affine.load %alloca_11[0, %180, %184] : memref<1x4x4xf32>
  affine.store %185, %arg2[0, %180, %184] : memref<1x4x4xf32>
  %186 = affine.apply affine_map<(d0) -> (d0 + 3)>(%c0_5)
  %187 = affine.load %alloca_11[0, %180, %186] : memref<1x4x4xf32>
  affine.store %187, %arg2[0, %180, %186] : memref<1x4x4xf32>
  return
}

// -----// IR Dump After CSE (cse) //----- //
#map = affine_map<(d0) -> (d0 + 1)>
#map1 = affine_map<(d0) -> (d0 + 2)>
#map2 = affine_map<(d0) -> (d0 + 3)>
#map3 = affine_map<(d0) -> (d0 + 4)>
#map4 = affine_map<(d0) -> (d0 + 5)>
#map5 = affine_map<(d0) -> (d0 + 6)>
#map6 = affine_map<(d0) -> (d0 + 7)>
module attributes {soda.bambu.container_module, soda.container_module, tf.versions = {bad_consumers = [], min_consumer = 0 : i32, producer = 1482 : i32}} {
  func.func @main_kernel(%arg0: memref<1x4x8xf32> {llvm.noalias}, %arg1: memref<1x8x4xf32> {llvm.noalias}, %arg2: memref<1x4x4xf32> {llvm.noalias}) {
    %c0 = arith.constant 0 : index
    cf.br ^bb1
  ^bb1:  // pred: ^bb0
    %alloca = memref.alloca() : memref<1x4x8xf32>
    %0 = affine.load %arg0[0, %c0, %c0] : memref<1x4x8xf32>
    affine.store %0, %alloca[0, %c0, %c0] : memref<1x4x8xf32>
    %1 = affine.apply #map(%c0)
    %2 = affine.load %arg0[0, %c0, %1] : memref<1x4x8xf32>
    affine.store %2, %alloca[0, %c0, %1] : memref<1x4x8xf32>
    %3 = affine.apply #map1(%c0)
    %4 = affine.load %arg0[0, %c0, %3] : memref<1x4x8xf32>
    affine.store %4, %alloca[0, %c0, %3] : memref<1x4x8xf32>
    %5 = affine.apply #map2(%c0)
    %6 = affine.load %arg0[0, %c0, %5] : memref<1x4x8xf32>
    affine.store %6, %alloca[0, %c0, %5] : memref<1x4x8xf32>
    %7 = affine.apply #map3(%c0)
    %8 = affine.load %arg0[0, %c0, %7] : memref<1x4x8xf32>
    affine.store %8, %alloca[0, %c0, %7] : memref<1x4x8xf32>
    %9 = affine.apply #map4(%c0)
    %10 = affine.load %arg0[0, %c0, %9] : memref<1x4x8xf32>
    affine.store %10, %alloca[0, %c0, %9] : memref<1x4x8xf32>
    %11 = affine.apply #map5(%c0)
    %12 = affine.load %arg0[0, %c0, %11] : memref<1x4x8xf32>
    affine.store %12, %alloca[0, %c0, %11] : memref<1x4x8xf32>
    %13 = affine.apply #map6(%c0)
    %14 = affine.load %arg0[0, %c0, %13] : memref<1x4x8xf32>
    affine.store %14, %alloca[0, %c0, %13] : memref<1x4x8xf32>
    %15 = affine.load %arg0[0, %1, %c0] : memref<1x4x8xf32>
    affine.store %15, %alloca[0, %1, %c0] : memref<1x4x8xf32>
    %16 = affine.load %arg0[0, %1, %1] : memref<1x4x8xf32>
    affine.store %16, %alloca[0, %1, %1] : memref<1x4x8xf32>
    %17 = affine.load %arg0[0, %1, %3] : memref<1x4x8xf32>
    affine.store %17, %alloca[0, %1, %3] : memref<1x4x8xf32>
    %18 = affine.load %arg0[0, %1, %5] : memref<1x4x8xf32>
    affine.store %18, %alloca[0, %1, %5] : memref<1x4x8xf32>
    %19 = affine.load %arg0[0, %1, %7] : memref<1x4x8xf32>
    affine.store %19, %alloca[0, %1, %7] : memref<1x4x8xf32>
    %20 = affine.load %arg0[0, %1, %9] : memref<1x4x8xf32>
    affine.store %20, %alloca[0, %1, %9] : memref<1x4x8xf32>
    %21 = affine.load %arg0[0, %1, %11] : memref<1x4x8xf32>
    affine.store %21, %alloca[0, %1, %11] : memref<1x4x8xf32>
    %22 = affine.load %arg0[0, %1, %13] : memref<1x4x8xf32>
    affine.store %22, %alloca[0, %1, %13] : memref<1x4x8xf32>
    %23 = affine.load %arg0[0, %3, %c0] : memref<1x4x8xf32>
    affine.store %23, %alloca[0, %3, %c0] : memref<1x4x8xf32>
    %24 = affine.load %arg0[0, %3, %1] : memref<1x4x8xf32>
    affine.store %24, %alloca[0, %3, %1] : memref<1x4x8xf32>
    %25 = affine.load %arg0[0, %3, %3] : memref<1x4x8xf32>
    affine.store %25, %alloca[0, %3, %3] : memref<1x4x8xf32>
    %26 = affine.load %arg0[0, %3, %5] : memref<1x4x8xf32>
    affine.store %26, %alloca[0, %3, %5] : memref<1x4x8xf32>
    %27 = affine.load %arg0[0, %3, %7] : memref<1x4x8xf32>
    affine.store %27, %alloca[0, %3, %7] : memref<1x4x8xf32>
    %28 = affine.load %arg0[0, %3, %9] : memref<1x4x8xf32>
    affine.store %28, %alloca[0, %3, %9] : memref<1x4x8xf32>
    %29 = affine.load %arg0[0, %3, %11] : memref<1x4x8xf32>
    affine.store %29, %alloca[0, %3, %11] : memref<1x4x8xf32>
    %30 = affine.load %arg0[0, %3, %13] : memref<1x4x8xf32>
    affine.store %30, %alloca[0, %3, %13] : memref<1x4x8xf32>
    %31 = affine.load %arg0[0, %5, %c0] : memref<1x4x8xf32>
    affine.store %31, %alloca[0, %5, %c0] : memref<1x4x8xf32>
    %32 = affine.load %arg0[0, %5, %1] : memref<1x4x8xf32>
    affine.store %32, %alloca[0, %5, %1] : memref<1x4x8xf32>
…
    %830 = llvm.getelementptr %arg2[%829] : (!llvm.ptr<f32>, i64) -> !llvm.ptr<f32>
    %831 = llvm.load %830 : !llvm.ptr<f32>
    %832 = llvm.mul %10, %5  : i64
    %833 = llvm.mul %4, %7  : i64
    %834 = llvm.add %832, %833  : i64
    %835 = llvm.add %834, %9  : i64
    %836 = llvm.getelementptr %726[%835] : (!llvm.ptr<f32>, i64) -> !llvm.ptr<f32>
    llvm.store %831, %836 : !llvm.ptr<f32>
    %837 = llvm.mul %10, %5  : i64
    %838 = llvm.mul %4, %7  : i64
    %839 = llvm.add %837, %838  : i64
    %840 = llvm.add %839, %4  : i64
    %841 = llvm.getelementptr %arg2[%840] : (!llvm.ptr<f32>, i64) -> !llvm.ptr<f32>
    %842 = llvm.load %841 : !llvm.ptr<f32>
    %843 = llvm.mul %10, %5  : i64
    %844 = llvm.mul %4, %7  : i64
    %845 = llvm.add %843, %844  : i64
    %846 = llvm.add %845, %4  : i64
    %847 = llvm.getelementptr %726[%846] : (!llvm.ptr<f32>, i64) -> !llvm.ptr<f32>
    llvm.store %842, %847 : !llvm.ptr<f32>
    %848 = llvm.mul %10, %5  : i64
    %849 = llvm.mul %4, %7  : i64
    %850 = llvm.add %848, %849  : i64
    %851 = llvm.add %850, %3  : i64
    %852 = llvm.getelementptr %arg2[%851] : (!llvm.ptr<f32>, i64) -> !llvm.ptr<f32>
    %853 = llvm.load %852 : !llvm.ptr<f32>
    %854 = llvm.mul %10, %5  : i64
    %855 = llvm.mul %4, %7  : i64
    %856 = llvm.add %854, %855  : i64
    %857 = llvm.add %856, %3  : i64
    %858 = llvm.getelementptr %726[%857] : (!llvm.ptr<f32>, i64) -> !llvm.ptr<f32>
    llvm.store %853, %858 : !llvm.ptr<f32>
    %859 = llvm.mul %10, %5  : i64
    %860 = llvm.mul %3, %7  : i64
    %861 = llvm.add %859, %860  : i64
    %862 = llvm.add %861, %10  : i64
    %863 = llvm.getelementptr %arg2[%862] : (!llvm.ptr<f32>, i64) -> !llvm.ptr<f32>
    %864 = llvm.load %863 : !llvm.ptr<f32>
    %865 = llvm.mul %10, %5  : i64
    %866 = llvm.mul %3, %7  : i64
    %867 = llvm.add %865, %866  : i64
    %868 = llvm.add %867, %10  : i64
    %869 = llvm.getelementptr %726[%868] : (!llvm.ptr<f32>, i64) -> !llvm.ptr<f32>
    llvm.store %864, %869 : !llvm.ptr<f32>
    %870 = llvm.mul %10, %5  : i64
    %871 = llvm.mul %3, %7  : i64
    %872 = llvm.add %870, %871  : i64
    %873 = llvm.add %872, %9  : i64
    %874 = llvm.getelementptr %arg2[%873] : (!llvm.ptr<f32>, i64) -> !llvm.ptr<f32>
    %875 = llvm.load %874 : !llvm.ptr<f32>
    %876 = llvm.mul %10, %5  : i64
    %877 = llvm.mul %3, %7  : i64
    %878 = llvm.add %876, %877  : i64
    %879 = llvm.add %878, %9  : i64
    %880 = llvm.getelementptr %726[%879] : (!llvm.ptr<f32>, i64) -> !llvm.ptr<f32>
    llvm.store %875, %880 : !llvm.ptr<f32>
    %881 = llvm.mul %10, %5  : i64
    %882 = llvm.mul %3, %7  : i64
    %883 = llvm.add %881, %882  : i64
    %884 = llvm.add %883, %4  : i64
    %885 = llvm.getelementptr %arg2[%884] : (!llvm.ptr<f32>, i64) -> !llvm.ptr<f32>
    %886 = llvm.load %885 : !llvm.ptr<f32>
    %887 = llvm.mul %10, %5  : i64
    %888 = llvm.mul %3, %7  : i64
    %889 = llvm.add %887, %888  : i64
    %890 = llvm.add %889, %4  : i64
    %891 = llvm.getelementptr %726[%890] : (!llvm.ptr<f32>, i64) -> !llvm.ptr<f32>
    llvm.store %886, %891 : !llvm.ptr<f32>
    %892 = llvm.mul %10, %5  : i64
    %893 = llvm.mul %3, %7  : i64
    %894 = llvm.add %892, %893  : i64
    %895 = llvm.add %894, %3  : i64
    %896 = llvm.getelementptr %arg2[%895] : (!llvm.ptr<f32>, i64) -> !llvm.ptr<f32>
    %897 = llvm.load %896 : !llvm.ptr<f32>
    %898 = llvm.mul %10, %5  : i64
    %899 = llvm.mul %3, %7  : i64
    %900 = llvm.add %898, %899  : i64
    %901 = llvm.add %900, %3  : i64
    %902 = llvm.getelementptr %726[%901] : (!llvm.ptr<f32>, i64) -> !llvm.ptr<f32>
    llvm.store %897, %902 : !llvm.ptr<f32>
    %903 = llvm.mul %10, %8  : i64
    %904 = llvm.mul %10, %6  : i64
    %905 = llvm.add %903, %904  : i64
    %906 = llvm.add %905, %10  : i64
    %907 = llvm.getelementptr %14[%906] : (!llvm.ptr<f32>, i64) -> !llvm.ptr<f32>
    %908 = llvm.load %907 : !llvm.ptr<f32>
    %909 = llvm.mul %10, %8  : i64
    %910 = llvm.mul %10, %7  : i64
    %911 = llvm.add %909, %910  : i64
    %912 = llvm.add %911, %10  : i64
    %913 = llvm.getelementptr %370[%912] : (!llvm.ptr<f32>, i64) -> !llvm.ptr<f32>
    %914 = llvm.load %913 : !llvm.ptr<f32>
    %915 = llvm.mul %10, %5  : i64
    %916 = llvm.mul %10, %7  : i64
    %917 = llvm.add %915, %916  : i64
    %918 = llvm.add %917, %10  : i64
    %919 = llvm.getelementptr %726[%918] : (!llvm.ptr<f32>, i64) -> !llvm.ptr<f32>
    %920 = llvm.load %919 : !llvm.ptr<f32>
    %921 = llvm.fmul %908, %914  : f32
    %922 = llvm.fadd %920, %921  : f32
    %923 = llvm.mul %10, %8  : i64
    %924 = llvm.mul %10, %6  : i64
    %925 = llvm.add %923, %924  : i64
    %926 = llvm.add %925, %9  : i64
    %927 = llvm.getelementptr %14[%926] : (!llvm.ptr<f32>, i64) -> !llvm.ptr<f32>
    %928 = llvm.load %927 : !llvm.ptr<f32>
    %929 = llvm.mul %10, %8  : i64
    %930 = llvm.mul %9, %7  : i64
    %931 = llvm.add %929, %930  : i64
    %932 = llvm.add %931, %10  : i64
    %933 = llvm.getelementptr %370[%932] : (!llvm.ptr<f32>, i64) -> !llvm.ptr<f32>
    %934 = llvm.load %933 : !llvm.ptr<f32>
    %935 = llvm.fmul %928, %934  : f32
    %936 = llvm.fadd %922, %935  : f32
    %937 = llvm.mul %10, %8  : i64
    %938 = llvm.mul %10, %6  : i64
    %939 = llvm.add %937, %938  : i64
    %940 = llvm.add %939, %4  : i64
    %941 = llvm.getelementptr %14[%940] : (!llvm.ptr<f32>, i64) -> !llvm.ptr<f32>
    %942 = llvm.load %941 : !llvm.ptr<f32>
    %943 = llvm.mul %10, %8  : i64
    %944 = llvm.mul %4, %7  : i64
    %945 = llvm.add %943, %944  : i64
    %946 = llvm.add %945, %10  : i64
    %947 = llvm.getelementptr %370[%946] : (!llvm.ptr<f32>, i64) -> !llvm.ptr<f32>
    %948 = llvm.load %947 : !llvm.ptr<f32>
    %949 = llvm.fmul %942, %948  : f32
    %950 = llvm.fadd %936, %949  : f32
    %951 = llvm.mul %10, %8  : i64
    %952 = llvm.mul %10, %6  : i64
    %953 = llvm.add %951, %952  : i64
    %954 = llvm.add %953, %3  : i64
    %955 = llvm.getelementptr %14[%954] : (!llvm.ptr<f32>, i64) -> !llvm.ptr<f32>
    %956 = llvm.load %955 : !llvm.ptr<f32>
    %957 = llvm.mul %10, %8  : i64
    %958 = llvm.mul %3, %7  : i64
    %959 = llvm.add %957, %958  : i64
    %960 = llvm.add %959, %10  : i64
    %961 = llvm.getelementptr %370[%960] : (!llvm.ptr<f32>, i64) -> !llvm.ptr<f32>
    %962 = llvm.load %961 : !llvm.ptr<f32>
    %963 = llvm.fmul %956, %962  : f32
    %964 = llvm.fadd %950, %963  : f32
    %965 = llvm.mul %10, %8  : i64
    %966 = llvm.mul %10, %6  : i64
    %967 = llvm.add %965, %966  : i64
    %968 = llvm.add %967, %7  : i64
    %969 = llvm.getelementptr %14[%968] : (!llvm.ptr<f32>, i64) -> !llvm.ptr<f32>
    %970 = llvm.load %969 : !llvm.ptr<f32>
    %971 = llvm.mul %10, %8  : i64
    %972 = llvm.mul %7, %7  : i64
    %973 = llvm.add %971, %972  : i64
    %974 = llvm.add %973, %10  : i64
    %975 = llvm.getelementptr %370[%974] : (!llvm.ptr<f32>, i64) -> !llvm.ptr<f32>
    %976 = llvm.load %975 : !llvm.ptr<f32>
    %977 = llvm.fmul %970, %976  : f32
    %978 = llvm.fadd %964, %977  : f32
    %979 = llvm.mul %10, %8  : i64
    %980 = llvm.mul %10, %6  : i64
    %981 = llvm.add %979, %980  : i64
    %982 = llvm.add %981, %2  : i64
    %983 = llvm.getelementptr %14[%982] : (!llvm.ptr<f32>, i64) -> !llvm.ptr<f32>
    %984 = llvm.load %983 : !llvm.ptr<f32>
    %985 = llvm.mul %10, %8  : i64
    %986 = llvm.mul %2, %7  : i64
    %987 = llvm.add %985, %986  : i64
    %988 = llvm.add %987, %10  : i64
    %989 = llvm.getelementptr %370[%988] : (!llvm.ptr<f32>, i64) -> !llvm.ptr<f32>
    %990 = llvm.load %989 : !llvm.ptr<f32>
    %991 = llvm.fmul %984, %990  : f32
    %992 = llvm.fadd %978, %991  : f32
    %993 = llvm.mul %10, %8  : i64
    %994 = llvm.mul %10, %6  : i64
    %995 = llvm.add %993, %994  : i64
    %996 = llvm.add %995, %1  : i64
    %997 = llvm.getelementptr %14[%996] : (!llvm.ptr<f32>, i64) -> !llvm.ptr<f32>
    %998 = llvm.load %997 : !llvm.ptr<f32>
    %999 = llvm.mul %10, %8  : i64
    %1000 = llvm.mul %1, %7  : i64
    %1001 = llvm.add %999, %1000  : i64
    %1002 = llvm.add %1001, %10  : i64
    %1003 = llvm.getelementptr %370[%1002] : (!llvm.ptr<f32>, i64) -> !llvm.ptr<f32>
    %1004 = llvm.load %1003 : !llvm.ptr<f32>
    %1005 = llvm.fmul %998, %1004  : f32
    %1006 = llvm.fadd %992, %1005  : f32
    %1007 = llvm.mul %10, %8  : i64
    %1008 = llvm.mul %10, %6  : i64
    %1009 = llvm.add %1007, %1008  : i64
    %1010 = llvm.add %1009, %0  : i64
    %1011 = llvm.getelementptr %14[%1010] : (!llvm.ptr<f32>, i64) -> !llvm.ptr<f32>
    %1012 = llvm.load %1011 : !llvm.ptr<f32>
    %1013 = llvm.mul %10, %8  : i64
    %1014 = llvm.mul %0, %7  : i64
    %1015 = llvm.add %1013, %1014  : i64
    %1016 = llvm.add %1015, %10  : i64
    %1017 = llvm.getelementptr %370[%1016] : (!llvm.ptr<f32>, i64) -> !llvm.ptr<f32>
    %1018 = llvm.load %1017 : !llvm.ptr<f32>
    %1019 = llvm.fmul %1012, %1018  : f32
    %1020 = llvm.fadd %1006, %1019  : f32
    %1021 = llvm.mul %10, %5  : i64
    %1022 = llvm.mul %10, %7  : i64
    %1023 = llvm.add %1021, %1022  : i64
    %1024 = llvm.add %1023, %10  : i64
    %1025 = llvm.getelementptr %726[%1024] : (!llvm.ptr<f32>, i64) -> !llvm.ptr<f32>
    llvm.store %1020, %1025 : !llvm.ptr<f32>
    %1026 = llvm.mul %10, %8  : i64
    %1027 = llvm.mul %10, %7  : i64
    %1028 = llvm.add %1026, %1027  : i64
    %1029 = llvm.add %1028, %9  : i64
    %1030 = llvm.getelementptr %370[%1029] : (!llvm.ptr<f32>, i64) -> !llvm.ptr<f32>
    %1031 = llvm.load %1030 : !llvm.ptr<f32>
    %1032 = llvm.mul %10, %5  : i64
    %1033 = llvm.mul %10, %7  : i64
    %1034 = llvm.add %1032, %1033  : i64
    %1035 = llvm.add %1034, %9  : i64
    %1036 = llvm.getelementptr %726[%1035] : (!llvm.ptr<f32>, i64) -> !llvm.ptr<f32>
    %1037 = llvm.load %1036 : !llvm.ptr<f32>
    %1038 = llvm.fmul %908, %1031  : f32
    %1039 = llvm.fadd %1037, %1038  : f32
    %1040 = llvm.mul %10, %8  : i64
    %1041 = llvm.mul %9, %7  : i64
    %1042 = llvm.add %1040, %1041  : i64
    %1043 = llvm.add %1042, %9  : i64
    %1044 = llvm.getelementptr %370[%1043] : (!llvm.ptr<f32>, i64) -> !llvm.ptr<f32>
    %1045 = llvm.load %1044 : !llvm.ptr<f32>
    %1046 = llvm.fmul %928, %1045  : f32
    %1047 = llvm.fadd %1039, %1046  : f32
    %1048 = llvm.mul %10, %8  : i64
    %1049 = llvm.mul %4, %7  : i64
    %1050 = llvm.add %1048, %1049  : i64
    %1051 = llvm.add %1050, %9  : i64
    %1052 = llvm.getelementptr %370[%1051] : (!llvm.ptr<f32>, i64) -> !llvm.ptr<f32>
    %1053 = llvm.load %1052 : !llvm.ptr<f32>
    %1054 = llvm.fmul %942, %1053  : f32
    %1055 = llvm.fadd %1047, %1054  : f32
    %1056 = llvm.mul %10, %8  : i64
    %1057 = llvm.mul %3, %7  : i64
    %1058 = llvm.add %1056, %1057  : i64
    %1059 = llvm.add %1058, %9  : i64
    %1060 = llvm.getelementptr %370[%1059] : (!llvm.ptr<f32>, i64) -> !llvm.ptr<f32>
    %1061 = llvm.load %1060 : !llvm.ptr<f32>
    %1062 = llvm.fmul %956, %1061  : f32
    %1063 = llvm.fadd %1055, %1062  : f32
    %1064 = llvm.mul %10, %8  : i64
    %1065 = llvm.mul %7, %7  : i64
    %1066 = llvm.add %1064, %1065  : i64
    %1067 = llvm.add %1066, %9  : i64
    %1068 = llvm.getelementptr %370[%1067] : (!llvm.ptr<f32>, i64) -> !llvm.ptr<f32>
    %1069 = llvm.load %1068 : !llvm.ptr<f32>
    %1070 = llvm.fmul %970, %1069  : f32
    %1071 = llvm.fadd %1063, %1070  : f32
    %1072 = llvm.mul %10, %8  : i64
    %1073 = llvm.mul %2, %7  : i64
    %1074 = llvm.add %1072, %1073  : i64
    %1075 = llvm.add %1074, %9  : i64
    %1076 = llvm.getelementptr %370[%1075] : (!llvm.ptr<f32>, i64) -> !llvm.ptr<f32>
    %1077 = llvm.load %1076 : !llvm.ptr<f32>
    %1078 = llvm.fmul %984, %1077  : f32
    %1079 = llvm.fadd %1071, %1078  : f32
    %1080 = llvm.mul %10, %8  : i64
    %1081 = llvm.mul %1, %7  : i64
    %1082 = llvm.add %1080, %1081  : i64
    %1083 = llvm.add %1082, %9  : i64
    %1084 = llvm.getelementptr %370[%1083] : (!llvm.ptr<f32>, i64) -> !llvm.ptr<f32>
    %1085 = llvm.load %1084 : !llvm.ptr<f32>
    %1086 = llvm.fmul %998, %1085  : f32
    %1087 = llvm.fadd %1079, %1086  : f32
    %1088 = llvm.mul %10, %8  : i64
    %1089 = llvm.mul %0, %7  : i64
    %1090 = llvm.add %1088, %1089  : i64
    %1091 = llvm.add %1090, %9  : i64
    %1092 = llvm.getelementptr %370[%1091] : (!llvm.ptr<f32>, i64) -> !llvm.ptr<f32>
    %1093 = llvm.load %1092 : !llvm.ptr<f32>
    %1094 = llvm.fmul %1012, %1093  : f32
    %1095 = llvm.fadd %1087, %1094  : f32
    %1096 = llvm.mul %10, %5  : i64
    %1097 = llvm.mul %10, %7  : i64
    %1098 = llvm.add %1096, %1097  : i64
    %1099 = llvm.add %1098, %9  : i64
    %1100 = llvm.getelementptr %726[%1099] : (!llvm.ptr<f32>, i64) -> !llvm.ptr<f32>
    llvm.store %1095, %1100 : !llvm.ptr<f32>
    %1101 = llvm.mul %10, %8  : i64
    %1102 = llvm.mul %10, %7  : i64
    %1103 = llvm.add %1101, %1102  : i64
    %1104 = llvm.add %1103, %4  : i64
    %1105 = llvm.getelementptr %370[%1104] : (!llvm.ptr<f32>, i64) -> !llvm.ptr<f32>
    %1106 = llvm.load %1105 : !llvm.ptr<f32>
    %1107 = llvm.mul %10, %5  : i64
    %1108 = llvm.mul %10, %7  : i64
    %1109 = llvm.add %1107, %1108  : i64
    %1110 = llvm.add %1109, %4  : i64
    %1111 = llvm.getelementptr %726[%1110] : (!llvm.ptr<f32>, i64) -> !llvm.ptr<f32>
    %1112 = llvm.load %1111 : !llvm.ptr<f32>
    %1113 = llvm.fmul %908, %1106  : f32
    %1114 = llvm.fadd %1112, %1113  : f32
    %1115 = llvm.mul %10, %8  : i64
    %1116 = llvm.mul %9, %7  : i64
    %1117 = llvm.add %1115, %1116  : i64
    %1118 = llvm.add %1117, %4  : i64
    %1119 = llvm.getelementptr %370[%1118] : (!llvm.ptr<f32>, i64) -> !llvm.ptr<f32>
    %1120 = llvm.load %1119 : !llvm.ptr<f32>
    %1121 = llvm.fmul %928, %1120  : f32
    %1122 = llvm.fadd %1114, %1121  : f32
    %1123 = llvm.mul %10, %8  : i64
    %1124 = llvm.mul %4, %7  : i64
    %1125 = llvm.add %1123, %1124  : i64
    %1126 = llvm.add %1125, %4  : i64
    %1127 = llvm.getelementptr %370[%1126] : (!llvm.ptr<f32>, i64) -> !llvm.ptr<f32>
    %1128 = llvm.load %1127 : !llvm.ptr<f32>
    %1129 = llvm.fmul %942, %1128  : f32
    %1130 = llvm.fadd %1122, %1129  : f32
    %1131 = llvm.mul %10, %8  : i64
    %1132 = llvm.mul %3, %7  : i64
    %1133 = llvm.add %1131, %1132  : i64
    %1134 = llvm.add %1133, %4  : i64
    %1135 = llvm.getelementptr %370[%1134] : (!llvm.ptr<f32>, i64) -> !llvm.ptr<f32>
    %1136 = llvm.load %1135 : !llvm.ptr<f32>
    %1137 = llvm.fmul %956, %1136  : f32
    %1138 = llvm.fadd %1130, %1137  : f32
    %1139 = llvm.mul %10, %8  : i64
    %1140 = llvm.mul %7, %7  : i64
    %1141 = llvm.add %1139, %1140  : i64
    %1142 = llvm.add %1141, %4  : i64
    %1143 = llvm.getelementptr %370[%1142] : (!llvm.ptr<f32>, i64) -> !llvm.ptr<f32>
    %1144 = llvm.load %1143 : !llvm.ptr<f32>
    %1145 = llvm.fmul %970, %1144  : f32
    %1146 = llvm.fadd %1138, %1145  : f32
    %1147 = llvm.mul %10, %8  : i64
    %1148 = llvm.mul %2, %7  : i64
    %1149 = llvm.add %1147, %1148  : i64
    %1150 = llvm.add %1149, %4  : i64
    %1151 = llvm.getelementptr %370[%1150] : (!llvm.ptr<f32>, i64) -> !llvm.ptr<f32>
    %1152 = llvm.load %1151 : !llvm.ptr<f32>
    %1153 = llvm.fmul %984, %1152  : f32
    %1154 = llvm.fadd %1146, %1153  : f32
    %1155 = llvm.mul %10, %8  : i64
    %1156 = llvm.mul %1, %7  : i64
    %1157 = llvm.add %1155, %1156  : i64
    %1158 = llvm.add %1157, %4  : i64
    %1159 = llvm.getelementptr %370[%1158] : (!llvm.ptr<f32>, i64) -> !llvm.ptr<f32>
    %1160 = llvm.load %1159 : !llvm.ptr<f32>
    %1161 = llvm.fmul %998, %1160  : f32
    %1162 = llvm.fadd %1154, %1161  : f32
    %1163 = llvm.mul %10, %8  : i64
    %1164 = llvm.mul %0, %7  : i64
    %1165 = llvm.add %1163, %1164  : i64
    %1166 = llvm.add %1165, %4  : i64
    %1167 = llvm.getelementptr %370[%1166] : (!llvm.ptr<f32>, i64) -> !llvm.ptr<f32>
    %1168 = llvm.load %1167 : !llvm.ptr<f32>
    %1169 = llvm.fmul %1012, %1168  : f32
    %1170 = llvm.fadd %1162, %1169  : f32
    %1171 = llvm.mul %10, %5  : i64
    %1172 = llvm.mul %10, %7  : i64
    %1173 = llvm.add %1171, %1172  : i64
    %1174 = llvm.add %1173, %4  : i64
    %1175 = llvm.getelementptr %726[%1174] : (!llvm.ptr<f32>, i64) -> !llvm.ptr<f32>
    llvm.store %1170, %1175 : !llvm.ptr<f32>
    %1176 = llvm.mul %10, %8  : i64
    %1177 = llvm.mul %10, %7  : i64
    %1178 = llvm.add %1176, %1177  : i64
    %1179 = llvm.add %1178, %3  : i64
    %1180 = llvm.getelementptr %370[%1179] : (!llvm.ptr<f32>, i64) -> !llvm.ptr<f32>
    %1181 = llvm.load %1180 : !llvm.ptr<f32>
    %1182 = llvm.mul %10, %5  : i64
    %1183 = llvm.mul %10, %7  : i64
    %1184 = llvm.add %1182, %1183  : i64
    %1185 = llvm.add %1184, %3  : i64
    %1186 = llvm.getelementptr %726[%1185] : (!llvm.ptr<f32>, i64) -> !llvm.ptr<f32>
    %1187 = llvm.load %1186 : !llvm.ptr<f32>
    %1188 = llvm.fmul %908, %1181  : f32
    %1189 = llvm.fadd %1187, %1188  : f32
    %1190 = llvm.mul %10, %8  : i64
    %1191 = llvm.mul %9, %7  : i64
    %1192 = llvm.add %1190, %1191  : i64
    %1193 = llvm.add %1192, %3  : i64
    %1194 = llvm.getelementptr %370[%1193] : (!llvm.ptr<f32>, i64) -> !llvm.ptr<f32>
    %1195 = llvm.load %1194 : !llvm.ptr<f32>
    %1196 = llvm.fmul %928, %1195  : f32
    %1197 = llvm.fadd %1189, %1196  : f32
    %1198 = llvm.mul %10, %8  : i64
    %1199 = llvm.mul %4, %7  : i64
    %1200 = llvm.add %1198, %1199  : i64
    %1201 = llvm.add %1200, %3  : i64
    %1202 = llvm.getelementptr %370[%1201] : (!llvm.ptr<f32>, i64) -> !llvm.ptr<f32>
    %1203 = llvm.load %1202 : !llvm.ptr<f32>
    %1204 = llvm.fmul %942, %1203  : f32
    %1205 = llvm.fadd %1197, %1204  : f32
    %1206 = llvm.mul %10, %8  : i64
    %1207 = llvm.mul %3, %7  : i64
    %1208 = llvm.add %1206, %1207  : i64
    %1209 = llvm.add %1208, %3  : i64
    %1210 = llvm.getelementptr %370[%1209] : (!llvm.ptr<f32>, i64) -> !llvm.ptr<f32>
    %1211 = llvm.load %1210 : !llvm.ptr<f32>
    %1212 = llvm.fmul %956, %1211  : f32
    %1213 = llvm.fadd %1205, %1212  : f32
    %1214 = llvm.mul %10, %8  : i64
    %1215 = llvm.mul %7, %7  : i64
    %1216 = llvm.add %1214, %1215  : i64
    %1217 = llvm.add %1216, %3  : i64
    %1218 = llvm.getelementptr %370[%1217] : (!llvm.ptr<f32>, i64) -> !llvm.ptr<f32>
    %1219 = llvm.load %1218 : !llvm.ptr<f32>
    %1220 = llvm.fmul %970, %1219  : f32
    %1221 = llvm.fadd %1213, %1220  : f32
    %1222 = llvm.mul %10, %8  : i64
    %1223 = llvm.mul %2, %7  : i64
    %1224 = llvm.add %1222, %1223  : i64
    %1225 = llvm.add %1224, %3  : i64
    %1226 = llvm.getelementptr %370[%1225] : (!llvm.ptr<f32>, i64) -> !llvm.ptr<f32>
    %1227 = llvm.load %1226 : !llvm.ptr<f32>
    %1228 = llvm.fmul %984, %1227  : f32
    %1229 = llvm.fadd %1221, %1228  : f32
    %1230 = llvm.mul %10, %8  : i64
    %1231 = llvm.mul %1, %7  : i64
    %1232 = llvm.add %1230, %1231  : i64
    %1233 = llvm.add %1232, %3  : i64
    %1234 = llvm.getelementptr %370[%1233] : (!llvm.ptr<f32>, i64) -> !llvm.ptr<f32>
    %1235 = llvm.load %1234 : !llvm.ptr<f32>
    %1236 = llvm.fmul %998, %1235  : f32
    %1237 = llvm.fadd %1229, %1236  : f32
    %1238 = llvm.mul %10, %8  : i64
    %1239 = llvm.mul %0, %7  : i64
    %1240 = llvm.add %1238, %1239  : i64
    %1241 = llvm.add %1240, %3  : i64
    %1242 = llvm.getelementptr %370[%1241] : (!llvm.ptr<f32>, i64) -> !llvm.ptr<f32>
    %1243 = llvm.load %1242 : !llvm.ptr<f32>
    %1244 = llvm.fmul %1012, %1243  : f32
    %1245 = llvm.fadd %1237, %1244  : f32
    %1246 = llvm.mul %10, %5  : i64
    %1247 = llvm.mul %10, %7  : i64
    %1248 = llvm.add %1246, %1247  : i64
    %1249 = llvm.add %1248, %3  : i64
    %1250 = llvm.getelementptr %726[%1249] : (!llvm.ptr<f32>, i64) -> !llvm.ptr<f32>
    llvm.store %1245, %1250 : !llvm.ptr<f32>
    %1251 = llvm.mul %10, %8  : i64
    %1252 = llvm.mul %9, %6  : i64
    %1253 = llvm.add %1251, %1252  : i64
    %1254 = llvm.add %1253, %10  : i64
    %1255 = llvm.getelementptr %14[%1254] : (!llvm.ptr<f32>, i64) -> !llvm.ptr<f32>
    %1256 = llvm.load %1255 : !llvm.ptr<f32>
    %1257 = llvm.mul %10, %5  : i64
    %1258 = llvm.mul %9, %7  : i64
    %1259 = llvm.add %1257, %1258  : i64
    %1260 = llvm.add %1259, %10  : i64
    %1261 = llvm.getelementptr %726[%1260] : (!llvm.ptr<f32>, i64) -> !llvm.ptr<f32>
    %1262 = llvm.load %1261 : !llvm.ptr<f32>
    %1263 = llvm.fmul %1256, %914  : f32
    %1264 = llvm.fadd %1262, %1263  : f32
    %1265 = llvm.mul %10, %8  : i64
    %1266 = llvm.mul %9, %6  : i64
    %1267 = llvm.add %1265, %1266  : i64
    %1268 = llvm.add %1267, %9  : i64
    %1269 = llvm.getelementptr %14[%1268] : (!llvm.ptr<f32>, i64) -> !llvm.ptr<f32>
    %1270 = llvm.load %1269 : !llvm.ptr<f32>
    %1271 = llvm.fmul %1270, %934  : f32
    %1272 = llvm.fadd %1264, %1271  : f32
    %1273 = llvm.mul %10, %8  : i64
    %1274 = llvm.mul %9, %6  : i64
    %1275 = llvm.add %1273, %1274  : i64
    %1276 = llvm.add %1275, %4  : i64
    %1277 = llvm.getelementptr %14[%1276] : (!llvm.ptr<f32>, i64) -> !llvm.ptr<f32>
    %1278 = llvm.load %1277 : !llvm.ptr<f32>
    %1279 = llvm.fmul %1278, %948  : f32
    %1280 = llvm.fadd %1272, %1279  : f32
    %1281 = llvm.mul %10, %8  : i64
    %1282 = llvm.mul %9, %6  : i64
    %1283 = llvm.add %1281, %1282  : i64
    %1284 = llvm.add %1283, %3  : i64
    %1285 = llvm.getelementptr %14[%1284] : (!llvm.ptr<f32>, i64) -> !llvm.ptr<f32>
    %1286 = llvm.load %1285 : !llvm.ptr<f32>
    %1287 = llvm.fmul %1286, %962  : f32
    %1288 = llvm.fadd %1280, %1287  : f32
    %1289 = llvm.mul %10, %8  : i64
    %1290 = llvm.mul %9, %6  : i64
    %1291 = llvm.add %1289, %1290  : i64
    %1292 = llvm.add %1291, %7  : i64
    %1293 = llvm.getelementptr %14[%1292] : (!llvm.ptr<f32>, i64) -> !llvm.ptr<f32>
    %1294 = llvm.load %1293 : !llvm.ptr<f32>
    %1295 = llvm.fmul %1294, %976  : f32
    %1296 = llvm.fadd %1288, %1295  : f32
    %1297 = llvm.mul %10, %8  : i64
    %1298 = llvm.mul %9, %6  : i64
    %1299 = llvm.add %1297, %1298  : i64
    %1300 = llvm.add %1299, %2  : i64
    %1301 = llvm.getelementptr %14[%1300] : (!llvm.ptr<f32>, i64) -> !llvm.ptr<f32>
    %1302 = llvm.load %1301 : !llvm.ptr<f32>
    %1303 = llvm.fmul %1302, %990  : f32
    %1304 = llvm.fadd %1296, %1303  : f32
    %1305 = llvm.mul %10, %8  : i64
    %1306 = llvm.mul %9, %6  : i64
    %1307 = llvm.add %1305, %1306  : i64
    %1308 = llvm.add %1307, %1  : i64
    %1309 = llvm.getelementptr %14[%1308] : (!llvm.ptr<f32>, i64) -> !llvm.ptr<f32>
    %1310 = llvm.load %1309 : !llvm.ptr<f32>
    %1311 = llvm.fmul %1310, %1004  : f32
    %1312 = llvm.fadd %1304, %1311  : f32
    %1313 = llvm.mul %10, %8  : i64
    %1314 = llvm.mul %9, %6  : i64
    %1315 = llvm.add %1313, %1314  : i64
    %1316 = llvm.add %1315, %0  : i64
    %1317 = llvm.getelementptr %14[%1316] : (!llvm.ptr<f32>, i64) -> !llvm.ptr<f32>
    %1318 = llvm.load %1317 : !llvm.ptr<f32>
    %1319 = llvm.fmul %1318, %1018  : f32
    %1320 = llvm.fadd %1312, %1319  : f32
    %1321 = llvm.mul %10, %5  : i64
    %1322 = llvm.mul %9, %7  : i64
    %1323 = llvm.add %1321, %1322  : i64
    %1324 = llvm.add %1323, %10  : i64
    %1325 = llvm.getelementptr %726[%1324] : (!llvm.ptr<f32>, i64) -> !llvm.ptr<f32>
    llvm.store %1320, %1325 : !llvm.ptr<f32>
    %1326 = llvm.mul %10, %5  : i64
    %1327 = llvm.mul %9, %7  : i64
    %1328 = llvm.add %1326, %1327  : i64
    %1329 = llvm.add %1328, %9  : i64
    %1330 = llvm.getelementptr %726[%1329] : (!llvm.ptr<f32>, i64) -> !llvm.ptr<f32>
    %1331 = llvm.load %1330 : !llvm.ptr<f32>
    %1332 = llvm.fmul %1256, %1031  : f32
    %1333 = llvm.fadd %1331, %1332  : f32
    %1334 = llvm.fmul %1270, %1045  : f32
    %1335 = llvm.fadd %1333, %1334  : f32
    %1336 = llvm.fmul %1278, %1053  : f32
    %1337 = llvm.fadd %1335, %1336  : f32
    %1338 = llvm.fmul %1286, %1061  : f32
    %1339 = llvm.fadd %1337, %1338  : f32
    %1340 = llvm.fmul %1294, %1069  : f32
    %1341 = llvm.fadd %1339, %1340  : f32
    %1342 = llvm.fmul %1302, %1077  : f32
    %1343 = llvm.fadd %1341, %1342  : f32
    %1344 = llvm.fmul %1310, %1085  : f32
    %1345 = llvm.fadd %1343, %1344  : f32
    %1346 = llvm.fmul %1318, %1093  : f32
    %1347 = llvm.fadd %1345, %1346  : f32
    %1348 = llvm.mul %10, %5  : i64
    %1349 = llvm.mul %9, %7  : i64
    %1350 = llvm.add %1348, %1349  : i64
    %1351 = llvm.add %1350, %9  : i64
    %1352 = llvm.getelementptr %726[%1351] : (!llvm.ptr<f32>, i64) -> !llvm.ptr<f32>
    llvm.store %1347, %1352 : !llvm.ptr<f32>
    %1353 = llvm.mul %10, %5  : i64
    %1354 = llvm.mul %9, %7  : i64
    %1355 = llvm.add %1353, %1354  : i64
    %1356 = llvm.add %1355, %4  : i64
    %1357 = llvm.getelementptr %726[%1356] : (!llvm.ptr<f32>, i64) -> !llvm.ptr<f32>
    %1358 = llvm.load %1357 : !llvm.ptr<f32>
    %1359 = llvm.fmul %1256, %1106  : f32
    %1360 = llvm.fadd %1358, %1359  : f32
    %1361 = llvm.fmul %1270, %1120  : f32
    %1362 = llvm.fadd %1360, %1361  : f32
    %1363 = llvm.fmul %1278, %1128  : f32
    %1364 = llvm.fadd %1362, %1363  : f32
    %1365 = llvm.fmul %1286, %1136  : f32
    %1366 = llvm.fadd %1364, %1365  : f32
    %1367 = llvm.fmul %1294, %1144  : f32
    %1368 = llvm.fadd %1366, %1367  : f32
    %1369 = llvm.fmul %1302, %1152  : f32
    %1370 = llvm.fadd %1368, %1369  : f32
    %1371 = llvm.fmul %1310, %1160  : f32
    %1372 = llvm.fadd %1370, %1371  : f32
    %1373 = llvm.fmul %1318, %1168  : f32
    %1374 = llvm.fadd %1372, %1373  : f32
    %1375 = llvm.mul %10, %5  : i64
    %1376 = llvm.mul %9, %7  : i64
    %1377 = llvm.add %1375, %1376  : i64
    %1378 = llvm.add %1377, %4  : i64
    %1379 = llvm.getelementptr %726[%1378] : (!llvm.ptr<f32>, i64) -> !llvm.ptr<f32>
    llvm.store %1374, %1379 : !llvm.ptr<f32>
    %1380 = llvm.mul %10, %5  : i64
    %1381 = llvm.mul %9, %7  : i64
    %1382 = llvm.add %1380, %1381  : i64
    %1383 = llvm.add %1382, %3  : i64
    %1384 = llvm.getelementptr %726[%1383] : (!llvm.ptr<f32>, i64) -> !llvm.ptr<f32>
    %1385 = llvm.load %1384 : !llvm.ptr<f32>
    %1386 = llvm.fmul %1256, %1181  : f32
    %1387 = llvm.fadd %1385, %1386  : f32
    %1388 = llvm.fmul %1270, %1195  : f32
    %1389 = llvm.fadd %1387, %1388  : f32
    %1390 = llvm.fmul %1278, %1203  : f32
    %1391 = llvm.fadd %1389, %1390  : f32
    %1392 = llvm.fmul %1286, %1211  : f32
    %1393 = llvm.fadd %1391, %1392  : f32
    %1394 = llvm.fmul %1294, %1219  : f32
    %1395 = llvm.fadd %1393, %1394  : f32
    %1396 = llvm.fmul %1302, %1227  : f32
    %1397 = llvm.fadd %1395, %1396  : f32
    %1398 = llvm.fmul %1310, %1235  : f32
    %1399 = llvm.fadd %1397, %1398  : f32
    %1400 = llvm.fmul %1318, %1243  : f32
    %1401 = llvm.fadd %1399, %1400  : f32
    %1402 = llvm.mul %10, %5  : i64
    %1403 = llvm.mul %9, %7  : i64
    %1404 = llvm.add %1402, %1403  : i64
    %1405 = llvm.add %1404, %3  : i64
    %1406 = llvm.getelementptr %726[%1405] : (!llvm.ptr<f32>, i64) -> !llvm.ptr<f32>
    llvm.store %1401, %1406 : !llvm.ptr<f32>
    %1407 = llvm.mul %10, %8  : i64
    %1408 = llvm.mul %4, %6  : i64
    %1409 = llvm.add %1407, %1408  : i64
    %1410 = llvm.add %1409, %10  : i64
    %1411 = llvm.getelementptr %14[%1410] : (!llvm.ptr<f32>, i64) -> !llvm.ptr<f32>
    %1412 = llvm.load %1411 : !llvm.ptr<f32>
    %1413 = llvm.mul %10, %5  : i64
    %1414 = llvm.mul %4, %7  : i64
    %1415 = llvm.add %1413, %1414  : i64
    %1416 = llvm.add %1415, %10  : i64
    %1417 = llvm.getelementptr %726[%1416] : (!llvm.ptr<f32>, i64) -> !llvm.ptr<f32>
    %1418 = llvm.load %1417 : !llvm.ptr<f32>
    %1419 = llvm.fmul %1412, %914  : f32
    %1420 = llvm.fadd %1418, %1419  : f32
    %1421 = llvm.mul %10, %8  : i64
    %1422 = llvm.mul %4, %6  : i64
    %1423 = llvm.add %1421, %1422  : i64
    %1424 = llvm.add %1423, %9  : i64
    %1425 = llvm.getelementptr %14[%1424] : (!llvm.ptr<f32>, i64) -> !llvm.ptr<f32>
    %1426 = llvm.load %1425 : !llvm.ptr<f32>
    %1427 = llvm.fmul %1426, %934  : f32
    %1428 = llvm.fadd %1420, %1427  : f32
    %1429 = llvm.mul %10, %8  : i64
    %1430 = llvm.mul %4, %6  : i64
    %1431 = llvm.add %1429, %1430  : i64
    %1432 = llvm.add %1431, %4  : i64
    %1433 = llvm.getelementptr %14[%1432] : (!llvm.ptr<f32>, i64) -> !llvm.ptr<f32>
    %1434 = llvm.load %1433 : !llvm.ptr<f32>
    %1435 = llvm.fmul %1434, %948  : f32
    %1436 = llvm.fadd %1428, %1435  : f32
    %1437 = llvm.mul %10, %8  : i64
    %1438 = llvm.mul %4, %6  : i64
    %1439 = llvm.add %1437, %1438  : i64
    %1440 = llvm.add %1439, %3  : i64
    %1441 = llvm.getelementptr %14[%1440] : (!llvm.ptr<f32>, i64) -> !llvm.ptr<f32>
    %1442 = llvm.load %1441 : !llvm.ptr<f32>
    %1443 = llvm.fmul %1442, %962  : f32
    %1444 = llvm.fadd %1436, %1443  : f32
    %1445 = llvm.mul %10, %8  : i64
    %1446 = llvm.mul %4, %6  : i64
    %1447 = llvm.add %1445, %1446  : i64
    %1448 = llvm.add %1447, %7  : i64
    %1449 = llvm.getelementptr %14[%1448] : (!llvm.ptr<f32>, i64) -> !llvm.ptr<f32>
    %1450 = llvm.load %1449 : !llvm.ptr<f32>
    %1451 = llvm.fmul %1450, %976  : f32
    %1452 = llvm.fadd %1444, %1451  : f32
    %1453 = llvm.mul %10, %8  : i64
    %1454 = llvm.mul %4, %6  : i64
    %1455 = llvm.add %1453, %1454  : i64
    %1456 = llvm.add %1455, %2  : i64
    %1457 = llvm.getelementptr %14[%1456] : (!llvm.ptr<f32>, i64) -> !llvm.ptr<f32>
    %1458 = llvm.load %1457 : !llvm.ptr<f32>
    %1459 = llvm.fmul %1458, %990  : f32
    %1460 = llvm.fadd %1452, %1459  : f32
    %1461 = llvm.mul %10, %8  : i64
    %1462 = llvm.mul %4, %6  : i64
    %1463 = llvm.add %1461, %1462  : i64
    %1464 = llvm.add %1463, %1  : i64
    %1465 = llvm.getelementptr %14[%1464] : (!llvm.ptr<f32>, i64) -> !llvm.ptr<f32>
    %1466 = llvm.load %1465 : !llvm.ptr<f32>
    %1467 = llvm.fmul %1466, %1004  : f32
    %1468 = llvm.fadd %1460, %1467  : f32
    %1469 = llvm.mul %10, %8  : i64
    %1470 = llvm.mul %4, %6  : i64
    %1471 = llvm.add %1469, %1470  : i64
    %1472 = llvm.add %1471, %0  : i64
    %1473 = llvm.getelementptr %14[%1472] : (!llvm.ptr<f32>, i64) -> !llvm.ptr<f32>
    %1474 = llvm.load %1473 : !llvm.ptr<f32>
    %1475 = llvm.fmul %1474, %1018  : f32
    %1476 = llvm.fadd %1468, %1475  : f32
    %1477 = llvm.mul %10, %5  : i64
    %1478 = llvm.mul %4, %7  : i64
    %1479 = llvm.add %1477, %1478  : i64
    %1480 = llvm.add %1479, %10  : i64
    %1481 = llvm.getelementptr %726[%1480] : (!llvm.ptr<f32>, i64) -> !llvm.ptr<f32>
    llvm.store %1476, %1481 : !llvm.ptr<f32>
    %1482 = llvm.mul %10, %5  : i64
    %1483 = llvm.mul %4, %7  : i64
    %1484 = llvm.add %1482, %1483  : i64
    %1485 = llvm.add %1484, %9  : i64
    %1486 = llvm.getelementptr %726[%1485] : (!llvm.ptr<f32>, i64) -> !llvm.ptr<f32>
    %1487 = llvm.load %1486 : !llvm.ptr<f32>
    %1488 = llvm.fmul %1412, %1031  : f32
    %1489 = llvm.fadd %1487, %1488  : f32
    %1490 = llvm.fmul %1426, %1045  : f32
    %1491 = llvm.fadd %1489, %1490  : f32
    %1492 = llvm.fmul %1434, %1053  : f32
    %1493 = llvm.fadd %1491, %1492  : f32
    %1494 = llvm.fmul %1442, %1061  : f32
    %1495 = llvm.fadd %1493, %1494  : f32
    %1496 = llvm.fmul %1450, %1069  : f32
    %1497 = llvm.fadd %1495, %1496  : f32
    %1498 = llvm.fmul %1458, %1077  : f32
    %1499 = llvm.fadd %1497, %1498  : f32
    %1500 = llvm.fmul %1466, %1085  : f32
    %1501 = llvm.fadd %1499, %1500  : f32
    %1502 = llvm.fmul %1474, %1093  : f32
    %1503 = llvm.fadd %1501, %1502  : f32
    %1504 = llvm.mul %10, %5  : i64
    %1505 = llvm.mul %4, %7  : i64
    %1506 = llvm.add %1504, %1505  : i64
    %1507 = llvm.add %1506, %9  : i64
    %1508 = llvm.getelementptr %726[%1507] : (!llvm.ptr<f32>, i64) -> !llvm.ptr<f32>
    llvm.store %1503, %1508 : !llvm.ptr<f32>
    %1509 = llvm.mul %10, %5  : i64
    %1510 = llvm.mul %4, %7  : i64
    %1511 = llvm.add %1509, %1510  : i64
    %1512 = llvm.add %1511, %4  : i64
    %1513 = llvm.getelementptr %726[%1512] : (!llvm.ptr<f32>, i64) -> !llvm.ptr<f32>
    %1514 = llvm.load %1513 : !llvm.ptr<f32>
    %1515 = llvm.fmul %1412, %1106  : f32
    %1516 = llvm.fadd %1514, %1515  : f32
    %1517 = llvm.fmul %1426, %1120  : f32
    %1518 = llvm.fadd %1516, %1517  : f32
    %1519 = llvm.fmul %1434, %1128  : f32
    %1520 = llvm.fadd %1518, %1519  : f32
    %1521 = llvm.fmul %1442, %1136  : f32
    %1522 = llvm.fadd %1520, %1521  : f32
    %1523 = llvm.fmul %1450, %1144  : f32
    %1524 = llvm.fadd %1522, %1523  : f32
    %1525 = llvm.fmul %1458, %1152  : f32
    %1526 = llvm.fadd %1524, %1525  : f32
    %1527 = llvm.fmul %1466, %1160  : f32
    %1528 = llvm.fadd %1526, %1527  : f32
    %1529 = llvm.fmul %1474, %1168  : f32
    %1530 = llvm.fadd %1528, %1529  : f32
    %1531 = llvm.mul %10, %5  : i64
    %1532 = llvm.mul %4, %7  : i64
    %1533 = llvm.add %1531, %1532  : i64
    %1534 = llvm.add %1533, %4  : i64
    %1535 = llvm.getelementptr %726[%1534] : (!llvm.ptr<f32>, i64) -> !llvm.ptr<f32>
    llvm.store %1530, %1535 : !llvm.ptr<f32>
    %1536 = llvm.mul %10, %5  : i64
    %1537 = llvm.mul %4, %7  : i64
    %1538 = llvm.add %1536, %1537  : i64
    %1539 = llvm.add %1538, %3  : i64
    %1540 = llvm.getelementptr %726[%1539] : (!llvm.ptr<f32>, i64) -> !llvm.ptr<f32>
    %1541 = llvm.load %1540 : !llvm.ptr<f32>
    %1542 = llvm.fmul %1412, %1181  : f32
    %1543 = llvm.fadd %1541, %1542  : f32
    %1544 = llvm.fmul %1426, %1195  : f32
    %1545 = llvm.fadd %1543, %1544  : f32
    %1546 = llvm.fmul %1434, %1203  : f32
    %1547 = llvm.fadd %1545, %1546  : f32
    %1548 = llvm.fmul %1442, %1211  : f32
    %1549 = llvm.fadd %1547, %1548  : f32
    %1550 = llvm.fmul %1450, %1219  : f32
    %1551 = llvm.fadd %1549, %1550  : f32
    %1552 = llvm.fmul %1458, %1227  : f32
    %1553 = llvm.fadd %1551, %1552  : f32
    %1554 = llvm.fmul %1466, %1235  : f32
    %1555 = llvm.fadd %1553, %1554  : f32
    %1556 = llvm.fmul %1474, %1243  : f32
    %1557 = llvm.fadd %1555, %1556  : f32
    %1558 = llvm.mul %10, %5  : i64
    %1559 = llvm.mul %4, %7  : i64
    %1560 = llvm.add %1558, %1559  : i64
    %1561 = llvm.add %1560, %3  : i64
    %1562 = llvm.getelementptr %726[%1561] : (!llvm.ptr<f32>, i64) -> !llvm.ptr<f32>
    llvm.store %1557, %1562 : !llvm.ptr<f32>
    %1563 = llvm.mul %10, %8  : i64
    %1564 = llvm.mul %3, %6  : i64
    %1565 = llvm.add %1563, %1564  : i64
    %1566 = llvm.add %1565, %10  : i64
    %1567 = llvm.getelementptr %14[%1566] : (!llvm.ptr<f32>, i64) -> !llvm.ptr<f32>
    %1568 = llvm.load %1567 : !llvm.ptr<f32>
    %1569 = llvm.mul %10, %5  : i64
    %1570 = llvm.mul %3, %7  : i64
    %1571 = llvm.add %1569, %1570  : i64
    %1572 = llvm.add %1571, %10  : i64
    %1573 = llvm.getelementptr %726[%1572] : (!llvm.ptr<f32>, i64) -> !llvm.ptr<f32>
    %1574 = llvm.load %1573 : !llvm.ptr<f32>
    %1575 = llvm.fmul %1568, %914  : f32
    %1576 = llvm.fadd %1574, %1575  : f32
    %1577 = llvm.mul %10, %8  : i64
    %1578 = llvm.mul %3, %6  : i64
    %1579 = llvm.add %1577, %1578  : i64
    %1580 = llvm.add %1579, %9  : i64
    %1581 = llvm.getelementptr %14[%1580] : (!llvm.ptr<f32>, i64) -> !llvm.ptr<f32>
    %1582 = llvm.load %1581 : !llvm.ptr<f32>
    %1583 = llvm.fmul %1582, %934  : f32
    %1584 = llvm.fadd %1576, %1583  : f32
    %1585 = llvm.mul %10, %8  : i64
    %1586 = llvm.mul %3, %6  : i64
    %1587 = llvm.add %1585, %1586  : i64
    %1588 = llvm.add %1587, %4  : i64
    %1589 = llvm.getelementptr %14[%1588] : (!llvm.ptr<f32>, i64) -> !llvm.ptr<f32>
    %1590 = llvm.load %1589 : !llvm.ptr<f32>
    %1591 = llvm.fmul %1590, %948  : f32
    %1592 = llvm.fadd %1584, %1591  : f32
    %1593 = llvm.mul %10, %8  : i64
    %1594 = llvm.mul %3, %6  : i64
    %1595 = llvm.add %1593, %1594  : i64
    %1596 = llvm.add %1595, %3  : i64
    %1597 = llvm.getelementptr %14[%1596] : (!llvm.ptr<f32>, i64) -> !llvm.ptr<f32>
    %1598 = llvm.load %1597 : !llvm.ptr<f32>
    %1599 = llvm.fmul %1598, %962  : f32
    %1600 = llvm.fadd %1592, %1599  : f32
    %1601 = llvm.mul %10, %8  : i64
    %1602 = llvm.mul %3, %6  : i64
    %1603 = llvm.add %1601, %1602  : i64
    %1604 = llvm.add %1603, %7  : i64
    %1605 = llvm.getelementptr %14[%1604] : (!llvm.ptr<f32>, i64) -> !llvm.ptr<f32>
    %1606 = llvm.load %1605 : !llvm.ptr<f32>
    %1607 = llvm.fmul %1606, %976  : f32
    %1608 = llvm.fadd %1600, %1607  : f32
    %1609 = llvm.mul %10, %8  : i64
    %1610 = llvm.mul %3, %6  : i64
    %1611 = llvm.add %1609, %1610  : i64
    %1612 = llvm.add %1611, %2  : i64
    %1613 = llvm.getelementptr %14[%1612] : (!llvm.ptr<f32>, i64) -> !llvm.ptr<f32>
    %1614 = llvm.load %1613 : !llvm.ptr<f32>
    %1615 = llvm.fmul %1614, %990  : f32
    %1616 = llvm.fadd %1608, %1615  : f32
    %1617 = llvm.mul %10, %8  : i64
    %1618 = llvm.mul %3, %6  : i64
    %1619 = llvm.add %1617, %1618  : i64
    %1620 = llvm.add %1619, %1  : i64
    %1621 = llvm.getelementptr %14[%1620] : (!llvm.ptr<f32>, i64) -> !llvm.ptr<f32>
    %1622 = llvm.load %1621 : !llvm.ptr<f32>
    %1623 = llvm.fmul %1622, %1004  : f32
    %1624 = llvm.fadd %1616, %1623  : f32
    %1625 = llvm.mul %10, %8  : i64
    %1626 = llvm.mul %3, %6  : i64
    %1627 = llvm.add %1625, %1626  : i64
    %1628 = llvm.add %1627, %0  : i64
    %1629 = llvm.getelementptr %14[%1628] : (!llvm.ptr<f32>, i64) -> !llvm.ptr<f32>
    %1630 = llvm.load %1629 : !llvm.ptr<f32>
    %1631 = llvm.fmul %1630, %1018  : f32
    %1632 = llvm.fadd %1624, %1631  : f32
    %1633 = llvm.mul %10, %5  : i64
    %1634 = llvm.mul %3, %7  : i64
    %1635 = llvm.add %1633, %1634  : i64
    %1636 = llvm.add %1635, %10  : i64
    %1637 = llvm.getelementptr %726[%1636] : (!llvm.ptr<f32>, i64) -> !llvm.ptr<f32>
    llvm.store %1632, %1637 : !llvm.ptr<f32>
    %1638 = llvm.mul %10, %5  : i64
    %1639 = llvm.mul %3, %7  : i64
    %1640 = llvm.add %1638, %1639  : i64
    %1641 = llvm.add %1640, %9  : i64
    %1642 = llvm.getelementptr %726[%1641] : (!llvm.ptr<f32>, i64) -> !llvm.ptr<f32>
    %1643 = llvm.load %1642 : !llvm.ptr<f32>
    %1644 = llvm.fmul %1568, %1031  : f32
    %1645 = llvm.fadd %1643, %1644  : f32
    %1646 = llvm.fmul %1582, %1045  : f32
    %1647 = llvm.fadd %1645, %1646  : f32
    %1648 = llvm.fmul %1590, %1053  : f32
    %1649 = llvm.fadd %1647, %1648  : f32
    %1650 = llvm.fmul %1598, %1061  : f32
    %1651 = llvm.fadd %1649, %1650  : f32
    %1652 = llvm.fmul %1606, %1069  : f32
    %1653 = llvm.fadd %1651, %1652  : f32
    %1654 = llvm.fmul %1614, %1077  : f32
    %1655 = llvm.fadd %1653, %1654  : f32
    %1656 = llvm.fmul %1622, %1085  : f32
    %1657 = llvm.fadd %1655, %1656  : f32
    %1658 = llvm.fmul %1630, %1093  : f32
    %1659 = llvm.fadd %1657, %1658  : f32
    %1660 = llvm.mul %10, %5  : i64
    %1661 = llvm.mul %3, %7  : i64
    %1662 = llvm.add %1660, %1661  : i64
    %1663 = llvm.add %1662, %9  : i64
    %1664 = llvm.getelementptr %726[%1663] : (!llvm.ptr<f32>, i64) -> !llvm.ptr<f32>
    llvm.store %1659, %1664 : !llvm.ptr<f32>
    %1665 = llvm.mul %10, %5  : i64
    %1666 = llvm.mul %3, %7  : i64
    %1667 = llvm.add %1665, %1666  : i64
    %1668 = llvm.add %1667, %4  : i64
    %1669 = llvm.getelementptr %726[%1668] : (!llvm.ptr<f32>, i64) -> !llvm.ptr<f32>
    %1670 = llvm.load %1669 : !llvm.ptr<f32>
    %1671 = llvm.fmul %1568, %1106  : f32
    %1672 = llvm.fadd %1670, %1671  : f32
    %1673 = llvm.fmul %1582, %1120  : f32
    %1674 = llvm.fadd %1672, %1673  : f32
    %1675 = llvm.fmul %1590, %1128  : f32
    %1676 = llvm.fadd %1674, %1675  : f32
    %1677 = llvm.fmul %1598, %1136  : f32
    %1678 = llvm.fadd %1676, %1677  : f32
    %1679 = llvm.fmul %1606, %1144  : f32
    %1680 = llvm.fadd %1678, %1679  : f32
    %1681 = llvm.fmul %1614, %1152  : f32
    %1682 = llvm.fadd %1680, %1681  : f32
    %1683 = llvm.fmul %1622, %1160  : f32
    %1684 = llvm.fadd %1682, %1683  : f32
    %1685 = llvm.fmul %1630, %1168  : f32
    %1686 = llvm.fadd %1684, %1685  : f32
    %1687 = llvm.mul %10, %5  : i64
    %1688 = llvm.mul %3, %7  : i64
    %1689 = llvm.add %1687, %1688  : i64
    %1690 = llvm.add %1689, %4  : i64
    %1691 = llvm.getelementptr %726[%1690] : (!llvm.ptr<f32>, i64) -> !llvm.ptr<f32>
    llvm.store %1686, %1691 : !llvm.ptr<f32>
    %1692 = llvm.mul %10, %5  : i64
    %1693 = llvm.mul %3, %7  : i64
    %1694 = llvm.add %1692, %1693  : i64
    %1695 = llvm.add %1694, %3  : i64
    %1696 = llvm.getelementptr %726[%1695] : (!llvm.ptr<f32>, i64) -> !llvm.ptr<f32>
    %1697 = llvm.load %1696 : !llvm.ptr<f32>
    %1698 = llvm.fmul %1568, %1181  : f32
    %1699 = llvm.fadd %1697, %1698  : f32
    %1700 = llvm.fmul %1582, %1195  : f32
    %1701 = llvm.fadd %1699, %1700  : f32
    %1702 = llvm.fmul %1590, %1203  : f32
    %1703 = llvm.fadd %1701, %1702  : f32
    %1704 = llvm.fmul %1598, %1211  : f32
    %1705 = llvm.fadd %1703, %1704  : f32
    %1706 = llvm.fmul %1606, %1219  : f32
    %1707 = llvm.fadd %1705, %1706  : f32
    %1708 = llvm.fmul %1614, %1227  : f32
    %1709 = llvm.fadd %1707, %1708  : f32
    %1710 = llvm.fmul %1622, %1235  : f32
    %1711 = llvm.fadd %1709, %1710  : f32
    %1712 = llvm.fmul %1630, %1243  : f32
    %1713 = llvm.fadd %1711, %1712  : f32
    %1714 = llvm.mul %10, %5  : i64
    %1715 = llvm.mul %3, %7  : i64
    %1716 = llvm.add %1714, %1715  : i64
    %1717 = llvm.add %1716, %3  : i64
    %1718 = llvm.getelementptr %726[%1717] : (!llvm.ptr<f32>, i64) -> !llvm.ptr<f32>
    llvm.store %1713, %1718 : !llvm.ptr<f32>
    %1719 = llvm.mul %10, %5  : i64
    %1720 = llvm.mul %10, %7  : i64
    %1721 = llvm.add %1719, %1720  : i64
    %1722 = llvm.add %1721, %10  : i64
    %1723 = llvm.getelementptr %726[%1722] : (!llvm.ptr<f32>, i64) -> !llvm.ptr<f32>
    %1724 = llvm.load %1723 : !llvm.ptr<f32>
    %1725 = llvm.mul %10, %5  : i64
    %1726 = llvm.mul %10, %7  : i64
    %1727 = llvm.add %1725, %1726  : i64
    %1728 = llvm.add %1727, %10  : i64
    %1729 = llvm.getelementptr %arg2[%1728] : (!llvm.ptr<f32>, i64) -> !llvm.ptr<f32>
    llvm.store %1724, %1729 : !llvm.ptr<f32>
    %1730 = llvm.mul %10, %5  : i64
    %1731 = llvm.mul %10, %7  : i64
    %1732 = llvm.add %1730, %1731  : i64
    %1733 = llvm.add %1732, %9  : i64
    %1734 = llvm.getelementptr %726[%1733] : (!llvm.ptr<f32>, i64) -> !llvm.ptr<f32>
    %1735 = llvm.load %1734 : !llvm.ptr<f32>
    %1736 = llvm.mul %10, %5  : i64
    %1737 = llvm.mul %10, %7  : i64
    %1738 = llvm.add %1736, %1737  : i64
    %1739 = llvm.add %1738, %9  : i64
    %1740 = llvm.getelementptr %arg2[%1739] : (!llvm.ptr<f32>, i64) -> !llvm.ptr<f32>
    llvm.store %1735, %1740 : !llvm.ptr<f32>
    %1741 = llvm.mul %10, %5  : i64
    %1742 = llvm.mul %10, %7  : i64
    %1743 = llvm.add %1741, %1742  : i64
    %1744 = llvm.add %1743, %4  : i64
    %1745 = llvm.getelementptr %726[%1744] : (!llvm.ptr<f32>, i64) -> !llvm.ptr<f32>
    %1746 = llvm.load %1745 : !llvm.ptr<f32>
    %1747 = llvm.mul %10, %5  : i64
    %1748 = llvm.mul %10, %7  : i64
    %1749 = llvm.add %1747, %1748  : i64
    %1750 = llvm.add %1749, %4  : i64
    %1751 = llvm.getelementptr %arg2[%1750] : (!llvm.ptr<f32>, i64) -> !llvm.ptr<f32>
    llvm.store %1746, %1751 : !llvm.ptr<f32>
    %1752 = llvm.mul %10, %5  : i64
    %1753 = llvm.mul %10, %7  : i64
    %1754 = llvm.add %1752, %1753  : i64
    %1755 = llvm.add %1754, %3  : i64
    %1756 = llvm.getelementptr %726[%1755] : (!llvm.ptr<f32>, i64) -> !llvm.ptr<f32>
    %1757 = llvm.load %1756 : !llvm.ptr<f32>
    %1758 = llvm.mul %10, %5  : i64
    %1759 = llvm.mul %10, %7  : i64
    %1760 = llvm.add %1758, %1759  : i64
    %1761 = llvm.add %1760, %3  : i64
    %1762 = llvm.getelementptr %arg2[%1761] : (!llvm.ptr<f32>, i64) -> !llvm.ptr<f32>
    llvm.store %1757, %1762 : !llvm.ptr<f32>
    %1763 = llvm.mul %10, %5  : i64
    %1764 = llvm.mul %9, %7  : i64
    %1765 = llvm.add %1763, %1764  : i64
    %1766 = llvm.add %1765, %10  : i64
    %1767 = llvm.getelementptr %726[%1766] : (!llvm.ptr<f32>, i64) -> !llvm.ptr<f32>
    %1768 = llvm.load %1767 : !llvm.ptr<f32>
    %1769 = llvm.mul %10, %5  : i64
    %1770 = llvm.mul %9, %7  : i64
    %1771 = llvm.add %1769, %1770  : i64
    %1772 = llvm.add %1771, %10  : i64
    %1773 = llvm.getelementptr %arg2[%1772] : (!llvm.ptr<f32>, i64) -> !llvm.ptr<f32>
    llvm.store %1768, %1773 : !llvm.ptr<f32>
    %1774 = llvm.mul %10, %5  : i64
    %1775 = llvm.mul %9, %7  : i64
    %1776 = llvm.add %1774, %1775  : i64
    %1777 = llvm.add %1776, %9  : i64
    %1778 = llvm.getelementptr %726[%1777] : (!llvm.ptr<f32>, i64) -> !llvm.ptr<f32>
    %1779 = llvm.load %1778 : !llvm.ptr<f32>
    %1780 = llvm.mul %10, %5  : i64
    %1781 = llvm.mul %9, %7  : i64
    %1782 = llvm.add %1780, %1781  : i64
    %1783 = llvm.add %1782, %9  : i64
    %1784 = llvm.getelementptr %arg2[%1783] : (!llvm.ptr<f32>, i64) -> !llvm.ptr<f32>
    llvm.store %1779, %1784 : !llvm.ptr<f32>
    %1785 = llvm.mul %10, %5  : i64
    %1786 = llvm.mul %9, %7  : i64
    %1787 = llvm.add %1785, %1786  : i64
    %1788 = llvm.add %1787, %4  : i64
    %1789 = llvm.getelementptr %726[%1788] : (!llvm.ptr<f32>, i64) -> !llvm.ptr<f32>
    %1790 = llvm.load %1789 : !llvm.ptr<f32>
    %1791 = llvm.mul %10, %5  : i64
    %1792 = llvm.mul %9, %7  : i64
    %1793 = llvm.add %1791, %1792  : i64
    %1794 = llvm.add %1793, %4  : i64
    %1795 = llvm.getelementptr %arg2[%1794] : (!llvm.ptr<f32>, i64) -> !llvm.ptr<f32>
    llvm.store %1790, %1795 : !llvm.ptr<f32>
    %1796 = llvm.mul %10, %5  : i64
    %1797 = llvm.mul %9, %7  : i64
    %1798 = llvm.add %1796, %1797  : i64
    %1799 = llvm.add %1798, %3  : i64
    %1800 = llvm.getelementptr %726[%1799] : (!llvm.ptr<f32>, i64) -> !llvm.ptr<f32>
    %1801 = llvm.load %1800 : !llvm.ptr<f32>
    %1802 = llvm.mul %10, %5  : i64
    %1803 = llvm.mul %9, %7  : i64
    %1804 = llvm.add %1802, %1803  : i64
    %1805 = llvm.add %1804, %3  : i64
    %1806 = llvm.getelementptr %arg2[%1805] : (!llvm.ptr<f32>, i64) -> !llvm.ptr<f32>
    llvm.store %1801, %1806 : !llvm.ptr<f32>
    %1807 = llvm.mul %10, %5  : i64
    %1808 = llvm.mul %4, %7  : i64
    %1809 = llvm.add %1807, %1808  : i64
    %1810 = llvm.add %1809, %10  : i64
    %1811 = llvm.getelementptr %726[%1810] : (!llvm.ptr<f32>, i64) -> !llvm.ptr<f32>
    %1812 = llvm.load %1811 : !llvm.ptr<f32>
    %1813 = llvm.mul %10, %5  : i64
    %1814 = llvm.mul %4, %7  : i64
    %1815 = llvm.add %1813, %1814  : i64
    %1816 = llvm.add %1815, %10  : i64
    %1817 = llvm.getelementptr %arg2[%1816] : (!llvm.ptr<f32>, i64) -> !llvm.ptr<f32>
    llvm.store %1812, %1817 : !llvm.ptr<f32>
    %1818 = llvm.mul %10, %5  : i64
    %1819 = llvm.mul %4, %7  : i64
    %1820 = llvm.add %1818, %1819  : i64
    %1821 = llvm.add %1820, %9  : i64
    %1822 = llvm.getelementptr %726[%1821] : (!llvm.ptr<f32>, i64) -> !llvm.ptr<f32>
    %1823 = llvm.load %1822 : !llvm.ptr<f32>
    %1824 = llvm.mul %10, %5  : i64
    %1825 = llvm.mul %4, %7  : i64
    %1826 = llvm.add %1824, %1825  : i64
    %1827 = llvm.add %1826, %9  : i64
    %1828 = llvm.getelementptr %arg2[%1827] : (!llvm.ptr<f32>, i64) -> !llvm.ptr<f32>
    llvm.store %1823, %1828 : !llvm.ptr<f32>
    %1829 = llvm.mul %10, %5  : i64
    %1830 = llvm.mul %4, %7  : i64
    %1831 = llvm.add %1829, %1830  : i64
    %1832 = llvm.add %1831, %4  : i64
    %1833 = llvm.getelementptr %726[%1832] : (!llvm.ptr<f32>, i64) -> !llvm.ptr<f32>
    %1834 = llvm.load %1833 : !llvm.ptr<f32>
    %1835 = llvm.mul %10, %5  : i64
    %1836 = llvm.mul %4, %7  : i64
    %1837 = llvm.add %1835, %1836  : i64
    %1838 = llvm.add %1837, %4  : i64
    %1839 = llvm.getelementptr %arg2[%1838] : (!llvm.ptr<f32>, i64) -> !llvm.ptr<f32>
    llvm.store %1834, %1839 : !llvm.ptr<f32>
    %1840 = llvm.mul %10, %5  : i64
    %1841 = llvm.mul %4, %7  : i64
    %1842 = llvm.add %1840, %1841  : i64
    %1843 = llvm.add %1842, %3  : i64
    %1844 = llvm.getelementptr %726[%1843] : (!llvm.ptr<f32>, i64) -> !llvm.ptr<f32>
    %1845 = llvm.load %1844 : !llvm.ptr<f32>
    %1846 = llvm.mul %10, %5  : i64
    %1847 = llvm.mul %4, %7  : i64
    %1848 = llvm.add %1846, %1847  : i64
    %1849 = llvm.add %1848, %3  : i64
    %1850 = llvm.getelementptr %arg2[%1849] : (!llvm.ptr<f32>, i64) -> !llvm.ptr<f32>
    llvm.store %1845, %1850 : !llvm.ptr<f32>
    %1851 = llvm.mul %10, %5  : i64
    %1852 = llvm.mul %3, %7  : i64
    %1853 = llvm.add %1851, %1852  : i64
    %1854 = llvm.add %1853, %10  : i64
    %1855 = llvm.getelementptr %726[%1854] : (!llvm.ptr<f32>, i64) -> !llvm.ptr<f32>
    %1856 = llvm.load %1855 : !llvm.ptr<f32>
    %1857 = llvm.mul %10, %5  : i64
    %1858 = llvm.mul %3, %7  : i64
    %1859 = llvm.add %1857, %1858  : i64
    %1860 = llvm.add %1859, %10  : i64
    %1861 = llvm.getelementptr %arg2[%1860] : (!llvm.ptr<f32>, i64) -> !llvm.ptr<f32>
    llvm.store %1856, %1861 : !llvm.ptr<f32>
    %1862 = llvm.mul %10, %5  : i64
    %1863 = llvm.mul %3, %7  : i64
    %1864 = llvm.add %1862, %1863  : i64
    %1865 = llvm.add %1864, %9  : i64
    %1866 = llvm.getelementptr %726[%1865] : (!llvm.ptr<f32>, i64) -> !llvm.ptr<f32>
    %1867 = llvm.load %1866 : !llvm.ptr<f32>
    %1868 = llvm.mul %10, %5  : i64
    %1869 = llvm.mul %3, %7  : i64
    %1870 = llvm.add %1868, %1869  : i64
    %1871 = llvm.add %1870, %9  : i64
    %1872 = llvm.getelementptr %arg2[%1871] : (!llvm.ptr<f32>, i64) -> !llvm.ptr<f32>
    llvm.store %1867, %1872 : !llvm.ptr<f32>
    %1873 = llvm.mul %10, %5  : i64
    %1874 = llvm.mul %3, %7  : i64
    %1875 = llvm.add %1873, %1874  : i64
    %1876 = llvm.add %1875, %4  : i64
    %1877 = llvm.getelementptr %726[%1876] : (!llvm.ptr<f32>, i64) -> !llvm.ptr<f32>
    %1878 = llvm.load %1877 : !llvm.ptr<f32>
    %1879 = llvm.mul %10, %5  : i64
    %1880 = llvm.mul %3, %7  : i64
    %1881 = llvm.add %1879, %1880  : i64
    %1882 = llvm.add %1881, %4  : i64
    %1883 = llvm.getelementptr %arg2[%1882] : (!llvm.ptr<f32>, i64) -> !llvm.ptr<f32>
    llvm.store %1878, %1883 : !llvm.ptr<f32>
    %1884 = llvm.mul %10, %5  : i64
    %1885 = llvm.mul %3, %7  : i64
    %1886 = llvm.add %1884, %1885  : i64
    %1887 = llvm.add %1886, %3  : i64
    %1888 = llvm.getelementptr %726[%1887] : (!llvm.ptr<f32>, i64) -> !llvm.ptr<f32>
    %1889 = llvm.load %1888 : !llvm.ptr<f32>
    %1890 = llvm.mul %10, %5  : i64
    %1891 = llvm.mul %3, %7  : i64
    %1892 = llvm.add %1890, %1891  : i64
    %1893 = llvm.add %1892, %3  : i64
    %1894 = llvm.getelementptr %arg2[%1893] : (!llvm.ptr<f32>, i64) -> !llvm.ptr<f32>
    llvm.store %1889, %1894 : !llvm.ptr<f32>
    llvm.return
  }
}


