// -----// IR Dump After SodaKernelOutlining (soda-outline-bambu-code) //----- //
#map = affine_map<(d0, d1, d2, d3) -> (0)>
#map1 = affine_map<(d0, d1, d2, d3) -> (d0, d1, d2, d3)>
#map2 = affine_map<(d0, d1, d2, d3) -> (d0, d1, d2, 0)>
#map3 = affine_map<(d0, d1) -> (d0, d1)>
#map4 = affine_map<(d0, d1) -> (d0, 0)>
module attributes {soda.container_module, tf.versions = {bad_consumers = [], min_consumer = 0 : i32, producer = 1882 : i32}} {
  memref.global "private" constant @__constant_1x5x5x1xf32 : memref<1x5x5x1xf32> = dense<[[[[… > {alignment = 64 : i64}
  memref.global "private" constant @__constant_1xf32 : memref<1xf32> = dense<0.000000e+00> {alignment = 64 : i64}
  memref.global "private" constant @__constant_1x256x8xf32 : memref<1x256x8xf32> = dense<"…"> {alignment = 64 : i64}
  memref.global "private" constant @__constant_1x8x4xf32 : memref<1x8x4xf32> = dense<[[[… > {alignment = 64 : i64}
  memref.global "private" constant @__constant_1x4x2xf32 : memref<1x4x2xf32> = dense<[[[-0.980995178, -0.838457584], [0.45938921, 0.0730445384], [-0.741803885, 0.636193752], [0.272650242, 0.155854464]]]> {alignment = 64 : i64}
  func.func @main(%arg0: memref<4x32x32x1xf32>, %arg1: memref<4x2xf32>) attributes {tf.entry_function = {control_outputs = "", inputs = "x1", outputs = "Identity"}} {
    %cst = arith.constant 0.000000e+00 : f32
    %cst_0 = arith.constant 1.000000e+00 : f32
    %cst_1 = arith.constant -3.40282347E+38 : f32
    %cst_2 = arith.constant 3.40282347E+38 : f32
    %0 = memref.get_global @__constant_1x4x2xf32 : memref<1x4x2xf32>
    %1 = memref.get_global @__constant_1x8x4xf32 : memref<1x8x4xf32>
    %2 = memref.get_global @__constant_1x256x8xf32 : memref<1x256x8xf32>
    %3 = memref.get_global @__constant_1xf32 : memref<1xf32>
    %4 = memref.get_global @__constant_1x5x5x1xf32 : memref<1x5x5x1xf32>
    %alloc = memref.alloc() {alignment = 64 : i64} : memref<4x35x35x1xf32>
    linalg.fill ins(%cst : f32) outs(%alloc : memref<4x35x35x1xf32>)
    %subview = memref.subview %alloc[0, 1, 1, 0] [4, 32, 32, 1] [1, 1, 1, 1] : memref<4x35x35x1xf32> to memref<4x32x32x1xf32, strided<[1225, 35, 1, 1], offset: 36>>
    memref.copy %arg0, %subview : memref<4x32x32x1xf32> to memref<4x32x32x1xf32, strided<[1225, 35, 1, 1], offset: 36>>
    %alloc_3 = memref.alloc() {alignment = 64 : i64} : memref<4x16x16x1xf32>
    linalg.generic {indexing_maps = [#map, #map1], iterator_types = ["parallel", "parallel", "parallel", "parallel"]} ins(%3 : memref<1xf32>) outs(%alloc_3 : memref<4x16x16x1xf32>) {
    ^bb0(%in: f32, %out: f32):
      linalg.yield %in : f32
    }
    linalg.conv_2d_nhwc_fhwc {dilations = dense<1> : tensor<2xi64>, strides = dense<2> : tensor<2xi64>} ins(%alloc, %4 : memref<4x35x35x1xf32>, memref<1x5x5x1xf32>) outs(%alloc_3 : memref<4x16x16x1xf32>)
    %alloc_4 = memref.alloc() {alignment = 64 : i64} : memref<4x16x16x1xf32>
    linalg.generic {indexing_maps = [#map2, #map1], iterator_types = ["parallel", "parallel", "parallel", "parallel"]} ins(%alloc_3 : memref<4x16x16x1xf32>) outs(%alloc_4 : memref<4x16x16x1xf32>) {
    ^bb0(%in: f32, %out: f32):
      %5 = arith.minimumf %in, %cst_2 : f32
      %6 = arith.maximumf %5, %cst : f32
      linalg.yield %6 : f32
    }
    %collapse_shape = memref.collapse_shape %alloc_4 [[0], [1, 2, 3]] : memref<4x16x16x1xf32> into memref<4x256xf32>
    %expand_shape = memref.expand_shape %collapse_shape [[0, 1], [2]] output_shape [1, 4, 256] : memref<4x256xf32> into memref<1x4x256xf32>
    %alloc_5 = memref.alloc() {alignment = 64 : i64} : memref<1x4x8xf32>
    linalg.fill ins(%cst : f32) outs(%alloc_5 : memref<1x4x8xf32>)
    linalg.batch_matmul ins(%expand_shape, %2 : memref<1x4x256xf32>, memref<1x256x8xf32>) outs(%alloc_5 : memref<1x4x8xf32>)
    %collapse_shape_6 = memref.collapse_shape %alloc_5 [[0, 1], [2]] : memref<1x4x8xf32> into memref<4x8xf32>
    %alloc_7 = memref.alloc() {alignment = 64 : i64} : memref<4x8xf32>
    linalg.generic {indexing_maps = [#map3, #map3], iterator_types = ["parallel", "parallel"]} ins(%collapse_shape_6 : memref<4x8xf32>) outs(%alloc_7 : memref<4x8xf32>) {
    ^bb0(%in: f32, %out: f32):
      %5 = arith.minimumf %in, %cst_2 : f32
      %6 = arith.maximumf %5, %cst : f32
      linalg.yield %6 : f32
    }
    %expand_shape_8 = memref.expand_shape %alloc_7 [[0, 1], [2]] output_shape [1, 4, 8] : memref<4x8xf32> into memref<1x4x8xf32>
    %alloc_9 = memref.alloc() {alignment = 64 : i64} : memref<1x4x4xf32>
    linalg.fill ins(%cst : f32) outs(%alloc_9 : memref<1x4x4xf32>)
    soda.launch_func  @main_kernel::@main_kernel args(%expand_shape_8 : memref<1x4x8xf32>, %1 : memref<1x8x4xf32>, %alloc_9 : memref<1x4x4xf32>)
    %collapse_shape_10 = memref.collapse_shape %alloc_9 [[0, 1], [2]] : memref<1x4x4xf32> into memref<4x4xf32>
    %alloc_11 = memref.alloc() {alignment = 64 : i64} : memref<4x4xf32>
    linalg.generic {indexing_maps = [#map3, #map3], iterator_types = ["parallel", "parallel"]} ins(%collapse_shape_10 : memref<4x4xf32>) outs(%alloc_11 : memref<4x4xf32>) {
    ^bb0(%in: f32, %out: f32):
      %5 = arith.minimumf %in, %cst_2 : f32
      %6 = arith.maximumf %5, %cst : f32
      linalg.yield %6 : f32
    }
    %expand_shape_12 = memref.expand_shape %alloc_11 [[0, 1], [2]] output_shape [1, 4, 4] : memref<4x4xf32> into memref<1x4x4xf32>
    %alloc_13 = memref.alloc() {alignment = 64 : i64} : memref<1x4x2xf32>
    linalg.fill ins(%cst : f32) outs(%alloc_13 : memref<1x4x2xf32>)
    linalg.batch_matmul ins(%expand_shape_12, %0 : memref<1x4x4xf32>, memref<1x4x2xf32>) outs(%alloc_13 : memref<1x4x2xf32>)
    %collapse_shape_14 = memref.collapse_shape %alloc_13 [[0, 1], [2]] : memref<1x4x2xf32> into memref<4x2xf32>
    %alloc_15 = memref.alloc() {alignment = 64 : i64} : memref<4xf32>
    linalg.fill ins(%cst_1 : f32) outs(%alloc_15 : memref<4xf32>)
    linalg.reduce ins(%collapse_shape_14 : memref<4x2xf32>) outs(%alloc_15 : memref<4xf32>) dimensions = [1] 
      (%in: f32, %init: f32) {
        %5 = arith.maximumf %in, %init : f32
        linalg.yield %5 : f32
      }
    %expand_shape_16 = memref.expand_shape %alloc_15 [[0, 1]] output_shape [4, 1] : memref<4xf32> into memref<4x1xf32>
    %alloc_17 = memref.alloc() {alignment = 64 : i64} : memref<4x2xf32>
    linalg.generic {indexing_maps = [#map3, #map4, #map3], iterator_types = ["parallel", "parallel"]} ins(%collapse_shape_14, %expand_shape_16 : memref<4x2xf32>, memref<4x1xf32>) outs(%alloc_17 : memref<4x2xf32>) {
    ^bb0(%in: f32, %in_23: f32, %out: f32):
      %5 = arith.subf %in, %in_23 : f32
      linalg.yield %5 : f32
    }
    %alloc_18 = memref.alloc() {alignment = 64 : i64} : memref<4x2xf32>
    linalg.generic {indexing_maps = [#map3, #map3], iterator_types = ["parallel", "parallel"]} ins(%alloc_17 : memref<4x2xf32>) outs(%alloc_18 : memref<4x2xf32>) {
    ^bb0(%in: f32, %out: f32):
      %5 = math.exp %in : f32
      linalg.yield %5 : f32
    }
    %alloc_19 = memref.alloc() {alignment = 64 : i64} : memref<4xf32>
    linalg.fill ins(%cst : f32) outs(%alloc_19 : memref<4xf32>)
    linalg.reduce ins(%alloc_18 : memref<4x2xf32>) outs(%alloc_19 : memref<4xf32>) dimensions = [1] 
      (%in: f32, %init: f32) {
        %5 = arith.addf %in, %init : f32
        linalg.yield %5 : f32
      }
    %expand_shape_20 = memref.expand_shape %alloc_19 [[0, 1]] output_shape [4, 1] : memref<4xf32> into memref<4x1xf32>
    %alloc_21 = memref.alloc() {alignment = 64 : i64} : memref<4x1xf32>
    linalg.generic {indexing_maps = [#map4, #map3], iterator_types = ["parallel", "parallel"]} ins(%expand_shape_20 : memref<4x1xf32>) outs(%alloc_21 : memref<4x1xf32>) {
    ^bb0(%in: f32, %out: f32):
      %5 = arith.divf %cst_0, %in : f32
      linalg.yield %5 : f32
    }
    %alloc_22 = memref.alloc() {alignment = 64 : i64} : memref<4x2xf32>
    linalg.generic {indexing_maps = [#map3, #map4, #map3], iterator_types = ["parallel", "parallel"]} ins(%alloc_18, %alloc_21 : memref<4x2xf32>, memref<4x1xf32>) outs(%alloc_22 : memref<4x2xf32>) {
    ^bb0(%in: f32, %in_23: f32, %out: f32):
      %5 = arith.mulf %in, %in_23 : f32
      linalg.yield %5 : f32
    }
    memref.copy %alloc_22, %arg1 : memref<4x2xf32> to memref<4x2xf32>
    return
  }
  soda.module @main_kernel {
    soda.func @main_kernel(%arg0: memref<1x4x8xf32>, %arg1: memref<1x8x4xf32>, %arg2: memref<1x4x4xf32>) kernel {
      cf.br ^bb1
    ^bb1:  // pred: ^bb0
      linalg.batch_matmul ins(%arg0, %arg1 : memref<1x4x8xf32>, memref<1x8x4xf32>) outs(%arg2 : memref<1x4x4xf32>)
      soda.return
    }
  }
}


// -----// IR Dump After TestArgumentsToCTestbench (soda-extract-arguments-to-c-testbench) //----- //
#map = affine_map<(d0, d1, d2, d3) -> (0)>
#map1 = affine_map<(d0, d1, d2, d3) -> (d0, d1, d2, d3)>
#map2 = affine_map<(d0, d1, d2, d3) -> (d0, d1, d2, 0)>
#map3 = affine_map<(d0, d1) -> (d0, d1)>
#map4 = affine_map<(d0, d1) -> (d0, 0)>
module attributes {soda.container_module, tf.versions = {bad_consumers = [], min_consumer = 0 : i32, producer = 1882 : i32}} {
  memref.global "private" constant @__constant_1x5x5x1xf32 : memref<1x5x5x1xf32> = dense<[[[[… > {alignment = 64 : i64}
  memref.global "private" constant @__constant_1xf32 : memref<1xf32> = dense<0.000000e+00> {alignment = 64 : i64}
  memref.global "private" constant @__constant_1x256x8xf32 : memref<1x256x8xf32> = dense<"…"> {alignment = 64 : i64}
  memref.global "private" constant @__constant_1x8x4xf32 : memref<1x8x4xf32> = dense<[[[… > {alignment = 64 : i64}
  memref.global "private" constant @__constant_1x4x2xf32 : memref<1x4x2xf32> = dense<[[[-0.980995178, -0.838457584], [0.45938921, 0.0730445384], [-0.741803885, 0.636193752], [0.272650242, 0.155854464]]]> {alignment = 64 : i64}
  func.func @main(%arg0: memref<4x32x32x1xf32>, %arg1: memref<4x2xf32>) attributes {tf.entry_function = {control_outputs = "", inputs = "x1", outputs = "Identity"}} {
    %cst = arith.constant 0.000000e+00 : f32
    %cst_0 = arith.constant 1.000000e+00 : f32
    %cst_1 = arith.constant -3.40282347E+38 : f32
    %cst_2 = arith.constant 3.40282347E+38 : f32
    %0 = memref.get_global @__constant_1x4x2xf32 : memref<1x4x2xf32>
    %1 = memref.get_global @__constant_1x8x4xf32 : memref<1x8x4xf32>
    %2 = memref.get_global @__constant_1x256x8xf32 : memref<1x256x8xf32>
    %3 = memref.get_global @__constant_1xf32 : memref<1xf32>
    %4 = memref.get_global @__constant_1x5x5x1xf32 : memref<1x5x5x1xf32>
    %alloc = memref.alloc() {alignment = 64 : i64} : memref<4x35x35x1xf32>
    linalg.fill ins(%cst : f32) outs(%alloc : memref<4x35x35x1xf32>)
    %subview = memref.subview %alloc[0, 1, 1, 0] [4, 32, 32, 1] [1, 1, 1, 1] : memref<4x35x35x1xf32> to memref<4x32x32x1xf32, strided<[1225, 35, 1, 1], offset: 36>>
    memref.copy %arg0, %subview : memref<4x32x32x1xf32> to memref<4x32x32x1xf32, strided<[1225, 35, 1, 1], offset: 36>>
    %alloc_3 = memref.alloc() {alignment = 64 : i64} : memref<4x16x16x1xf32>
    linalg.generic {indexing_maps = [#map, #map1], iterator_types = ["parallel", "parallel", "parallel", "parallel"]} ins(%3 : memref<1xf32>) outs(%alloc_3 : memref<4x16x16x1xf32>) {
    ^bb0(%in: f32, %out: f32):
      linalg.yield %in : f32
    }
    linalg.conv_2d_nhwc_fhwc {dilations = dense<1> : tensor<2xi64>, strides = dense<2> : tensor<2xi64>} ins(%alloc, %4 : memref<4x35x35x1xf32>, memref<1x5x5x1xf32>) outs(%alloc_3 : memref<4x16x16x1xf32>)
    %alloc_4 = memref.alloc() {alignment = 64 : i64} : memref<4x16x16x1xf32>
    linalg.generic {indexing_maps = [#map2, #map1], iterator_types = ["parallel", "parallel", "parallel", "parallel"]} ins(%alloc_3 : memref<4x16x16x1xf32>) outs(%alloc_4 : memref<4x16x16x1xf32>) {
    ^bb0(%in: f32, %out: f32):
      %5 = arith.minimumf %in, %cst_2 : f32
      %6 = arith.maximumf %5, %cst : f32
      linalg.yield %6 : f32
    }
    %collapse_shape = memref.collapse_shape %alloc_4 [[0], [1, 2, 3]] : memref<4x16x16x1xf32> into memref<4x256xf32>
    %expand_shape = memref.expand_shape %collapse_shape [[0, 1], [2]] output_shape [1, 4, 256] : memref<4x256xf32> into memref<1x4x256xf32>
    %alloc_5 = memref.alloc() {alignment = 64 : i64} : memref<1x4x8xf32>
    linalg.fill ins(%cst : f32) outs(%alloc_5 : memref<1x4x8xf32>)
    linalg.batch_matmul ins(%expand_shape, %2 : memref<1x4x256xf32>, memref<1x256x8xf32>) outs(%alloc_5 : memref<1x4x8xf32>)
    %collapse_shape_6 = memref.collapse_shape %alloc_5 [[0, 1], [2]] : memref<1x4x8xf32> into memref<4x8xf32>
    %alloc_7 = memref.alloc() {alignment = 64 : i64} : memref<4x8xf32>
    linalg.generic {indexing_maps = [#map3, #map3], iterator_types = ["parallel", "parallel"]} ins(%collapse_shape_6 : memref<4x8xf32>) outs(%alloc_7 : memref<4x8xf32>) {
    ^bb0(%in: f32, %out: f32):
      %5 = arith.minimumf %in, %cst_2 : f32
      %6 = arith.maximumf %5, %cst : f32
      linalg.yield %6 : f32
    }
    %expand_shape_8 = memref.expand_shape %alloc_7 [[0, 1], [2]] output_shape [1, 4, 8] : memref<4x8xf32> into memref<1x4x8xf32>
    %alloc_9 = memref.alloc() {alignment = 64 : i64} : memref<1x4x4xf32>
    linalg.fill ins(%cst : f32) outs(%alloc_9 : memref<1x4x4xf32>)
    soda.launch_func  @main_kernel::@main_kernel args(%expand_shape_8 : memref<1x4x8xf32>, %1 : memref<1x8x4xf32>, %alloc_9 : memref<1x4x4xf32>)
    %collapse_shape_10 = memref.collapse_shape %alloc_9 [[0, 1], [2]] : memref<1x4x4xf32> into memref<4x4xf32>
    %alloc_11 = memref.alloc() {alignment = 64 : i64} : memref<4x4xf32>
    linalg.generic {indexing_maps = [#map3, #map3], iterator_types = ["parallel", "parallel"]} ins(%collapse_shape_10 : memref<4x4xf32>) outs(%alloc_11 : memref<4x4xf32>) {
    ^bb0(%in: f32, %out: f32):
      %5 = arith.minimumf %in, %cst_2 : f32
      %6 = arith.maximumf %5, %cst : f32
      linalg.yield %6 : f32
    }
    %expand_shape_12 = memref.expand_shape %alloc_11 [[0, 1], [2]] output_shape [1, 4, 4] : memref<4x4xf32> into memref<1x4x4xf32>
    %alloc_13 = memref.alloc() {alignment = 64 : i64} : memref<1x4x2xf32>
    linalg.fill ins(%cst : f32) outs(%alloc_13 : memref<1x4x2xf32>)
    linalg.batch_matmul ins(%expand_shape_12, %0 : memref<1x4x4xf32>, memref<1x4x2xf32>) outs(%alloc_13 : memref<1x4x2xf32>)
    %collapse_shape_14 = memref.collapse_shape %alloc_13 [[0, 1], [2]] : memref<1x4x2xf32> into memref<4x2xf32>
    %alloc_15 = memref.alloc() {alignment = 64 : i64} : memref<4xf32>
    linalg.fill ins(%cst_1 : f32) outs(%alloc_15 : memref<4xf32>)
    linalg.reduce ins(%collapse_shape_14 : memref<4x2xf32>) outs(%alloc_15 : memref<4xf32>) dimensions = [1] 
      (%in: f32, %init: f32) {
        %5 = arith.maximumf %in, %init : f32
        linalg.yield %5 : f32
      }
    %expand_shape_16 = memref.expand_shape %alloc_15 [[0, 1]] output_shape [4, 1] : memref<4xf32> into memref<4x1xf32>
    %alloc_17 = memref.alloc() {alignment = 64 : i64} : memref<4x2xf32>
    linalg.generic {indexing_maps = [#map3, #map4, #map3], iterator_types = ["parallel", "parallel"]} ins(%collapse_shape_14, %expand_shape_16 : memref<4x2xf32>, memref<4x1xf32>) outs(%alloc_17 : memref<4x2xf32>) {
    ^bb0(%in: f32, %in_23: f32, %out: f32):
      %5 = arith.subf %in, %in_23 : f32
      linalg.yield %5 : f32
    }
    %alloc_18 = memref.alloc() {alignment = 64 : i64} : memref<4x2xf32>
    linalg.generic {indexing_maps = [#map3, #map3], iterator_types = ["parallel", "parallel"]} ins(%alloc_17 : memref<4x2xf32>) outs(%alloc_18 : memref<4x2xf32>) {
    ^bb0(%in: f32, %out: f32):
      %5 = math.exp %in : f32
      linalg.yield %5 : f32
    }
    %alloc_19 = memref.alloc() {alignment = 64 : i64} : memref<4xf32>
    linalg.fill ins(%cst : f32) outs(%alloc_19 : memref<4xf32>)
    linalg.reduce ins(%alloc_18 : memref<4x2xf32>) outs(%alloc_19 : memref<4xf32>) dimensions = [1] 
      (%in: f32, %init: f32) {
        %5 = arith.addf %in, %init : f32
        linalg.yield %5 : f32
      }
    %expand_shape_20 = memref.expand_shape %alloc_19 [[0, 1]] output_shape [4, 1] : memref<4xf32> into memref<4x1xf32>
    %alloc_21 = memref.alloc() {alignment = 64 : i64} : memref<4x1xf32>
    linalg.generic {indexing_maps = [#map4, #map3], iterator_types = ["parallel", "parallel"]} ins(%expand_shape_20 : memref<4x1xf32>) outs(%alloc_21 : memref<4x1xf32>) {
    ^bb0(%in: f32, %out: f32):
      %5 = arith.divf %cst_0, %in : f32
      linalg.yield %5 : f32
    }
    %alloc_22 = memref.alloc() {alignment = 64 : i64} : memref<4x2xf32>
    linalg.generic {indexing_maps = [#map3, #map4, #map3], iterator_types = ["parallel", "parallel"]} ins(%alloc_18, %alloc_21 : memref<4x2xf32>, memref<4x1xf32>) outs(%alloc_22 : memref<4x2xf32>) {
    ^bb0(%in: f32, %in_23: f32, %out: f32):
      %5 = arith.mulf %in, %in_23 : f32
      linalg.yield %5 : f32
    }
    memref.copy %alloc_22, %arg1 : memref<4x2xf32> to memref<4x2xf32>
    return
  }
  soda.module @main_kernel {
    soda.func @main_kernel(%arg0: memref<1x4x8xf32>, %arg1: memref<1x8x4xf32>, %arg2: memref<1x4x4xf32>) kernel {
      cf.br ^bb1
    ^bb1:  // pred: ^bb0
      linalg.batch_matmul ins(%arg0, %arg1 : memref<1x4x8xf32>, memref<1x8x4xf32>) outs(%arg2 : memref<1x4x4xf32>)
      soda.return
    }
  }
}


// -----// IR Dump After SodaKernelGeneration (soda-generate-bambu-accelcode) //----- //
module attributes {soda.bambu.container_module, soda.container_module, tf.versions = {bad_consumers = [], min_consumer = 0 : i32, producer = 1882 : i32}} {
  func.func @main_kernel(%arg0: memref<1x4x8xf32> {llvm.noalias}, %arg1: memref<1x8x4xf32> {llvm.noalias}, %arg2: memref<1x4x4xf32> {llvm.noalias}) {
    cf.br ^bb1
  ^bb1:  // pred: ^bb0
    linalg.batch_matmul ins(%arg0, %arg1 : memref<1x4x8xf32>, memref<1x8x4xf32>) outs(%arg2 : memref<1x4x4xf32>)
    return
  }
}


// -----// IR Dump After ConvertLinalgToAffineLoopsPass (convert-linalg-to-affine-loops) //----- //
module attributes {soda.bambu.container_module, soda.container_module, tf.versions = {bad_consumers = [], min_consumer = 0 : i32, producer = 1882 : i32}} {
  func.func @main_kernel(%arg0: memref<1x4x8xf32> {llvm.noalias}, %arg1: memref<1x8x4xf32> {llvm.noalias}, %arg2: memref<1x4x4xf32> {llvm.noalias}) {
    cf.br ^bb1
  ^bb1:  // pred: ^bb0
    affine.for %arg3 = 0 to 1 {
      affine.for %arg4 = 0 to 4 {
        affine.for %arg5 = 0 to 4 {
          affine.for %arg6 = 0 to 8 {
            %0 = affine.load %arg0[%arg3, %arg4, %arg6] : memref<1x4x8xf32>
            %1 = affine.load %arg1[%arg3, %arg6, %arg5] : memref<1x8x4xf32>
            %2 = affine.load %arg2[%arg3, %arg4, %arg5] : memref<1x4x4xf32>
            %3 = arith.mulf %0, %1 : f32
            %4 = arith.addf %2, %3 : f32
            affine.store %4, %arg2[%arg3, %arg4, %arg5] : memref<1x4x4xf32>
          }
        }
      }
    }
    return
  }
}


// -----// IR Dump After ExpandStridedMetadata (expand-strided-metadata) //----- //
module attributes {soda.bambu.container_module, soda.container_module, tf.versions = {bad_consumers = [], min_consumer = 0 : i32, producer = 1882 : i32}} {
  func.func @main_kernel(%arg0: memref<1x4x8xf32> {llvm.noalias}, %arg1: memref<1x8x4xf32> {llvm.noalias}, %arg2: memref<1x4x4xf32> {llvm.noalias}) {
    cf.br ^bb1
  ^bb1:  // pred: ^bb0
    affine.for %arg3 = 0 to 1 {
      affine.for %arg4 = 0 to 4 {
        affine.for %arg5 = 0 to 4 {
          affine.for %arg6 = 0 to 8 {
            %0 = affine.load %arg0[%arg3, %arg4, %arg6] : memref<1x4x8xf32>
            %1 = affine.load %arg1[%arg3, %arg6, %arg5] : memref<1x8x4xf32>
            %2 = affine.load %arg2[%arg3, %arg4, %arg5] : memref<1x4x4xf32>
            %3 = arith.mulf %0, %1 : f32
            %4 = arith.addf %2, %3 : f32
            affine.store %4, %arg2[%arg3, %arg4, %arg5] : memref<1x4x4xf32>
          }
        }
      }
    }
    return
  }
}


// -----// IR Dump After AffineDataCopyGeneration (affine-data-copy-generate) //----- //
func.func @main_kernel(%arg0: memref<1x4x8xf32> {llvm.noalias}, %arg1: memref<1x8x4xf32> {llvm.noalias}, %arg2: memref<1x4x4xf32> {llvm.noalias}) {
  %c0 = arith.constant 0 : index
  %c0_0 = arith.constant 0 : index
  %c0_1 = arith.constant 0 : index
  %c0_2 = arith.constant 0 : index
  %c16 = arith.constant 16 : index
  %c0_3 = arith.constant 0 : index
  %c16_4 = arith.constant 16 : index
  %c0_5 = arith.constant 0 : index
  %c32 = arith.constant 32 : index
  %c0_6 = arith.constant 0 : index
  %c32_7 = arith.constant 32 : index
  %c0_8 = arith.constant 0 : index
  %c0_9 = arith.constant 0 : index
  cf.br ^bb1
^bb1:  // pred: ^bb0
  %alloc = memref.alloc() : memref<1x4x8xf32>
  affine.for %arg3 = 0 to 4 {
    affine.for %arg4 = 0 to 8 {
      %0 = affine.load %arg0[0, %arg3, %arg4] : memref<1x4x8xf32>
      affine.store %0, %alloc[0, %arg3, %arg4] : memref<1x4x8xf32>
    }
  }
  %alloc_10 = memref.alloc() : memref<1x8x4xf32>
  affine.for %arg3 = 0 to 8 {
    affine.for %arg4 = 0 to 4 {
      %0 = affine.load %arg1[0, %arg3, %arg4] : memref<1x8x4xf32>
      affine.store %0, %alloc_10[0, %arg3, %arg4] : memref<1x8x4xf32>
    }
  }
  %alloc_11 = memref.alloc() : memref<1x4x4xf32>
  affine.for %arg3 = 0 to 4 {
    affine.for %arg4 = 0 to 4 {
      %0 = affine.load %arg2[0, %arg3, %arg4] : memref<1x4x4xf32>
      affine.store %0, %alloc_11[0, %arg3, %arg4] : memref<1x4x4xf32>
    }
  }
  affine.for %arg3 = 0 to 1 {
    affine.for %arg4 = 0 to 4 {
      affine.for %arg5 = 0 to 4 {
        affine.for %arg6 = 0 to 8 {
          %0 = affine.load %alloc[%arg3, %arg4, %arg6] : memref<1x4x8xf32>
          %1 = affine.load %alloc_10[%arg3, %arg6, %arg5] : memref<1x8x4xf32>
          %2 = affine.load %alloc_11[%arg3, %arg4, %arg5] : memref<1x4x4xf32>
          %3 = arith.mulf %0, %1 : f32
          %4 = arith.addf %2, %3 : f32
          affine.store %4, %alloc_11[%arg3, %arg4, %arg5] : memref<1x4x4xf32>
        }
      }
    }
  }
  affine.for %arg3 = 0 to 4 {
    affine.for %arg4 = 0 to 4 {
      %0 = affine.load %alloc_11[0, %arg3, %arg4] : memref<1x4x4xf32>
      affine.store %0, %arg2[0, %arg3, %arg4] : memref<1x4x4xf32>
    }
  }
  memref.dealloc %alloc_11 : memref<1x4x4xf32>
  memref.dealloc %alloc_10 : memref<1x8x4xf32>
  memref.dealloc %alloc : memref<1x4x8xf32>
  return
}

// -----// IR Dump After EraseMemrefDealloc (erase-buffer-deallocation) //----- //
module attributes {soda.bambu.container_module, soda.container_module, tf.versions = {bad_consumers = [], min_consumer = 0 : i32, producer = 1882 : i32}} {
  func.func @main_kernel(%arg0: memref<1x4x8xf32> {llvm.noalias}, %arg1: memref<1x8x4xf32> {llvm.noalias}, %arg2: memref<1x4x4xf32> {llvm.noalias}) {
    cf.br ^bb1
  ^bb1:  // pred: ^bb0
    %alloc = memref.alloc() : memref<1x4x8xf32>
    affine.for %arg3 = 0 to 4 {
      affine.for %arg4 = 0 to 8 {
        %0 = affine.load %arg0[0, %arg3, %arg4] : memref<1x4x8xf32>
        affine.store %0, %alloc[0, %arg3, %arg4] : memref<1x4x8xf32>
      }
    }
    %alloc_0 = memref.alloc() : memref<1x8x4xf32>
    affine.for %arg3 = 0 to 8 {
      affine.for %arg4 = 0 to 4 {
        %0 = affine.load %arg1[0, %arg3, %arg4] : memref<1x8x4xf32>
        affine.store %0, %alloc_0[0, %arg3, %arg4] : memref<1x8x4xf32>
      }
    }
    %alloc_1 = memref.alloc() : memref<1x4x4xf32>
    affine.for %arg3 = 0 to 4 {
      affine.for %arg4 = 0 to 4 {
        %0 = affine.load %arg2[0, %arg3, %arg4] : memref<1x4x4xf32>
        affine.store %0, %alloc_1[0, %arg3, %arg4] : memref<1x4x4xf32>
      }
    }
    affine.for %arg3 = 0 to 1 {
      affine.for %arg4 = 0 to 4 {
        affine.for %arg5 = 0 to 4 {
          affine.for %arg6 = 0 to 8 {
            %0 = affine.load %alloc[%arg3, %arg4, %arg6] : memref<1x4x8xf32>
            %1 = affine.load %alloc_0[%arg3, %arg6, %arg5] : memref<1x8x4xf32>
            %2 = affine.load %alloc_1[%arg3, %arg4, %arg5] : memref<1x4x4xf32>
            %3 = arith.mulf %0, %1 : f32
            %4 = arith.addf %2, %3 : f32
            affine.store %4, %alloc_1[%arg3, %arg4, %arg5] : memref<1x4x4xf32>
          }
        }
      }
    }
    affine.for %arg3 = 0 to 4 {
      affine.for %arg4 = 0 to 4 {
        %0 = affine.load %alloc_1[0, %arg3, %arg4] : memref<1x4x4xf32>
        affine.store %0, %arg2[0, %arg3, %arg4] : memref<1x4x4xf32>
      }
    }
    return
  }
}


// -----// IR Dump After PromoteBuffersToStack (promote-buffers-to-stack) //----- //
func.func @main_kernel(%arg0: memref<1x4x8xf32> {llvm.noalias}, %arg1: memref<1x8x4xf32> {llvm.noalias}, %arg2: memref<1x4x4xf32> {llvm.noalias}) {
  cf.br ^bb1
^bb1:  // pred: ^bb0
  %alloca = memref.alloca() : memref<1x4x8xf32>
  affine.for %arg3 = 0 to 4 {
    affine.for %arg4 = 0 to 8 {
      %0 = affine.load %arg0[0, %arg3, %arg4] : memref<1x4x8xf32>
      affine.store %0, %alloca[0, %arg3, %arg4] : memref<1x4x8xf32>
    }
  }
  %alloca_0 = memref.alloca() : memref<1x8x4xf32>
  affine.for %arg3 = 0 to 8 {
    affine.for %arg4 = 0 to 4 {
      %0 = affine.load %arg1[0, %arg3, %arg4] : memref<1x8x4xf32>
      affine.store %0, %alloca_0[0, %arg3, %arg4] : memref<1x8x4xf32>
    }
  }
  %alloca_1 = memref.alloca() : memref<1x4x4xf32>
  affine.for %arg3 = 0 to 4 {
    affine.for %arg4 = 0 to 4 {
      %0 = affine.load %arg2[0, %arg3, %arg4] : memref<1x4x4xf32>
      affine.store %0, %alloca_1[0, %arg3, %arg4] : memref<1x4x4xf32>
    }
  }
  affine.for %arg3 = 0 to 1 {
    affine.for %arg4 = 0 to 4 {
      affine.for %arg5 = 0 to 4 {
        affine.for %arg6 = 0 to 8 {
          %0 = affine.load %alloca[%arg3, %arg4, %arg6] : memref<1x4x8xf32>
          %1 = affine.load %alloca_0[%arg3, %arg6, %arg5] : memref<1x8x4xf32>
          %2 = affine.load %alloca_1[%arg3, %arg4, %arg5] : memref<1x4x4xf32>
          %3 = arith.mulf %0, %1 : f32
          %4 = arith.addf %2, %3 : f32
          affine.store %4, %alloca_1[%arg3, %arg4, %arg5] : memref<1x4x4xf32>
        }
      }
    }
  }
  affine.for %arg3 = 0 to 4 {
    affine.for %arg4 = 0 to 4 {
      %0 = affine.load %alloca_1[0, %arg3, %arg4] : memref<1x4x4xf32>
      affine.store %0, %arg2[0, %arg3, %arg4] : memref<1x4x4xf32>
    }
  }
  return
}

// -----// IR Dump After AffineLoopUnroll (affine-loop-unroll) //----- //
func.func @main_kernel(%arg0: memref<1x4x8xf32> {llvm.noalias}, %arg1: memref<1x8x4xf32> {llvm.noalias}, %arg2: memref<1x4x4xf32> {llvm.noalias}) {
  %c0 = arith.constant 0 : index
  %c0_0 = arith.constant 0 : index
  %c0_1 = arith.constant 0 : index
  %c0_2 = arith.constant 0 : index
  %c0_3 = arith.constant 0 : index
  cf.br ^bb1
^bb1:  // pred: ^bb0
  %alloca = memref.alloca() : memref<1x4x8xf32>
  affine.for %arg3 = 0 to 4 {
    %0 = affine.load %arg0[0, %arg3, %c0_3] : memref<1x4x8xf32>
    affine.store %0, %alloca[0, %arg3, %c0_3] : memref<1x4x8xf32>
    %1 = affine.apply affine_map<(d0) -> (d0 + 1)>(%c0_3)
    %2 = affine.load %arg0[0, %arg3, %1] : memref<1x4x8xf32>
    affine.store %2, %alloca[0, %arg3, %1] : memref<1x4x8xf32>
    %3 = affine.apply affine_map<(d0) -> (d0 + 2)>(%c0_3)
    %4 = affine.load %arg0[0, %arg3, %3] : memref<1x4x8xf32>
    affine.store %4, %alloca[0, %arg3, %3] : memref<1x4x8xf32>
    %5 = affine.apply affine_map<(d0) -> (d0 + 3)>(%c0_3)
    %6 = affine.load %arg0[0, %arg3, %5] : memref<1x4x8xf32>
    affine.store %6, %alloca[0, %arg3, %5] : memref<1x4x8xf32>
    %7 = affine.apply affine_map<(d0) -> (d0 + 4)>(%c0_3)
    %8 = affine.load %arg0[0, %arg3, %7] : memref<1x4x8xf32>
    affine.store %8, %alloca[0, %arg3, %7] : memref<1x4x8xf32>
    %9 = affine.apply affine_map<(d0) -> (d0 + 5)>(%c0_3)
    %10 = affine.load %arg0[0, %arg3, %9] : memref<1x4x8xf32>
    affine.store %10, %alloca[0, %arg3, %9] : memref<1x4x8xf32>
    %11 = affine.apply affine_map<(d0) -> (d0 + 6)>(%c0_3)
    %12 = affine.load %arg0[0, %arg3, %11] : memref<1x4x8xf32>
    affine.store %12, %alloca[0, %arg3, %11] : memref<1x4x8xf32>
    %13 = affine.apply affine_map<(d0) -> (d0 + 7)>(%c0_3)
    %14 = affine.load %arg0[0, %arg3, %13] : memref<1x4x8xf32>
    affine.store %14, %alloca[0, %arg3, %13] : memref<1x4x8xf32>
  }
  %alloca_4 = memref.alloca() : memref<1x8x4xf32>
  affine.for %arg3 = 0 to 8 {
    %0 = affine.load %arg1[0, %arg3, %c0_2] : memref<1x8x4xf32>
    affine.store %0, %alloca_4[0, %arg3, %c0_2] : memref<1x8x4xf32>
    %1 = affine.apply affine_map<(d0) -> (d0 + 1)>(%c0_2)
    %2 = affine.load %arg1[0, %arg3, %1] : memref<1x8x4xf32>
    affine.store %2, %alloca_4[0, %arg3, %1] : memref<1x8x4xf32>
    %3 = affine.apply affine_map<(d0) -> (d0 + 2)>(%c0_2)
    %4 = affine.load %arg1[0, %arg3, %3] : memref<1x8x4xf32>
    affine.store %4, %alloca_4[0, %arg3, %3] : memref<1x8x4xf32>
    %5 = affine.apply affine_map<(d0) -> (d0 + 3)>(%c0_2)
    %6 = affine.load %arg1[0, %arg3, %5] : memref<1x8x4xf32>
    affine.store %6, %alloca_4[0, %arg3, %5] : memref<1x8x4xf32>
  }
  %alloca_5 = memref.alloca() : memref<1x4x4xf32>
  affine.for %arg3 = 0 to 4 {
    %0 = affine.load %arg2[0, %arg3, %c0_1] : memref<1x4x4xf32>
    affine.store %0, %alloca_5[0, %arg3, %c0_1] : memref<1x4x4xf32>
    %1 = affine.apply affine_map<(d0) -> (d0 + 1)>(%c0_1)
    %2 = affine.load %arg2[0, %arg3, %1] : memref<1x4x4xf32>
    affine.store %2, %alloca_5[0, %arg3, %1] : memref<1x4x4xf32>
    %3 = affine.apply affine_map<(d0) -> (d0 + 2)>(%c0_1)
    %4 = affine.load %arg2[0, %arg3, %3] : memref<1x4x4xf32>
    affine.store %4, %alloca_5[0, %arg3, %3] : memref<1x4x4xf32>
    %5 = affine.apply affine_map<(d0) -> (d0 + 3)>(%c0_1)
    %6 = affine.load %arg2[0, %arg3, %5] : memref<1x4x4xf32>
    affine.store %6, %alloca_5[0, %arg3, %5] : memref<1x4x4xf32>
  }
  affine.for %arg3 = 0 to 1 {
    affine.for %arg4 = 0 to 4 {
      affine.for %arg5 = 0 to 4 {
        %0 = affine.load %alloca[%arg3, %arg4, %c0_0] : memref<1x4x8xf32>
        %1 = affine.load %alloca_4[%arg3, %c0_0, %arg5] : memref<1x8x4xf32>
        %2 = affine.load %alloca_5[%arg3, %arg4, %arg5] : memref<1x4x4xf32>
        %3 = arith.mulf %0, %1 : f32
        %4 = arith.addf %2, %3 : f32
        affine.store %4, %alloca_5[%arg3, %arg4, %arg5] : memref<1x4x4xf32>
        %5 = affine.apply affine_map<(d0) -> (d0 + 1)>(%c0_0)
        %6 = affine.load %alloca[%arg3, %arg4, %5] : memref<1x4x8xf32>
        %7 = affine.load %alloca_4[%arg3, %5, %arg5] : memref<1x8x4xf32>
        %8 = affine.load %alloca_5[%arg3, %arg4, %arg5] : memref<1x4x4xf32>
        %9 = arith.mulf %6, %7 : f32
        %10 = arith.addf %8, %9 : f32
        affine.store %10, %alloca_5[%arg3, %arg4, %arg5] : memref<1x4x4xf32>
        %11 = affine.apply affine_map<(d0) -> (d0 + 2)>(%c0_0)
        %12 = affine.load %alloca[%arg3, %arg4, %11] : memref<1x4x8xf32>
        %13 = affine.load %alloca_4[%arg3, %11, %arg5] : memref<1x8x4xf32>
        %14 = affine.load %alloca_5[%arg3, %arg4, %arg5] : memref<1x4x4xf32>
        %15 = arith.mulf %12, %13 : f32
        %16 = arith.addf %14, %15 : f32
        affine.store %16, %alloca_5[%arg3, %arg4, %arg5] : memref<1x4x4xf32>
        %17 = affine.apply affine_map<(d0) -> (d0 + 3)>(%c0_0)
        %18 = affine.load %alloca[%arg3, %arg4, %17] : memref<1x4x8xf32>
        %19 = affine.load %alloca_4[%arg3, %17, %arg5] : memref<1x8x4xf32>
        %20 = affine.load %alloca_5[%arg3, %arg4, %arg5] : memref<1x4x4xf32>
        %21 = arith.mulf %18, %19 : f32
        %22 = arith.addf %20, %21 : f32
        affine.store %22, %alloca_5[%arg3, %arg4, %arg5] : memref<1x4x4xf32>
        %23 = affine.apply affine_map<(d0) -> (d0 + 4)>(%c0_0)
        %24 = affine.load %alloca[%arg3, %arg4, %23] : memref<1x4x8xf32>
        %25 = affine.load %alloca_4[%arg3, %23, %arg5] : memref<1x8x4xf32>
        %26 = affine.load %alloca_5[%arg3, %arg4, %arg5] : memref<1x4x4xf32>
        %27 = arith.mulf %24, %25 : f32
        %28 = arith.addf %26, %27 : f32
        affine.store %28, %alloca_5[%arg3, %arg4, %arg5] : memref<1x4x4xf32>
        %29 = affine.apply affine_map<(d0) -> (d0 + 5)>(%c0_0)
        %30 = affine.load %alloca[%arg3, %arg4, %29] : memref<1x4x8xf32>
        %31 = affine.load %alloca_4[%arg3, %29, %arg5] : memref<1x8x4xf32>
        %32 = affine.load %alloca_5[%arg3, %arg4, %arg5] : memref<1x4x4xf32>
        %33 = arith.mulf %30, %31 : f32
        %34 = arith.addf %32, %33 : f32
        affine.store %34, %alloca_5[%arg3, %arg4, %arg5] : memref<1x4x4xf32>
        %35 = affine.apply affine_map<(d0) -> (d0 + 6)>(%c0_0)
        %36 = affine.load %alloca[%arg3, %arg4, %35] : memref<1x4x8xf32>
        %37 = affine.load %alloca_4[%arg3, %35, %arg5] : memref<1x8x4xf32>
        %38 = affine.load %alloca_5[%arg3, %arg4, %arg5] : memref<1x4x4xf32>
        %39 = arith.mulf %36, %37 : f32
        %40 = arith.addf %38, %39 : f32
        affine.store %40, %alloca_5[%arg3, %arg4, %arg5] : memref<1x4x4xf32>
        %41 = affine.apply affine_map<(d0) -> (d0 + 7)>(%c0_0)
        %42 = affine.load %alloca[%arg3, %arg4, %41] : memref<1x4x8xf32>
        %43 = affine.load %alloca_4[%arg3, %41, %arg5] : memref<1x8x4xf32>
        %44 = affine.load %alloca_5[%arg3, %arg4, %arg5] : memref<1x4x4xf32>
        %45 = arith.mulf %42, %43 : f32
        %46 = arith.addf %44, %45 : f32
        affine.store %46, %alloca_5[%arg3, %arg4, %arg5] : memref<1x4x4xf32>
      }
    }
  }
  affine.for %arg3 = 0 to 4 {
    %0 = affine.load %alloca_5[0, %arg3, %c0] : memref<1x4x4xf32>
    affine.store %0, %arg2[0, %arg3, %c0] : memref<1x4x4xf32>
    %1 = affine.apply affine_map<(d0) -> (d0 + 1)>(%c0)
    %2 = affine.load %alloca_5[0, %arg3, %1] : memref<1x4x4xf32>
    affine.store %2, %arg2[0, %arg3, %1] : memref<1x4x4xf32>
    %3 = affine.apply affine_map<(d0) -> (d0 + 2)>(%c0)
    %4 = affine.load %alloca_5[0, %arg3, %3] : memref<1x4x4xf32>
    affine.store %4, %arg2[0, %arg3, %3] : memref<1x4x4xf32>
    %5 = affine.apply affine_map<(d0) -> (d0 + 3)>(%c0)
    %6 = affine.load %alloca_5[0, %arg3, %5] : memref<1x4x4xf32>
    affine.store %6, %arg2[0, %arg3, %5] : memref<1x4x4xf32>
  }
  return
}

// -----// IR Dump After AffineLoopUnroll (affine-loop-unroll) //----- //
func.func @main_kernel(%arg0: memref<1x4x8xf32> {llvm.noalias}, %arg1: memref<1x8x4xf32> {llvm.noalias}, %arg2: memref<1x4x4xf32> {llvm.noalias}) {
  %c0 = arith.constant 0 : index
  %c0_0 = arith.constant 0 : index
  %c0_1 = arith.constant 0 : index
  %c0_2 = arith.constant 0 : index
  %c0_3 = arith.constant 0 : index
  %c0_4 = arith.constant 0 : index
  %c0_5 = arith.constant 0 : index
  %c0_6 = arith.constant 0 : index
  %c0_7 = arith.constant 0 : index
  %c0_8 = arith.constant 0 : index
  cf.br ^bb1
^bb1:  // pred: ^bb0
  %alloca = memref.alloca() : memref<1x4x8xf32>
  %0 = affine.load %arg0[0, %c0_3, %c0_8] : memref<1x4x8xf32>
  affine.store %0, %alloca[0, %c0_3, %c0_8] : memref<1x4x8xf32>
  %1 = affine.apply affine_map<(d0) -> (d0 + 1)>(%c0_8)
  %2 = affine.load %arg0[0, %c0_3, %1] : memref<1x4x8xf32>
  affine.store %2, %alloca[0, %c0_3, %1] : memref<1x4x8xf32>
  %3 = affine.apply affine_map<(d0) -> (d0 + 2)>(%c0_8)
  %4 = affine.load %arg0[0, %c0_3, %3] : memref<1x4x8xf32>
  affine.store %4, %alloca[0, %c0_3, %3] : memref<1x4x8xf32>
  %5 = affine.apply affine_map<(d0) -> (d0 + 3)>(%c0_8)
  %6 = affine.load %arg0[0, %c0_3, %5] : memref<1x4x8xf32>
  affine.store %6, %alloca[0, %c0_3, %5] : memref<1x4x8xf32>
  %7 = affine.apply affine_map<(d0) -> (d0 + 4)>(%c0_8)
  %8 = affine.load %arg0[0, %c0_3, %7] : memref<1x4x8xf32>
  affine.store %8, %alloca[0, %c0_3, %7] : memref<1x4x8xf32>
  %9 = affine.apply affine_map<(d0) -> (d0 + 5)>(%c0_8)
  %10 = affine.load %arg0[0, %c0_3, %9] : memref<1x4x8xf32>
  affine.store %10, %alloca[0, %c0_3, %9] : memref<1x4x8xf32>
  %11 = affine.apply affine_map<(d0) -> (d0 + 6)>(%c0_8)
  %12 = affine.load %arg0[0, %c0_3, %11] : memref<1x4x8xf32>
  affine.store %12, %alloca[0, %c0_3, %11] : memref<1x4x8xf32>
  %13 = affine.apply affine_map<(d0) -> (d0 + 7)>(%c0_8)
  %14 = affine.load %arg0[0, %c0_3, %13] : memref<1x4x8xf32>
  affine.store %14, %alloca[0, %c0_3, %13] : memref<1x4x8xf32>
  %15 = affine.apply affine_map<(d0) -> (d0 + 1)>(%c0_3)
  %16 = affine.load %arg0[0, %15, %c0_8] : memref<1x4x8xf32>
  affine.store %16, %alloca[0, %15, %c0_8] : memref<1x4x8xf32>
  %17 = affine.apply affine_map<(d0) -> (d0 + 1)>(%c0_8)
  %18 = affine.load %arg0[0, %15, %17] : memref<1x4x8xf32>
  affine.store %18, %alloca[0, %15, %17] : memref<1x4x8xf32>
  %19 = affine.apply affine_map<(d0) -> (d0 + 2)>(%c0_8)
  %20 = affine.load %arg0[0, %15, %19] : memref<1x4x8xf32>
  affine.store %20, %alloca[0, %15, %19] : memref<1x4x8xf32>
  %21 = affine.apply affine_map<(d0) -> (d0 + 3)>(%c0_8)
  %22 = affine.load %arg0[0, %15, %21] : memref<1x4x8xf32>
  affine.store %22, %alloca[0, %15, %21] : memref<1x4x8xf32>
  %23 = affine.apply affine_map<(d0) -> (d0 + 4)>(%c0_8)
  %24 = affine.load %arg0[0, %15, %23] : memref<1x4x8xf32>
  affine.store %24, %alloca[0, %15, %23] : memref<1x4x8xf32>
  %25 = affine.apply affine_map<(d0) -> (d0 + 5)>(%c0_8)
  %26 = affine.load %arg0[0, %15, %25] : memref<1x4x8xf32>
  affine.store %26, %alloca[0, %15, %25] : memref<1x4x8xf32>
  %27 = affine.apply affine_map<(d0) -> (d0 + 6)>(%c0_8)
  %28 = affine.load %arg0[0, %15, %27] : memref<1x4x8xf32>
  affine.store %28, %alloca[0, %15, %27] : memref<1x4x8xf32>
  %29 = affine.apply affine_map<(d0) -> (d0 + 7)>(%c0_8)
  %30 = affine.load %arg0[0, %15, %29] : memref<1x4x8xf32>
  affine.store %30, %alloca[0, %15, %29] : memref<1x4x8xf32>
  %31 = affine.apply affine_map<(d0) -> (d0 + 2)>(%c0_3)
  %32 = affine.load %arg0[0, %31, %c0_8] : memref<1x4x8xf32>
  affine.store %32, %alloca[0, %31, %c0_8] : memref<1x4x8xf32>
  %33 = affine.apply affine_map<(d0) -> (d0 + 1)>(%c0_8)
  %34 = affine.load %arg0[0, %31, %33] : memref<1x4x8xf32>
  affine.store %34, %alloca[0, %31, %33] : memref<1x4x8xf32>
  %35 = affine.apply affine_map<(d0) -> (d0 + 2)>(%c0_8)
  %36 = affine.load %arg0[0, %31, %35] : memref<1x4x8xf32>
  affine.store %36, %alloca[0, %31, %35] : memref<1x4x8xf32>
  %37 = affine.apply affine_map<(d0) -> (d0 + 3)>(%c0_8)
  %38 = affine.load %arg0[0, %31, %37] : memref<1x4x8xf32>
  affine.store %38, %alloca[0, %31, %37] : memref<1x4x8xf32>
  %39 = affine.apply affine_map<(d0) -> (d0 + 4)>(%c0_8)
  %40 = affine.load %arg0[0, %31, %39] : memref<1x4x8xf32>
  affine.store %40, %alloca[0, %31, %39] : memref<1x4x8xf32>
  %41 = affine.apply affine_map<(d0) -> (d0 + 5)>(%c0_8)
  %42 = affine.load %arg0[0, %31, %41] : memref<1x4x8xf32>
  affine.store %42, %alloca[0, %31, %41] : memref<1x4x8xf32>
  %43 = affine.apply affine_map<(d0) -> (d0 + 6)>(%c0_8)
  %44 = affine.load %arg0[0, %31, %43] : memref<1x4x8xf32>
  affine.store %44, %alloca[0, %31, %43] : memref<1x4x8xf32>
  %45 = affine.apply affine_map<(d0) -> (d0 + 7)>(%c0_8)
  %46 = affine.load %arg0[0, %31, %45] : memref<1x4x8xf32>
  affine.store %46, %alloca[0, %31, %45] : memref<1x4x8xf32>
  %47 = affine.apply affine_map<(d0) -> (d0 + 3)>(%c0_3)
  %48 = affine.load %arg0[0, %47, %c0_8] : memref<1x4x8xf32>
  affine.store %48, %alloca[0, %47, %c0_8] : memref<1x4x8xf32>
  %49 = affine.apply affine_map<(d0) -> (d0 + 1)>(%c0_8)
  %50 = affine.load %arg0[0, %47, %49] : memref<1x4x8xf32>
  affine.store %50, %alloca[0, %47, %49] : memref<1x4x8xf32>
  %51 = affine.apply affine_map<(d0) -> (d0 + 2)>(%c0_8)
  %52 = affine.load %arg0[0, %47, %51] : memref<1x4x8xf32>
  affine.store %52, %alloca[0, %47, %51] : memref<1x4x8xf32>
  %53 = affine.apply affine_map<(d0) -> (d0 + 3)>(%c0_8)
  %54 = affine.load %arg0[0, %47, %53] : memref<1x4x8xf32>
  affine.store %54, %alloca[0, %47, %53] : memref<1x4x8xf32>
  %55 = affine.apply affine_map<(d0) -> (d0 + 4)>(%c0_8)
  %56 = affine.load %arg0[0, %47, %55] : memref<1x4x8xf32>
  affine.store %56, %alloca[0, %47, %55] : memref<1x4x8xf32>
  %57 = affine.apply affine_map<(d0) -> (d0 + 5)>(%c0_8)
  %58 = affine.load %arg0[0, %47, %57] : memref<1x4x8xf32>
  affine.store %58, %alloca[0, %47, %57] : memref<1x4x8xf32>
  %59 = affine.apply affine_map<(d0) -> (d0 + 6)>(%c0_8)
  %60 = affine.load %arg0[0, %47, %59] : memref<1x4x8xf32>
  affine.store %60, %alloca[0, %47, %59] : memref<1x4x8xf32>
  %61 = affine.apply affine_map<(d0) -> (d0 + 7)>(%c0_8)
  %62 = affine.load %arg0[0, %47, %61] : memref<1x4x8xf32>
  affine.store %62, %alloca[0, %47, %61] : memref<1x4x8xf32>
  %alloca_9 = memref.alloca() : memref<1x8x4xf32>
  %63 = affine.load %arg1[0, %c0_2, %c0_7] : memref<1x8x4xf32>
  affine.store %63, %alloca_9[0, %c0_2, %c0_7] : memref<1x8x4xf32>
  %64 = affine.apply affine_map<(d0) -> (d0 + 1)>(%c0_7)
  %65 = affine.load %arg1[0, %c0_2, %64] : memref<1x8x4xf32>
  affine.store %65, %alloca_9[0, %c0_2, %64] : memref<1x8x4xf32>
  %66 = affine.apply affine_map<(d0) -> (d0 + 2)>(%c0_7)
  %67 = affine.load %arg1[0, %c0_2, %66] : memref<1x8x4xf32>
  affine.store %67, %alloca_9[0, %c0_2, %66] : memref<1x8x4xf32>
  %68 = affine.apply affine_map<(d0) -> (d0 + 3)>(%c0_7)
  %69 = affine.load %arg1[0, %c0_2, %68] : memref<1x8x4xf32>
  affine.store %69, %alloca_9[0, %c0_2, %68] : memref<1x8x4xf32>
  %70 = affine.apply affine_map<(d0) -> (d0 + 1)>(%c0_2)
  %71 = affine.load %arg1[0, %70, %c0_7] : memref<1x8x4xf32>
  affine.store %71, %alloca_9[0, %70, %c0_7] : memref<1x8x4xf32>
  %72 = affine.apply affine_map<(d0) -> (d0 + 1)>(%c0_7)
  %73 = affine.load %arg1[0, %70, %72] : memref<1x8x4xf32>
  affine.store %73, %alloca_9[0, %70, %72] : memref<1x8x4xf32>
  %74 = affine.apply affine_map<(d0) -> (d0 + 2)>(%c0_7)
  %75 = affine.load %arg1[0, %70, %74] : memref<1x8x4xf32>
  affine.store %75, %alloca_9[0, %70, %74] : memref<1x8x4xf32>
  %76 = affine.apply affine_map<(d0) -> (d0 + 3)>(%c0_7)
  %77 = affine.load %arg1[0, %70, %76] : memref<1x8x4xf32>
  affine.store %77, %alloca_9[0, %70, %76] : memref<1x8x4xf32>
  %78 = affine.apply affine_map<(d0) -> (d0 + 2)>(%c0_2)
  %79 = affine.load %arg1[0, %78, %c0_7] : memref<1x8x4xf32>
  affine.store %79, %alloca_9[0, %78, %c0_7] : memref<1x8x4xf32>
  %80 = affine.apply affine_map<(d0) -> (d0 + 1)>(%c0_7)
  %81 = affine.load %arg1[0, %78, %80] : memref<1x8x4xf32>
  affine.store %81, %alloca_9[0, %78, %80] : memref<1x8x4xf32>
  %82 = affine.apply affine_map<(d0) -> (d0 + 2)>(%c0_7)
  %83 = affine.load %arg1[0, %78, %82] : memref<1x8x4xf32>
  affine.store %83, %alloca_9[0, %78, %82] : memref<1x8x4xf32>
  %84 = affine.apply affine_map<(d0) -> (d0 + 3)>(%c0_7)
  %85 = affine.load %arg1[0, %78, %84] : memref<1x8x4xf32>
  affine.store %85, %alloca_9[0, %78, %84] : memref<1x8x4xf32>
  %86 = affine.apply affine_map<(d0) -> (d0 + 3)>(%c0_2)
  %87 = affine.load %arg1[0, %86, %c0_7] : memref<1x8x4xf32>
  affine.store %87, %alloca_9[0, %86, %c0_7] : memref<1x8x4xf32>
  %88 = affine.apply affine_map<(d0) -> (d0 + 1)>(%c0_7)
  %89 = affine.load %arg1[0, %86, %88] : memref<1x8x4xf32>
  affine.store %89, %alloca_9[0, %86, %88] : memref<1x8x4xf32>
  %90 = affine.apply affine_map<(d0) -> (d0 + 2)>(%c0_7)
  %91 = affine.load %arg1[0, %86, %90] : memref<1x8x4xf32>
  affine.store %91, %alloca_9[0, %86, %90] : memref<1x8x4xf32>
  %92 = affine.apply affine_map<(d0) -> (d0 + 3)>(%c0_7)
  %93 = affine.load %arg1[0, %86, %92] : memref<1x8x4xf32>
  affine.store %93, %alloca_9[0, %86, %92] : memref<1x8x4xf32>
  %94 = affine.apply affine_map<(d0) -> (d0 + 4)>(%c0_2)
  %95 = affine.load %arg1[0, %94, %c0_7] : memref<1x8x4xf32>
  affine.store %95, %alloca_9[0, %94, %c0_7] : memref<1x8x4xf32>
  %96 = affine.apply affine_map<(d0) -> (d0 + 1)>(%c0_7)
  %97 = affine.load %arg1[0, %94, %96] : memref<1x8x4xf32>
  affine.store %97, %alloca_9[0, %94, %96] : memref<1x8x4xf32>
  %98 = affine.apply affine_map<(d0) -> (d0 + 2)>(%c0_7)
  %99 = affine.load %arg1[0, %94, %98] : memref<1x8x4xf32>
  affine.store %99, %alloca_9[0, %94, %98] : memref<1x8x4xf32>
  %100 = affine.apply affine_map<(d0) -> (d0 + 3)>(%c0_7)
  %101 = affine.load %arg1[0, %94, %100] : memref<1x8x4xf32>
  affine.store %101, %alloca_9[0, %94, %100] : memref<1x8x4xf32>
  %102 = affine.apply affine_map<(d0) -> (d0 + 5)>(%c0_2)
  %103 = affine.load %arg1[0, %102, %c0_7] : memref<1x8x4xf32>
  affine.store %103, %alloca_9[0, %102, %c0_7] : memref<1x8x4xf32>
  %104 = affine.apply affine_map<(d0) -> (d0 + 1)>(%c0_7)
  %105 = affine.load %arg1[0, %102, %104] : memref<1x8x4xf32>
  affine.store %105, %alloca_9[0, %102, %104] : memref<1x8x4xf32>
  %106 = affine.apply affine_map<(d0) -> (d0 + 2)>(%c0_7)
  %107 = affine.load %arg1[0, %102, %106] : memref<1x8x4xf32>
  affine.store %107, %alloca_9[0, %102, %106] : memref<1x8x4xf32>
  %108 = affine.apply affine_map<(d0) -> (d0 + 3)>(%c0_7)
  %109 = affine.load %arg1[0, %102, %108] : memref<1x8x4xf32>
  affine.store %109, %alloca_9[0, %102, %108] : memref<1x8x4xf32>
  %110 = affine.apply affine_map<(d0) -> (d0 + 6)>(%c0_2)
  %111 = affine.load %arg1[0, %110, %c0_7] : memref<1x8x4xf32>
  affine.store %111, %alloca_9[0, %110, %c0_7] : memref<1x8x4xf32>
  %112 = affine.apply affine_map<(d0) -> (d0 + 1)>(%c0_7)
  %113 = affine.load %arg1[0, %110, %112] : memref<1x8x4xf32>
  affine.store %113, %alloca_9[0, %110, %112] : memref<1x8x4xf32>
  %114 = affine.apply affine_map<(d0) -> (d0 + 2)>(%c0_7)
  %115 = affine.load %arg1[0, %110, %114] : memref<1x8x4xf32>
  affine.store %115, %alloca_9[0, %110, %114] : memref<1x8x4xf32>
  %116 = affine.apply affine_map<(d0) -> (d0 + 3)>(%c0_7)
  %117 = affine.load %arg1[0, %110, %116] : memref<1x8x4xf32>
  affine.store %117, %alloca_9[0, %110, %116] : memref<1x8x4xf32>
  %118 = affine.apply affine_map<(d0) -> (d0 + 7)>(%c0_2)
  %119 = affine.load %arg1[0, %118, %c0_7] : memref<1x8x4xf32>
  affine.store %119, %alloca_9[0, %118, %c0_7] : memref<1x8x4xf32>
  %120 = affine.apply affine_map<(d0) -> (d0 + 1)>(%c0_7)
  %121 = affine.load %arg1[0, %118, %120] : memref<1x8x4xf32>
  affine.store %121, %alloca_9[0, %118, %120] : memref<1x8x4xf32>
  %122 = affine.apply affine_map<(d0) -> (d0 + 2)>(%c0_7)
  %123 = affine.load %arg1[0, %118, %122] : memref<1x8x4xf32>
  affine.store %123, %alloca_9[0, %118, %122] : memref<1x8x4xf32>
  %124 = affine.apply affine_map<(d0) -> (d0 + 3)>(%c0_7)
  %125 = affine.load %arg1[0, %118, %124] : memref<1x8x4xf32>
  affine.store %125, %alloca_9[0, %118, %124] : memref<1x8x4xf32>
  %alloca_10 = memref.alloca() : memref<1x4x4xf32>
  %126 = affine.load %arg2[0, %c0_1, %c0_6] : memref<1x4x4xf32>
  affine.store %126, %alloca_10[0, %c0_1, %c0_6] : memref<1x4x4xf32>
  %127 = affine.apply affine_map<(d0) -> (d0 + 1)>(%c0_6)
  %128 = affine.load %arg2[0, %c0_1, %127] : memref<1x4x4xf32>
  affine.store %128, %alloca_10[0, %c0_1, %127] : memref<1x4x4xf32>
  %129 = affine.apply affine_map<(d0) -> (d0 + 2)>(%c0_6)
  %130 = affine.load %arg2[0, %c0_1, %129] : memref<1x4x4xf32>
  affine.store %130, %alloca_10[0, %c0_1, %129] : memref<1x4x4xf32>
  %131 = affine.apply affine_map<(d0) -> (d0 + 3)>(%c0_6)
  %132 = affine.load %arg2[0, %c0_1, %131] : memref<1x4x4xf32>
  affine.store %132, %alloca_10[0, %c0_1, %131] : memref<1x4x4xf32>
  %133 = affine.apply affine_map<(d0) -> (d0 + 1)>(%c0_1)
  %134 = affine.load %arg2[0, %133, %c0_6] : memref<1x4x4xf32>
  affine.store %134, %alloca_10[0, %133, %c0_6] : memref<1x4x4xf32>
  %135 = affine.apply affine_map<(d0) -> (d0 + 1)>(%c0_6)
  %136 = affine.load %arg2[0, %133, %135] : memref<1x4x4xf32>
  affine.store %136, %alloca_10[0, %133, %135] : memref<1x4x4xf32>
  %137 = affine.apply affine_map<(d0) -> (d0 + 2)>(%c0_6)
  %138 = affine.load %arg2[0, %133, %137] : memref<1x4x4xf32>
  affine.store %138, %alloca_10[0, %133, %137] : memref<1x4x4xf32>
  %139 = affine.apply affine_map<(d0) -> (d0 + 3)>(%c0_6)
  %140 = affine.load %arg2[0, %133, %139] : memref<1x4x4xf32>
  affine.store %140, %alloca_10[0, %133, %139] : memref<1x4x4xf32>
  %141 = affine.apply affine_map<(d0) -> (d0 + 2)>(%c0_1)
  %142 = affine.load %arg2[0, %141, %c0_6] : memref<1x4x4xf32>
  affine.store %142, %alloca_10[0, %141, %c0_6] : memref<1x4x4xf32>
  %143 = affine.apply affine_map<(d0) -> (d0 + 1)>(%c0_6)
  %144 = affine.load %arg2[0, %141, %143] : memref<1x4x4xf32>
  affine.store %144, %alloca_10[0, %141, %143] : memref<1x4x4xf32>
  %145 = affine.apply affine_map<(d0) -> (d0 + 2)>(%c0_6)
  %146 = affine.load %arg2[0, %141, %145] : memref<1x4x4xf32>
  affine.store %146, %alloca_10[0, %141, %145] : memref<1x4x4xf32>
  %147 = affine.apply affine_map<(d0) -> (d0 + 3)>(%c0_6)
  %148 = affine.load %arg2[0, %141, %147] : memref<1x4x4xf32>
  affine.store %148, %alloca_10[0, %141, %147] : memref<1x4x4xf32>
  %149 = affine.apply affine_map<(d0) -> (d0 + 3)>(%c0_1)
  %150 = affine.load %arg2[0, %149, %c0_6] : memref<1x4x4xf32>
  affine.store %150, %alloca_10[0, %149, %c0_6] : memref<1x4x4xf32>
  %151 = affine.apply affine_map<(d0) -> (d0 + 1)>(%c0_6)
  %152 = affine.load %arg2[0, %149, %151] : memref<1x4x4xf32>
  affine.store %152, %alloca_10[0, %149, %151] : memref<1x4x4xf32>
  %153 = affine.apply affine_map<(d0) -> (d0 + 2)>(%c0_6)
  %154 = affine.load %arg2[0, %149, %153] : memref<1x4x4xf32>
  affine.store %154, %alloca_10[0, %149, %153] : memref<1x4x4xf32>
  %155 = affine.apply affine_map<(d0) -> (d0 + 3)>(%c0_6)
  %156 = affine.load %arg2[0, %149, %155] : memref<1x4x4xf32>
  affine.store %156, %alloca_10[0, %149, %155] : memref<1x4x4xf32>
  affine.for %arg3 = 0 to 1 {
    affine.for %arg4 = 0 to 4 {
      %188 = affine.load %alloca[%arg3, %arg4, %c0_5] : memref<1x4x8xf32>
      %189 = affine.load %alloca_9[%arg3, %c0_5, %c0_0] : memref<1x8x4xf32>
      %190 = affine.load %alloca_10[%arg3, %arg4, %c0_0] : memref<1x4x4xf32>
      %191 = arith.mulf %188, %189 : f32
      %192 = arith.addf %190, %191 : f32
      affine.store %192, %alloca_10[%arg3, %arg4, %c0_0] : memref<1x4x4xf32>
      %193 = affine.apply affine_map<(d0) -> (d0 + 1)>(%c0_5)
      %194 = affine.load %alloca[%arg3, %arg4, %193] : memref<1x4x8xf32>
      %195 = affine.load %alloca_9[%arg3, %193, %c0_0] : memref<1x8x4xf32>
      %196 = affine.load %alloca_10[%arg3, %arg4, %c0_0] : memref<1x4x4xf32>
      %197 = arith.mulf %194, %195 : f32
      %198 = arith.addf %196, %197 : f32
      affine.store %198, %alloca_10[%arg3, %arg4, %c0_0] : memref<1x4x4xf32>
      %199 = affine.apply affine_map<(d0) -> (d0 + 2)>(%c0_5)
      %200 = affine.load %alloca[%arg3, %arg4, %199] : memref<1x4x8xf32>
      %201 = affine.load %alloca_9[%arg3, %199, %c0_0] : memref<1x8x4xf32>
      %202 = affine.load %alloca_10[%arg3, %arg4, %c0_0] : memref<1x4x4xf32>
      %203 = arith.mulf %200, %201 : f32
      %204 = arith.addf %202, %203 : f32
      affine.store %204, %alloca_10[%arg3, %arg4, %c0_0] : memref<1x4x4xf32>
      %205 = affine.apply affine_map<(d0) -> (d0 + 3)>(%c0_5)
      %206 = affine.load %alloca[%arg3, %arg4, %205] : memref<1x4x8xf32>
      %207 = affine.load %alloca_9[%arg3, %205, %c0_0] : memref<1x8x4xf32>
      %208 = affine.load %alloca_10[%arg3, %arg4, %c0_0] : memref<1x4x4xf32>
      %209 = arith.mulf %206, %207 : f32
      %210 = arith.addf %208, %209 : f32
      affine.store %210, %alloca_10[%arg3, %arg4, %c0_0] : memref<1x4x4xf32>
      %211 = affine.apply affine_map<(d0) -> (d0 + 4)>(%c0_5)
      %212 = affine.load %alloca[%arg3, %arg4, %211] : memref<1x4x8xf32>
      %213 = affine.load %alloca_9[%arg3, %211, %c0_0] : memref<1x8x4xf32>
      %214 = affine.load %alloca_10[%arg3, %arg4, %c0_0] : memref<1x4x4xf32>
      %215 = arith.mulf %212, %213 : f32
      %216 = arith.addf %214, %215 : f32
      affine.store %216, %alloca_10[%arg3, %arg4, %c0_0] : memref<1x4x4xf32>
      %217 = affine.apply affine_map<(d0) -> (d0 + 5)>(%c0_5)
      %218 = affine.load %alloca[%arg3, %arg4, %217] : memref<1x4x8xf32>
      %219 = affine.load %alloca_9[%arg3, %217, %c0_0] : memref<1x8x4xf32>
      %220 = affine.load %alloca_10[%arg3, %arg4, %c0_0] : memref<1x4x4xf32>
      %221 = arith.mulf %218, %219 : f32
      %222 = arith.addf %220, %221 : f32
      affine.store %222, %alloca_10[%arg3, %arg4, %c0_0] : memref<1x4x4xf32>
      %223 = affine.apply affine_map<(d0) -> (d0 + 6)>(%c0_5)
      %224 = affine.load %alloca[%arg3, %arg4, %223] : memref<1x4x8xf32>
      %225 = affine.load %alloca_9[%arg3, %223, %c0_0] : memref<1x8x4xf32>
      %226 = affine.load %alloca_10[%arg3, %arg4, %c0_0] : memref<1x4x4xf32>
      %227 = arith.mulf %224, %225 : f32
      %228 = arith.addf %226, %227 : f32
      affine.store %228, %alloca_10[%arg3, %arg4, %c0_0] : memref<1x4x4xf32>
      %229 = affine.apply affine_map<(d0) -> (d0 + 7)>(%c0_5)
      %230 = affine.load %alloca[%arg3, %arg4, %229] : memref<1x4x8xf32>
      %231 = affine.load %alloca_9[%arg3, %229, %c0_0] : memref<1x8x4xf32>
      %232 = affine.load %alloca_10[%arg3, %arg4, %c0_0] : memref<1x4x4xf32>
      %233 = arith.mulf %230, %231 : f32
      %234 = arith.addf %232, %233 : f32
      affine.store %234, %alloca_10[%arg3, %arg4, %c0_0] : memref<1x4x4xf32>
      %235 = affine.apply affine_map<(d0) -> (d0 + 1)>(%c0_0)
      %236 = affine.load %alloca[%arg3, %arg4, %c0_5] : memref<1x4x8xf32>
      %237 = affine.load %alloca_9[%arg3, %c0_5, %235] : memref<1x8x4xf32>
      %238 = affine.load %alloca_10[%arg3, %arg4, %235] : memref<1x4x4xf32>
      %239 = arith.mulf %236, %237 : f32
      %240 = arith.addf %238, %239 : f32
      affine.store %240, %alloca_10[%arg3, %arg4, %235] : memref<1x4x4xf32>
      %241 = affine.apply affine_map<(d0) -> (d0 + 1)>(%c0_5)
      %242 = affine.load %alloca[%arg3, %arg4, %241] : memref<1x4x8xf32>
      %243 = affine.load %alloca_9[%arg3, %241, %235] : memref<1x8x4xf32>
      %244 = affine.load %alloca_10[%arg3, %arg4, %235] : memref<1x4x4xf32>
      %245 = arith.mulf %242, %243 : f32
      %246 = arith.addf %244, %245 : f32
      affine.store %246, %alloca_10[%arg3, %arg4, %235] : memref<1x4x4xf32>
      %247 = affine.apply affine_map<(d0) -> (d0 + 2)>(%c0_5)
      %248 = affine.load %alloca[%arg3, %arg4, %247] : memref<1x4x8xf32>
      %249 = affine.load %alloca_9[%arg3, %247, %235] : memref<1x8x4xf32>
      %250 = affine.load %alloca_10[%arg3, %arg4, %235] : memref<1x4x4xf32>
      %251 = arith.mulf %248, %249 : f32
      %252 = arith.addf %250, %251 : f32
      affine.store %252, %alloca_10[%arg3, %arg4, %235] : memref<1x4x4xf32>
      %253 = affine.apply affine_map<(d0) -> (d0 + 3)>(%c0_5)
      %254 = affine.load %alloca[%arg3, %arg4, %253] : memref<1x4x8xf32>
      %255 = affine.load %alloca_9[%arg3, %253, %235] : memref<1x8x4xf32>
      %256 = affine.load %alloca_10[%arg3, %arg4, %235] : memref<1x4x4xf32>
      %257 = arith.mulf %254, %255 : f32
      %258 = arith.addf %256, %257 : f32
      affine.store %258, %alloca_10[%arg3, %arg4, %235] : memref<1x4x4xf32>
      %259 = affine.apply affine_map<(d0) -> (d0 + 4)>(%c0_5)
      %260 = affine.load %alloca[%arg3, %arg4, %259] : memref<1x4x8xf32>
      %261 = affine.load %alloca_9[%arg3, %259, %235] : memref<1x8x4xf32>
      %262 = affine.load %alloca_10[%arg3, %arg4, %235] : memref<1x4x4xf32>
      %263 = arith.mulf %260, %261 : f32
      %264 = arith.addf %262, %263 : f32
      affine.store %264, %alloca_10[%arg3, %arg4, %235] : memref<1x4x4xf32>
      %265 = affine.apply affine_map<(d0) -> (d0 + 5)>(%c0_5)
      %266 = affine.load %alloca[%arg3, %arg4, %265] : memref<1x4x8xf32>
      %267 = affine.load %alloca_9[%arg3, %265, %235] : memref<1x8x4xf32>
      %268 = affine.load %alloca_10[%arg3, %arg4, %235] : memref<1x4x4xf32>
      %269 = arith.mulf %266, %267 : f32
      %270 = arith.addf %268, %269 : f32
      affine.store %270, %alloca_10[%arg3, %arg4, %235] : memref<1x4x4xf32>
      %271 = affine.apply affine_map<(d0) -> (d0 + 6)>(%c0_5)
      %272 = affine.load %alloca[%arg3, %arg4, %271] : memref<1x4x8xf32>
      %273 = affine.load %alloca_9[%arg3, %271, %235] : memref<1x8x4xf32>
      %274 = affine.load %alloca_10[%arg3, %arg4, %235] : memref<1x4x4xf32>
      %275 = arith.mulf %272, %273 : f32
      %276 = arith.addf %274, %275 : f32
      affine.store %276, %alloca_10[%arg3, %arg4, %235] : memref<1x4x4xf32>
      %277 = affine.apply affine_map<(d0) -> (d0 + 7)>(%c0_5)
      %278 = affine.load %alloca[%arg3, %arg4, %277] : memref<1x4x8xf32>
      %279 = affine.load %alloca_9[%arg3, %277, %235] : memref<1x8x4xf32>
      %280 = affine.load %alloca_10[%arg3, %arg4, %235] : memref<1x4x4xf32>
      %281 = arith.mulf %278, %279 : f32
      %282 = arith.addf %280, %281 : f32
      affine.store %282, %alloca_10[%arg3, %arg4, %235] : memref<1x4x4xf32>
      %283 = affine.apply affine_map<(d0) -> (d0 + 2)>(%c0_0)
      %284 = affine.load %alloca[%arg3, %arg4, %c0_5] : memref<1x4x8xf32>
      %285 = affine.load %alloca_9[%arg3, %c0_5, %283] : memref<1x8x4xf32>
      %286 = affine.load %alloca_10[%arg3, %arg4, %283] : memref<1x4x4xf32>
      %287 = arith.mulf %284, %285 : f32
      %288 = arith.addf %286, %287 : f32
      affine.store %288, %alloca_10[%arg3, %arg4, %283] : memref<1x4x4xf32>
      %289 = affine.apply affine_map<(d0) -> (d0 + 1)>(%c0_5)
      %290 = affine.load %alloca[%arg3, %arg4, %289] : memref<1x4x8xf32>
      %291 = affine.load %alloca_9[%arg3, %289, %283] : memref<1x8x4xf32>
      %292 = affine.load %alloca_10[%arg3, %arg4, %283] : memref<1x4x4xf32>
      %293 = arith.mulf %290, %291 : f32
      %294 = arith.addf %292, %293 : f32
      affine.store %294, %alloca_10[%arg3, %arg4, %283] : memref<1x4x4xf32>
      %295 = affine.apply affine_map<(d0) -> (d0 + 2)>(%c0_5)
      %296 = affine.load %alloca[%arg3, %arg4, %295] : memref<1x4x8xf32>
      %297 = affine.load %alloca_9[%arg3, %295, %283] : memref<1x8x4xf32>
      %298 = affine.load %alloca_10[%arg3, %arg4, %283] : memref<1x4x4xf32>
      %299 = arith.mulf %296, %297 : f32
      %300 = arith.addf %298, %299 : f32
      affine.store %300, %alloca_10[%arg3, %arg4, %283] : memref<1x4x4xf32>
      %301 = affine.apply affine_map<(d0) -> (d0 + 3)>(%c0_5)
      %302 = affine.load %alloca[%arg3, %arg4, %301] : memref<1x4x8xf32>
      %303 = affine.load %alloca_9[%arg3, %301, %283] : memref<1x8x4xf32>
      %304 = affine.load %alloca_10[%arg3, %arg4, %283] : memref<1x4x4xf32>
      %305 = arith.mulf %302, %303 : f32
      %306 = arith.addf %304, %305 : f32
      affine.store %306, %alloca_10[%arg3, %arg4, %283] : memref<1x4x4xf32>
      %307 = affine.apply affine_map<(d0) -> (d0 + 4)>(%c0_5)
      %308 = affine.load %alloca[%arg3, %arg4, %307] : memref<1x4x8xf32>
      %309 = affine.load %alloca_9[%arg3, %307, %283] : memref<1x8x4xf32>
      %310 = affine.load %alloca_10[%arg3, %arg4, %283] : memref<1x4x4xf32>
      %311 = arith.mulf %308, %309 : f32
      %312 = arith.addf %310, %311 : f32
      affine.store %312, %alloca_10[%arg3, %arg4, %283] : memref<1x4x4xf32>
      %313 = affine.apply affine_map<(d0) -> (d0 + 5)>(%c0_5)
      %314 = affine.load %alloca[%arg3, %arg4, %313] : memref<1x4x8xf32>
      %315 = affine.load %alloca_9[%arg3, %313, %283] : memref<1x8x4xf32>
      %316 = affine.load %alloca_10[%arg3, %arg4, %283] : memref<1x4x4xf32>
      %317 = arith.mulf %314, %315 : f32
      %318 = arith.addf %316, %317 : f32
      affine.store %318, %alloca_10[%arg3, %arg4, %283] : memref<1x4x4xf32>
      %319 = affine.apply affine_map<(d0) -> (d0 + 6)>(%c0_5)
      %320 = affine.load %alloca[%arg3, %arg4, %319] : memref<1x4x8xf32>
      %321 = affine.load %alloca_9[%arg3, %319, %283] : memref<1x8x4xf32>
      %322 = affine.load %alloca_10[%arg3, %arg4, %283] : memref<1x4x4xf32>
      %323 = arith.mulf %320, %321 : f32
      %324 = arith.addf %322, %323 : f32
      affine.store %324, %alloca_10[%arg3, %arg4, %283] : memref<1x4x4xf32>
      %325 = affine.apply affine_map<(d0) -> (d0 + 7)>(%c0_5)
      %326 = affine.load %alloca[%arg3, %arg4, %325] : memref<1x4x8xf32>
      %327 = affine.load %alloca_9[%arg3, %325, %283] : memref<1x8x4xf32>
      %328 = affine.load %alloca_10[%arg3, %arg4, %283] : memref<1x4x4xf32>
      %329 = arith.mulf %326, %327 : f32
      %330 = arith.addf %328, %329 : f32
      affine.store %330, %alloca_10[%arg3, %arg4, %283] : memref<1x4x4xf32>
      %331 = affine.apply affine_map<(d0) -> (d0 + 3)>(%c0_0)
      %332 = affine.load %alloca[%arg3, %arg4, %c0_5] : memref<1x4x8xf32>
      %333 = affine.load %alloca_9[%arg3, %c0_5, %331] : memref<1x8x4xf32>
      %334 = affine.load %alloca_10[%arg3, %arg4, %331] : memref<1x4x4xf32>
      %335 = arith.mulf %332, %333 : f32
      %336 = arith.addf %334, %335 : f32
      affine.store %336, %alloca_10[%arg3, %arg4, %331] : memref<1x4x4xf32>
      %337 = affine.apply affine_map<(d0) -> (d0 + 1)>(%c0_5)
      %338 = affine.load %alloca[%arg3, %arg4, %337] : memref<1x4x8xf32>
      %339 = affine.load %alloca_9[%arg3, %337, %331] : memref<1x8x4xf32>
      %340 = affine.load %alloca_10[%arg3, %arg4, %331] : memref<1x4x4xf32>
      %341 = arith.mulf %338, %339 : f32
      %342 = arith.addf %340, %341 : f32
      affine.store %342, %alloca_10[%arg3, %arg4, %331] : memref<1x4x4xf32>
      %343 = affine.apply affine_map<(d0) -> (d0 + 2)>(%c0_5)
      %344 = affine.load %alloca[%arg3, %arg4, %343] : memref<1x4x8xf32>
      %345 = affine.load %alloca_9[%arg3, %343, %331] : memref<1x8x4xf32>
      %346 = affine.load %alloca_10[%arg3, %arg4, %331] : memref<1x4x4xf32>
      %347 = arith.mulf %344, %345 : f32
      %348 = arith.addf %346, %347 : f32
      affine.store %348, %alloca_10[%arg3, %arg4, %331] : memref<1x4x4xf32>
      %349 = affine.apply affine_map<(d0) -> (d0 + 3)>(%c0_5)
      %350 = affine.load %alloca[%arg3, %arg4, %349] : memref<1x4x8xf32>
      %351 = affine.load %alloca_9[%arg3, %349, %331] : memref<1x8x4xf32>
      %352 = affine.load %alloca_10[%arg3, %arg4, %331] : memref<1x4x4xf32>
      %353 = arith.mulf %350, %351 : f32
      %354 = arith.addf %352, %353 : f32
      affine.store %354, %alloca_10[%arg3, %arg4, %331] : memref<1x4x4xf32>
      %355 = affine.apply affine_map<(d0) -> (d0 + 4)>(%c0_5)
      %356 = affine.load %alloca[%arg3, %arg4, %355] : memref<1x4x8xf32>
      %357 = affine.load %alloca_9[%arg3, %355, %331] : memref<1x8x4xf32>
      %358 = affine.load %alloca_10[%arg3, %arg4, %331] : memref<1x4x4xf32>
      %359 = arith.mulf %356, %357 : f32
      %360 = arith.addf %358, %359 : f32
      affine.store %360, %alloca_10[%arg3, %arg4, %331] : memref<1x4x4xf32>
      %361 = affine.apply affine_map<(d0) -> (d0 + 5)>(%c0_5)
      %362 = affine.load %alloca[%arg3, %arg4, %361] : memref<1x4x8xf32>
      %363 = affine.load %alloca_9[%arg3, %361, %331] : memref<1x8x4xf32>
      %364 = affine.load %alloca_10[%arg3, %arg4, %331] : memref<1x4x4xf32>
      %365 = arith.mulf %362, %363 : f32
      %366 = arith.addf %364, %365 : f32
      affine.store %366, %alloca_10[%arg3, %arg4, %331] : memref<1x4x4xf32>
      %367 = affine.apply affine_map<(d0) -> (d0 + 6)>(%c0_5)
      %368 = affine.load %alloca[%arg3, %arg4, %367] : memref<1x4x8xf32>
      %369 = affine.load %alloca_9[%arg3, %367, %331] : memref<1x8x4xf32>
      %370 = affine.load %alloca_10[%arg3, %arg4, %331] : memref<1x4x4xf32>
      %371 = arith.mulf %368, %369 : f32
      %372 = arith.addf %370, %371 : f32
      affine.store %372, %alloca_10[%arg3, %arg4, %331] : memref<1x4x4xf32>
      %373 = affine.apply affine_map<(d0) -> (d0 + 7)>(%c0_5)
      %374 = affine.load %alloca[%arg3, %arg4, %373] : memref<1x4x8xf32>
      %375 = affine.load %alloca_9[%arg3, %373, %331] : memref<1x8x4xf32>
      %376 = affine.load %alloca_10[%arg3, %arg4, %331] : memref<1x4x4xf32>
      %377 = arith.mulf %374, %375 : f32
      %378 = arith.addf %376, %377 : f32
      affine.store %378, %alloca_10[%arg3, %arg4, %331] : memref<1x4x4xf32>
    }
  }
  %157 = affine.load %alloca_10[0, %c0, %c0_4] : memref<1x4x4xf32>
  affine.store %157, %arg2[0, %c0, %c0_4] : memref<1x4x4xf32>
  %158 = affine.apply affine_map<(d0) -> (d0 + 1)>(%c0_4)
  %159 = affine.load %alloca_10[0, %c0, %158] : memref<1x4x4xf32>
  affine.store %159, %arg2[0, %c0, %158] : memref<1x4x4xf32>
  %160 = affine.apply affine_map<(d0) -> (d0 + 2)>(%c0_4)
  %161 = affine.load %alloca_10[0, %c0, %160] : memref<1x4x4xf32>
  affine.store %161, %arg2[0, %c0, %160] : memref<1x4x4xf32>
  %162 = affine.apply affine_map<(d0) -> (d0 + 3)>(%c0_4)
  %163 = affine.load %alloca_10[0, %c0, %162] : memref<1x4x4xf32>
  affine.store %163, %arg2[0, %c0, %162] : memref<1x4x4xf32>
  %164 = affine.apply affine_map<(d0) -> (d0 + 1)>(%c0)
  %165 = affine.load %alloca_10[0, %164, %c0_4] : memref<1x4x4xf32>
  affine.store %165, %arg2[0, %164, %c0_4] : memref<1x4x4xf32>
  %166 = affine.apply affine_map<(d0) -> (d0 + 1)>(%c0_4)
  %167 = affine.load %alloca_10[0, %164, %166] : memref<1x4x4xf32>
  affine.store %167, %arg2[0, %164, %166] : memref<1x4x4xf32>
  %168 = affine.apply affine_map<(d0) -> (d0 + 2)>(%c0_4)
  %169 = affine.load %alloca_10[0, %164, %168] : memref<1x4x4xf32>
  affine.store %169, %arg2[0, %164, %168] : memref<1x4x4xf32>
  %170 = affine.apply affine_map<(d0) -> (d0 + 3)>(%c0_4)
  %171 = affine.load %alloca_10[0, %164, %170] : memref<1x4x4xf32>
  affine.store %171, %arg2[0, %164, %170] : memref<1x4x4xf32>
  %172 = affine.apply affine_map<(d0) -> (d0 + 2)>(%c0)
  %173 = affine.load %alloca_10[0, %172, %c0_4] : memref<1x4x4xf32>
  affine.store %173, %arg2[0, %172, %c0_4] : memref<1x4x4xf32>
  %174 = affine.apply affine_map<(d0) -> (d0 + 1)>(%c0_4)
  %175 = affine.load %alloca_10[0, %172, %174] : memref<1x4x4xf32>
  affine.store %175, %arg2[0, %172, %174] : memref<1x4x4xf32>
  %176 = affine.apply affine_map<(d0) -> (d0 + 2)>(%c0_4)
  %177 = affine.load %alloca_10[0, %172, %176] : memref<1x4x4xf32>
  affine.store %177, %arg2[0, %172, %176] : memref<1x4x4xf32>
  %178 = affine.apply affine_map<(d0) -> (d0 + 3)>(%c0_4)
  %179 = affine.load %alloca_10[0, %172, %178] : memref<1x4x4xf32>
  affine.store %179, %arg2[0, %172, %178] : memref<1x4x4xf32>
  %180 = affine.apply affine_map<(d0) -> (d0 + 3)>(%c0)
  %181 = affine.load %alloca_10[0, %180, %c0_4] : memref<1x4x4xf32>
  affine.store %181, %arg2[0, %180, %c0_4] : memref<1x4x4xf32>
  %182 = affine.apply affine_map<(d0) -> (d0 + 1)>(%c0_4)
  %183 = affine.load %alloca_10[0, %180, %182] : memref<1x4x4xf32>
  affine.store %183, %arg2[0, %180, %182] : memref<1x4x4xf32>
  %184 = affine.apply affine_map<(d0) -> (d0 + 2)>(%c0_4)
  %185 = affine.load %alloca_10[0, %180, %184] : memref<1x4x4xf32>
  affine.store %185, %arg2[0, %180, %184] : memref<1x4x4xf32>
  %186 = affine.apply affine_map<(d0) -> (d0 + 3)>(%c0_4)
  %187 = affine.load %alloca_10[0, %180, %186] : memref<1x4x4xf32>
  affine.store %187, %arg2[0, %180, %186] : memref<1x4x4xf32>
  return
}

// -----// IR Dump After AffineLoopUnroll (affine-loop-unroll) //----- //
func.func @main_kernel(%arg0: memref<1x4x8xf32> {llvm.noalias}, %arg1: memref<1x8x4xf32> {llvm.noalias}, %arg2: memref<1x4x4xf32> {llvm.noalias}) {
  %c0 = arith.constant 0 : index
  %c0_0 = arith.constant 0 : index
  %c0_1 = arith.constant 0 : index
  %c0_2 = arith.constant 0 : index
  %c0_3 = arith.constant 0 : index
  %c0_4 = arith.constant 0 : index
  %c0_5 = arith.constant 0 : index
  %c0_6 = arith.constant 0 : index
  %c0_7 = arith.constant 0 : index
  %c0_8 = arith.constant 0 : index
  %c0_9 = arith.constant 0 : index
  cf.br ^bb1
^bb1:  // pred: ^bb0
  %alloca = memref.alloca() : memref<1x4x8xf32>
  %0 = affine.load %arg0[0, %c0_4, %c0_9] : memref<1x4x8xf32>
  affine.store %0, %alloca[0, %c0_4, %c0_9] : memref<1x4x8xf32>
  %1 = affine.apply affine_map<(d0) -> (d0 + 1)>(%c0_9)
  %2 = affine.load %arg0[0, %c0_4, %1] : memref<1x4x8xf32>
  affine.store %2, %alloca[0, %c0_4, %1] : memref<1x4x8xf32>
  %3 = affine.apply affine_map<(d0) -> (d0 + 2)>(%c0_9)
  %4 = affine.load %arg0[0, %c0_4, %3] : memref<1x4x8xf32>
  affine.store %4, %alloca[0, %c0_4, %3] : memref<1x4x8xf32>
  %5 = affine.apply affine_map<(d0) -> (d0 + 3)>(%c0_9)
  %6 = affine.load %arg0[0, %c0_4, %5] : memref<1x4x8xf32>
  affine.store %6, %alloca[0, %c0_4, %5] : memref<1x4x8xf32>
  %7 = affine.apply affine_map<(d0) -> (d0 + 4)>(%c0_9)
  %8 = affine.load %arg0[0, %c0_4, %7] : memref<1x4x8xf32>
  affine.store %8, %alloca[0, %c0_4, %7] : memref<1x4x8xf32>
  %9 = affine.apply affine_map<(d0) -> (d0 + 5)>(%c0_9)
  %10 = affine.load %arg0[0, %c0_4, %9] : memref<1x4x8xf32>
  affine.store %10, %alloca[0, %c0_4, %9] : memref<1x4x8xf32>
  %11 = affine.apply affine_map<(d0) -> (d0 + 6)>(%c0_9)
  %12 = affine.load %arg0[0, %c0_4, %11] : memref<1x4x8xf32>
  affine.store %12, %alloca[0, %c0_4, %11] : memref<1x4x8xf32>
  %13 = affine.apply affine_map<(d0) -> (d0 + 7)>(%c0_9)
  %14 = affine.load %arg0[0, %c0_4, %13] : memref<1x4x8xf32>
  affine.store %14, %alloca[0, %c0_4, %13] : memref<1x4x8xf32>
  %15 = affine.apply affine_map<(d0) -> (d0 + 1)>(%c0_4)
  %16 = affine.load %arg0[0, %15, %c0_9] : memref<1x4x8xf32>
  affine.store %16, %alloca[0, %15, %c0_9] : memref<1x4x8xf32>
  %17 = affine.apply affine_map<(d0) -> (d0 + 1)>(%c0_9)
  %18 = affine.load %arg0[0, %15, %17] : memref<1x4x8xf32>
  affine.store %18, %alloca[0, %15, %17] : memref<1x4x8xf32>
  %19 = affine.apply affine_map<(d0) -> (d0 + 2)>(%c0_9)
  %20 = affine.load %arg0[0, %15, %19] : memref<1x4x8xf32>
  affine.store %20, %alloca[0, %15, %19] : memref<1x4x8xf32>
  %21 = affine.apply affine_map<(d0) -> (d0 + 3)>(%c0_9)
  %22 = affine.load %arg0[0, %15, %21] : memref<1x4x8xf32>
  affine.store %22, %alloca[0, %15, %21] : memref<1x4x8xf32>
  %23 = affine.apply affine_map<(d0) -> (d0 + 4)>(%c0_9)
  %24 = affine.load %arg0[0, %15, %23] : memref<1x4x8xf32>
  affine.store %24, %alloca[0, %15, %23] : memref<1x4x8xf32>
  %25 = affine.apply affine_map<(d0) -> (d0 + 5)>(%c0_9)
  %26 = affine.load %arg0[0, %15, %25] : memref<1x4x8xf32>
  affine.store %26, %alloca[0, %15, %25] : memref<1x4x8xf32>
  %27 = affine.apply affine_map<(d0) -> (d0 + 6)>(%c0_9)
  %28 = affine.load %arg0[0, %15, %27] : memref<1x4x8xf32>
  affine.store %28, %alloca[0, %15, %27] : memref<1x4x8xf32>
  %29 = affine.apply affine_map<(d0) -> (d0 + 7)>(%c0_9)
  %30 = affine.load %arg0[0, %15, %29] : memref<1x4x8xf32>
  affine.store %30, %alloca[0, %15, %29] : memref<1x4x8xf32>
  %31 = affine.apply affine_map<(d0) -> (d0 + 2)>(%c0_4)
  %32 = affine.load %arg0[0, %31, %c0_9] : memref<1x4x8xf32>
  affine.store %32, %alloca[0, %31, %c0_9] : memref<1x4x8xf32>
  %33 = affine.apply affine_map<(d0) -> (d0 + 1)>(%c0_9)
  %34 = affine.load %arg0[0, %31, %33] : memref<1x4x8xf32>
  affine.store %34, %alloca[0, %31, %33] : memref<1x4x8xf32>
  %35 = affine.apply affine_map<(d0) -> (d0 + 2)>(%c0_9)
  %36 = affine.load %arg0[0, %31, %35] : memref<1x4x8xf32>
  affine.store %36, %alloca[0, %31, %35] : memref<1x4x8xf32>
  %37 = affine.apply affine_map<(d0) -> (d0 + 3)>(%c0_9)
  %38 = affine.load %arg0[0, %31, %37] : memref<1x4x8xf32>
  affine.store %38, %alloca[0, %31, %37] : memref<1x4x8xf32>
  %39 = affine.apply affine_map<(d0) -> (d0 + 4)>(%c0_9)
  %40 = affine.load %arg0[0, %31, %39] : memref<1x4x8xf32>
  affine.store %40, %alloca[0, %31, %39] : memref<1x4x8xf32>
  %41 = affine.apply affine_map<(d0) -> (d0 + 5)>(%c0_9)
  %42 = affine.load %arg0[0, %31, %41] : memref<1x4x8xf32>
  affine.store %42, %alloca[0, %31, %41] : memref<1x4x8xf32>
  %43 = affine.apply affine_map<(d0) -> (d0 + 6)>(%c0_9)
  %44 = affine.load %arg0[0, %31, %43] : memref<1x4x8xf32>
  affine.store %44, %alloca[0, %31, %43] : memref<1x4x8xf32>
  %45 = affine.apply affine_map<(d0) -> (d0 + 7)>(%c0_9)
  %46 = affine.load %arg0[0, %31, %45] : memref<1x4x8xf32>
  affine.store %46, %alloca[0, %31, %45] : memref<1x4x8xf32>
  %47 = affine.apply affine_map<(d0) -> (d0 + 3)>(%c0_4)
  %48 = affine.load %arg0[0, %47, %c0_9] : memref<1x4x8xf32>
  affine.store %48, %alloca[0, %47, %c0_9] : memref<1x4x8xf32>
  %49 = affine.apply affine_map<(d0) -> (d0 + 1)>(%c0_9)
  %50 = affine.load %arg0[0, %47, %49] : memref<1x4x8xf32>
  affine.store %50, %alloca[0, %47, %49] : memref<1x4x8xf32>
  %51 = affine.apply affine_map<(d0) -> (d0 + 2)>(%c0_9)
  %52 = affine.load %arg0[0, %47, %51] : memref<1x4x8xf32>
  affine.store %52, %alloca[0, %47, %51] : memref<1x4x8xf32>
  %53 = affine.apply affine_map<(d0) -> (d0 + 3)>(%c0_9)
  %54 = affine.load %arg0[0, %47, %53] : memref<1x4x8xf32>
  affine.store %54, %alloca[0, %47, %53] : memref<1x4x8xf32>
  %55 = affine.apply affine_map<(d0) -> (d0 + 4)>(%c0_9)
  %56 = affine.load %arg0[0, %47, %55] : memref<1x4x8xf32>
  affine.store %56, %alloca[0, %47, %55] : memref<1x4x8xf32>
  %57 = affine.apply affine_map<(d0) -> (d0 + 5)>(%c0_9)
  %58 = affine.load %arg0[0, %47, %57] : memref<1x4x8xf32>
  affine.store %58, %alloca[0, %47, %57] : memref<1x4x8xf32>
  %59 = affine.apply affine_map<(d0) -> (d0 + 6)>(%c0_9)
  %60 = affine.load %arg0[0, %47, %59] : memref<1x4x8xf32>
  affine.store %60, %alloca[0, %47, %59] : memref<1x4x8xf32>
  %61 = affine.apply affine_map<(d0) -> (d0 + 7)>(%c0_9)
  %62 = affine.load %arg0[0, %47, %61] : memref<1x4x8xf32>
  affine.store %62, %alloca[0, %47, %61] : memref<1x4x8xf32>
  %alloca_10 = memref.alloca() : memref<1x8x4xf32>
  %63 = affine.load %arg1[0, %c0_3, %c0_8] : memref<1x8x4xf32>
  affine.store %63, %alloca_10[0, %c0_3, %c0_8] : memref<1x8x4xf32>
  %64 = affine.apply affine_map<(d0) -> (d0 + 1)>(%c0_8)
  %65 = affine.load %arg1[0, %c0_3, %64] : memref<1x8x4xf32>
  affine.store %65, %alloca_10[0, %c0_3, %64] : memref<1x8x4xf32>
  %66 = affine.apply affine_map<(d0) -> (d0 + 2)>(%c0_8)
  %67 = affine.load %arg1[0, %c0_3, %66] : memref<1x8x4xf32>
  affine.store %67, %alloca_10[0, %c0_3, %66] : memref<1x8x4xf32>
  %68 = affine.apply affine_map<(d0) -> (d0 + 3)>(%c0_8)
  %69 = affine.load %arg1[0, %c0_3, %68] : memref<1x8x4xf32>
  affine.store %69, %alloca_10[0, %c0_3, %68] : memref<1x8x4xf32>
  %70 = affine.apply affine_map<(d0) -> (d0 + 1)>(%c0_3)
  %71 = affine.load %arg1[0, %70, %c0_8] : memref<1x8x4xf32>
  affine.store %71, %alloca_10[0, %70, %c0_8] : memref<1x8x4xf32>
  %72 = affine.apply affine_map<(d0) -> (d0 + 1)>(%c0_8)
  %73 = affine.load %arg1[0, %70, %72] : memref<1x8x4xf32>
  affine.store %73, %alloca_10[0, %70, %72] : memref<1x8x4xf32>
  %74 = affine.apply affine_map<(d0) -> (d0 + 2)>(%c0_8)
  %75 = affine.load %arg1[0, %70, %74] : memref<1x8x4xf32>
  affine.store %75, %alloca_10[0, %70, %74] : memref<1x8x4xf32>
  %76 = affine.apply affine_map<(d0) -> (d0 + 3)>(%c0_8)
  %77 = affine.load %arg1[0, %70, %76] : memref<1x8x4xf32>
  affine.store %77, %alloca_10[0, %70, %76] : memref<1x8x4xf32>
  %78 = affine.apply affine_map<(d0) -> (d0 + 2)>(%c0_3)
  %79 = affine.load %arg1[0, %78, %c0_8] : memref<1x8x4xf32>
  affine.store %79, %alloca_10[0, %78, %c0_8] : memref<1x8x4xf32>
  %80 = affine.apply affine_map<(d0) -> (d0 + 1)>(%c0_8)
  %81 = affine.load %arg1[0, %78, %80] : memref<1x8x4xf32>
  affine.store %81, %alloca_10[0, %78, %80] : memref<1x8x4xf32>
  %82 = affine.apply affine_map<(d0) -> (d0 + 2)>(%c0_8)
  %83 = affine.load %arg1[0, %78, %82] : memref<1x8x4xf32>
  affine.store %83, %alloca_10[0, %78, %82] : memref<1x8x4xf32>
  %84 = affine.apply affine_map<(d0) -> (d0 + 3)>(%c0_8)
  %85 = affine.load %arg1[0, %78, %84] : memref<1x8x4xf32>
  affine.store %85, %alloca_10[0, %78, %84] : memref<1x8x4xf32>
  %86 = affine.apply affine_map<(d0) -> (d0 + 3)>(%c0_3)
  %87 = affine.load %arg1[0, %86, %c0_8] : memref<1x8x4xf32>
  affine.store %87, %alloca_10[0, %86, %c0_8] : memref<1x8x4xf32>
  %88 = affine.apply affine_map<(d0) -> (d0 + 1)>(%c0_8)
  %89 = affine.load %arg1[0, %86, %88] : memref<1x8x4xf32>
  affine.store %89, %alloca_10[0, %86, %88] : memref<1x8x4xf32>
  %90 = affine.apply affine_map<(d0) -> (d0 + 2)>(%c0_8)
  %91 = affine.load %arg1[0, %86, %90] : memref<1x8x4xf32>
  affine.store %91, %alloca_10[0, %86, %90] : memref<1x8x4xf32>
  %92 = affine.apply affine_map<(d0) -> (d0 + 3)>(%c0_8)
  %93 = affine.load %arg1[0, %86, %92] : memref<1x8x4xf32>
  affine.store %93, %alloca_10[0, %86, %92] : memref<1x8x4xf32>
  %94 = affine.apply affine_map<(d0) -> (d0 + 4)>(%c0_3)
  %95 = affine.load %arg1[0, %94, %c0_8] : memref<1x8x4xf32>
  affine.store %95, %alloca_10[0, %94, %c0_8] : memref<1x8x4xf32>
  %96 = affine.apply affine_map<(d0) -> (d0 + 1)>(%c0_8)
  %97 = affine.load %arg1[0, %94, %96] : memref<1x8x4xf32>
  affine.store %97, %alloca_10[0, %94, %96] : memref<1x8x4xf32>
  %98 = affine.apply affine_map<(d0) -> (d0 + 2)>(%c0_8)
  %99 = affine.load %arg1[0, %94, %98] : memref<1x8x4xf32>
  affine.store %99, %alloca_10[0, %94, %98] : memref<1x8x4xf32>
  %100 = affine.apply affine_map<(d0) -> (d0 + 3)>(%c0_8)
  %101 = affine.load %arg1[0, %94, %100] : memref<1x8x4xf32>
  affine.store %101, %alloca_10[0, %94, %100] : memref<1x8x4xf32>
  %102 = affine.apply affine_map<(d0) -> (d0 + 5)>(%c0_3)
  %103 = affine.load %arg1[0, %102, %c0_8] : memref<1x8x4xf32>
  affine.store %103, %alloca_10[0, %102, %c0_8] : memref<1x8x4xf32>
  %104 = affine.apply affine_map<(d0) -> (d0 + 1)>(%c0_8)
  %105 = affine.load %arg1[0, %102, %104] : memref<1x8x4xf32>
  affine.store %105, %alloca_10[0, %102, %104] : memref<1x8x4xf32>
  %106 = affine.apply affine_map<(d0) -> (d0 + 2)>(%c0_8)
  %107 = affine.load %arg1[0, %102, %106] : memref<1x8x4xf32>
  affine.store %107, %alloca_10[0, %102, %106] : memref<1x8x4xf32>
  %108 = affine.apply affine_map<(d0) -> (d0 + 3)>(%c0_8)
  %109 = affine.load %arg1[0, %102, %108] : memref<1x8x4xf32>
  affine.store %109, %alloca_10[0, %102, %108] : memref<1x8x4xf32>
  %110 = affine.apply affine_map<(d0) -> (d0 + 6)>(%c0_3)
  %111 = affine.load %arg1[0, %110, %c0_8] : memref<1x8x4xf32>
  affine.store %111, %alloca_10[0, %110, %c0_8] : memref<1x8x4xf32>
  %112 = affine.apply affine_map<(d0) -> (d0 + 1)>(%c0_8)
  %113 = affine.load %arg1[0, %110, %112] : memref<1x8x4xf32>
  affine.store %113, %alloca_10[0, %110, %112] : memref<1x8x4xf32>
  %114 = affine.apply affine_map<(d0) -> (d0 + 2)>(%c0_8)
  %115 = affine.load %arg1[0, %110, %114] : memref<1x8x4xf32>
  affine.store %115, %alloca_10[0, %110, %114] : memref<1x8x4xf32>
  %116 = affine.apply affine_map<(d0) -> (d0 + 3)>(%c0_8)
  %117 = affine.load %arg1[0, %110, %116] : memref<1x8x4xf32>
  affine.store %117, %alloca_10[0, %110, %116] : memref<1x8x4xf32>
  %118 = affine.apply affine_map<(d0) -> (d0 + 7)>(%c0_3)
  %119 = affine.load %arg1[0, %118, %c0_8] : memref<1x8x4xf32>
  affine.store %119, %alloca_10[0, %118, %c0_8] : memref<1x8x4xf32>
  %120 = affine.apply affine_map<(d0) -> (d0 + 1)>(%c0_8)
  %121 = affine.load %arg1[0, %118, %120] : memref<1x8x4xf32>
  affine.store %121, %alloca_10[0, %118, %120] : memref<1x8x4xf32>
  %122 = affine.apply affine_map<(d0) -> (d0 + 2)>(%c0_8)
  %123 = affine.load %arg1[0, %118, %122] : memref<1x8x4xf32>
  affine.store %123, %alloca_10[0, %118, %122] : memref<1x8x4xf32>
  %124 = affine.apply affine_map<(d0) -> (d0 + 3)>(%c0_8)
  %125 = affine.load %arg1[0, %118, %124] : memref<1x8x4xf32>
  affine.store %125, %alloca_10[0, %118, %124] : memref<1x8x4xf32>
  %alloca_11 = memref.alloca() : memref<1x4x4xf32>
  %126 = affine.load %arg2[0, %c0_2, %c0_7] : memref<1x4x4xf32>
  affine.store %126, %alloca_11[0, %c0_2, %c0_7] : memref<1x4x4xf32>
  %127 = affine.apply affine_map<(d0) -> (d0 + 1)>(%c0_7)
  %128 = affine.load %arg2[0, %c0_2, %127] : memref<1x4x4xf32>
  affine.store %128, %alloca_11[0, %c0_2, %127] : memref<1x4x4xf32>
  %129 = affine.apply affine_map<(d0) -> (d0 + 2)>(%c0_7)
  %130 = affine.load %arg2[0, %c0_2, %129] : memref<1x4x4xf32>
  affine.store %130, %alloca_11[0, %c0_2, %129] : memref<1x4x4xf32>
  %131 = affine.apply affine_map<(d0) -> (d0 + 3)>(%c0_7)
  %132 = affine.load %arg2[0, %c0_2, %131] : memref<1x4x4xf32>
  affine.store %132, %alloca_11[0, %c0_2, %131] : memref<1x4x4xf32>
  %133 = affine.apply affine_map<(d0) -> (d0 + 1)>(%c0_2)
  %134 = affine.load %arg2[0, %133, %c0_7] : memref<1x4x4xf32>
  affine.store %134, %alloca_11[0, %133, %c0_7] : memref<1x4x4xf32>
  %135 = affine.apply affine_map<(d0) -> (d0 + 1)>(%c0_7)
  %136 = affine.load %arg2[0, %133, %135] : memref<1x4x4xf32>
  affine.store %136, %alloca_11[0, %133, %135] : memref<1x4x4xf32>
  %137 = affine.apply affine_map<(d0) -> (d0 + 2)>(%c0_7)
  %138 = affine.load %arg2[0, %133, %137] : memref<1x4x4xf32>
  affine.store %138, %alloca_11[0, %133, %137] : memref<1x4x4xf32>
  %139 = affine.apply affine_map<(d0) -> (d0 + 3)>(%c0_7)
  %140 = affine.load %arg2[0, %133, %139] : memref<1x4x4xf32>
  affine.store %140, %alloca_11[0, %133, %139] : memref<1x4x4xf32>
  %141 = affine.apply affine_map<(d0) -> (d0 + 2)>(%c0_2)
  %142 = affine.load %arg2[0, %141, %c0_7] : memref<1x4x4xf32>
  affine.store %142, %alloca_11[0, %141, %c0_7] : memref<1x4x4xf32>
  %143 = affine.apply affine_map<(d0) -> (d0 + 1)>(%c0_7)
  %144 = affine.load %arg2[0, %141, %143] : memref<1x4x4xf32>
  affine.store %144, %alloca_11[0, %141, %143] : memref<1x4x4xf32>
  %145 = affine.apply affine_map<(d0) -> (d0 + 2)>(%c0_7)
  %146 = affine.load %arg2[0, %141, %145] : memref<1x4x4xf32>
  affine.store %146, %alloca_11[0, %141, %145] : memref<1x4x4xf32>
  %147 = affine.apply affine_map<(d0) -> (d0 + 3)>(%c0_7)
  %148 = affine.load %arg2[0, %141, %147] : memref<1x4x4xf32>
  affine.store %148, %alloca_11[0, %141, %147] : memref<1x4x4xf32>
  %149 = affine.apply affine_map<(d0) -> (d0 + 3)>(%c0_2)
  %150 = affine.load %arg2[0, %149, %c0_7] : memref<1x4x4xf32>
  affine.store %150, %alloca_11[0, %149, %c0_7] : memref<1x4x4xf32>
  %151 = affine.apply affine_map<(d0) -> (d0 + 1)>(%c0_7)
  %152 = affine.load %arg2[0, %149, %151] : memref<1x4x4xf32>
  affine.store %152, %alloca_11[0, %149, %151] : memref<1x4x4xf32>
  %153 = affine.apply affine_map<(d0) -> (d0 + 2)>(%c0_7)
  %154 = affine.load %arg2[0, %149, %153] : memref<1x4x4xf32>
  affine.store %154, %alloca_11[0, %149, %153] : memref<1x4x4xf32>
  %155 = affine.apply affine_map<(d0) -> (d0 + 3)>(%c0_7)
  %156 = affine.load %arg2[0, %149, %155] : memref<1x4x4xf32>
  affine.store %156, %alloca_11[0, %149, %155] : memref<1x4x4xf32>
  affine.for %arg3 = 0 to 1 {
    %188 = affine.load %alloca[%arg3, %c0, %c0_6] : memref<1x4x8xf32>
    %189 = affine.load %alloca_10[%arg3, %c0_6, %c0_1] : memref<1x8x4xf32>
    %190 = affine.load %alloca_11[%arg3, %c0, %c0_1] : memref<1x4x4xf32>
    %191 = arith.mulf %188, %189 : f32
    %192 = arith.addf %190, %191 : f32
    affine.store %192, %alloca_11[%arg3, %c0, %c0_1] : memref<1x4x4xf32>
    %193 = affine.apply affine_map<(d0) -> (d0 + 1)>(%c0_6)
    %194 = affine.load %alloca[%arg3, %c0, %193] : memref<1x4x8xf32>
    %195 = affine.load %alloca_10[%arg3, %193, %c0_1] : memref<1x8x4xf32>
    %196 = affine.load %alloca_11[%arg3, %c0, %c0_1] : memref<1x4x4xf32>
    %197 = arith.mulf %194, %195 : f32
    %198 = arith.addf %196, %197 : f32
    affine.store %198, %alloca_11[%arg3, %c0, %c0_1] : memref<1x4x4xf32>
    %199 = affine.apply affine_map<(d0) -> (d0 + 2)>(%c0_6)
    %200 = affine.load %alloca[%arg3, %c0, %199] : memref<1x4x8xf32>
    %201 = affine.load %alloca_10[%arg3, %199, %c0_1] : memref<1x8x4xf32>
    %202 = affine.load %alloca_11[%arg3, %c0, %c0_1] : memref<1x4x4xf32>
    %203 = arith.mulf %200, %201 : f32
    %204 = arith.addf %202, %203 : f32
    affine.store %204, %alloca_11[%arg3, %c0, %c0_1] : memref<1x4x4xf32>
    %205 = affine.apply affine_map<(d0) -> (d0 + 3)>(%c0_6)
    %206 = affine.load %alloca[%arg3, %c0, %205] : memref<1x4x8xf32>
    %207 = affine.load %alloca_10[%arg3, %205, %c0_1] : memref<1x8x4xf32>
    %208 = affine.load %alloca_11[%arg3, %c0, %c0_1] : memref<1x4x4xf32>
    %209 = arith.mulf %206, %207 : f32
    %210 = arith.addf %208, %209 : f32
    affine.store %210, %alloca_11[%arg3, %c0, %c0_1] : memref<1x4x4xf32>
    %211 = affine.apply affine_map<(d0) -> (d0 + 4)>(%c0_6)
    %212 = affine.load %alloca[%arg3, %c0, %211] : memref<1x4x8xf32>
    %213 = affine.load %alloca_10[%arg3, %211, %c0_1] : memref<1x8x4xf32>
    %214 = affine.load %alloca_11[%arg3, %c0, %c0_1] : memref<1x4x4xf32>
    %215 = arith.mulf %212, %213 : f32
    %216 = arith.addf %214, %215 : f32
    affine.store %216, %alloca_11[%arg3, %c0, %c0_1] : memref<1x4x4xf32>
    %217 = affine.apply affine_map<(d0) -> (d0 + 5)>(%c0_6)
    %218 = affine.load %alloca[%arg3, %c0, %217] : memref<1x4x8xf32>
    %219 = affine.load %alloca_10[%arg3, %217, %c0_1] : memref<1x8x4xf32>
    %220 = affine.load %alloca_11[%arg3, %c0, %c0_1] : memref<1x4x4xf32>
    %221 = arith.mulf %218, %219 : f32
    %222 = arith.addf %220, %221 : f32
    affine.store %222, %alloca_11[%arg3, %c0, %c0_1] : memref<1x4x4xf32>
    %223 = affine.apply affine_map<(d0) -> (d0 + 6)>(%c0_6)
    %224 = affine.load %alloca[%arg3, %c0, %223] : memref<1x4x8xf32>
    %225 = affine.load %alloca_10[%arg3, %223, %c0_1] : memref<1x8x4xf32>
    %226 = affine.load %alloca_11[%arg3, %c0, %c0_1] : memref<1x4x4xf32>
    %227 = arith.mulf %224, %225 : f32
    %228 = arith.addf %226, %227 : f32
    affine.store %228, %alloca_11[%arg3, %c0, %c0_1] : memref<1x4x4xf32>
    %229 = affine.apply affine_map<(d0) -> (d0 + 7)>(%c0_6)
    %230 = affine.load %alloca[%arg3, %c0, %229] : memref<1x4x8xf32>
    %231 = affine.load %alloca_10[%arg3, %229, %c0_1] : memref<1x8x4xf32>
    %232 = affine.load %alloca_11[%arg3, %c0, %c0_1] : memref<1x4x4xf32>
    %233 = arith.mulf %230, %231 : f32
    %234 = arith.addf %232, %233 : f32
    affine.store %234, %alloca_11[%arg3, %c0, %c0_1] : memref<1x4x4xf32>
    %235 = affine.apply affine_map<(d0) -> (d0 + 1)>(%c0_1)
    %236 = affine.load %alloca[%arg3, %c0, %c0_6] : memref<1x4x8xf32>
    %237 = affine.load %alloca_10[%arg3, %c0_6, %235] : memref<1x8x4xf32>
    %238 = affine.load %alloca_11[%arg3, %c0, %235] : memref<1x4x4xf32>
    %239 = arith.mulf %236, %237 : f32
    %240 = arith.addf %238, %239 : f32
    affine.store %240, %alloca_11[%arg3, %c0, %235] : memref<1x4x4xf32>
    %241 = affine.apply affine_map<(d0) -> (d0 + 1)>(%c0_6)
    %242 = affine.load %alloca[%arg3, %c0, %241] : memref<1x4x8xf32>
    %243 = affine.load %alloca_10[%arg3, %241, %235] : memref<1x8x4xf32>
    %244 = affine.load %alloca_11[%arg3, %c0, %235] : memref<1x4x4xf32>
    %245 = arith.mulf %242, %243 : f32
    %246 = arith.addf %244, %245 : f32
    affine.store %246, %alloca_11[%arg3, %c0, %235] : memref<1x4x4xf32>
    %247 = affine.apply affine_map<(d0) -> (d0 + 2)>(%c0_6)
    %248 = affine.load %alloca[%arg3, %c0, %247] : memref<1x4x8xf32>
    %249 = affine.load %alloca_10[%arg3, %247, %235] : memref<1x8x4xf32>
    %250 = affine.load %alloca_11[%arg3, %c0, %235] : memref<1x4x4xf32>
    %251 = arith.mulf %248, %249 : f32
    %252 = arith.addf %250, %251 : f32
    affine.store %252, %alloca_11[%arg3, %c0, %235] : memref<1x4x4xf32>
    %253 = affine.apply affine_map<(d0) -> (d0 + 3)>(%c0_6)
    %254 = affine.load %alloca[%arg3, %c0, %253] : memref<1x4x8xf32>
    %255 = affine.load %alloca_10[%arg3, %253, %235] : memref<1x8x4xf32>
    %256 = affine.load %alloca_11[%arg3, %c0, %235] : memref<1x4x4xf32>
    %257 = arith.mulf %254, %255 : f32
    %258 = arith.addf %256, %257 : f32
    affine.store %258, %alloca_11[%arg3, %c0, %235] : memref<1x4x4xf32>
    %259 = affine.apply affine_map<(d0) -> (d0 + 4)>(%c0_6)
    %260 = affine.load %alloca[%arg3, %c0, %259] : memref<1x4x8xf32>
    %261 = affine.load %alloca_10[%arg3, %259, %235] : memref<1x8x4xf32>
    %262 = affine.load %alloca_11[%arg3, %c0, %235] : memref<1x4x4xf32>
    %263 = arith.mulf %260, %261 : f32
    %264 = arith.addf %262, %263 : f32
    affine.store %264, %alloca_11[%arg3, %c0, %235] : memref<1x4x4xf32>
    %265 = affine.apply affine_map<(d0) -> (d0 + 5)>(%c0_6)
    %266 = affine.load %alloca[%arg3, %c0, %265] : memref<1x4x8xf32>
    %267 = affine.load %alloca_10[%arg3, %265, %235] : memref<1x8x4xf32>
    %268 = affine.load %alloca_11[%arg3, %c0, %235] : memref<1x4x4xf32>
    %269 = arith.mulf %266, %267 : f32
    %270 = arith.addf %268, %269 : f32
    affine.store %270, %alloca_11[%arg3, %c0, %235] : memref<1x4x4xf32>
    %271 = affine.apply affine_map<(d0) -> (d0 + 6)>(%c0_6)
    %272 = affine.load %alloca[%arg3, %c0, %271] : memref<1x4x8xf32>
    %273 = affine.load %alloca_10[%arg3, %271, %235] : memref<1x8x4xf32>
    %274 = affine.load %alloca_11[%arg3, %c0, %235] : memref<1x4x4xf32>
    %275 = arith.mulf %272, %273 : f32
    %276 = arith.addf %274, %275 : f32
    affine.store %276, %alloca_11[%arg3, %c0, %235] : memref<1x4x4xf32>
    %277 = affine.apply affine_map<(d0) -> (d0 + 7)>(%c0_6)
    %278 = affine.load %alloca[%arg3, %c0, %277] : memref<1x4x8xf32>
    %279 = affine.load %alloca_10[%arg3, %277, %235] : memref<1x8x4xf32>
    %280 = affine.load %alloca_11[%arg3, %c0, %235] : memref<1x4x4xf32>
    %281 = arith.mulf %278, %279 : f32
    %282 = arith.addf %280, %281 : f32
    affine.store %282, %alloca_11[%arg3, %c0, %235] : memref<1x4x4xf32>
    %283 = affine.apply affine_map<(d0) -> (d0 + 2)>(%c0_1)
    %284 = affine.load %alloca[%arg3, %c0, %c0_6] : memref<1x4x8xf32>
    %285 = affine.load %alloca_10[%arg3, %c0_6, %283] : memref<1x8x4xf32>
    %286 = affine.load %alloca_11[%arg3, %c0, %283] : memref<1x4x4xf32>
    %287 = arith.mulf %284, %285 : f32
    %288 = arith.addf %286, %287 : f32
    affine.store %288, %alloca_11[%arg3, %c0, %283] : memref<1x4x4xf32>
    %289 = affine.apply affine_map<(d0) -> (d0 + 1)>(%c0_6)
    %290 = affine.load %alloca[%arg3, %c0, %289] : memref<1x4x8xf32>
    %291 = affine.load %alloca_10[%arg3, %289, %283] : memref<1x8x4xf32>
    %292 = affine.load %alloca_11[%arg3, %c0, %283] : memref<1x4x4xf32>
    %293 = arith.mulf %290, %291 : f32
    %294 = arith.addf %292, %293 : f32
    affine.store %294, %alloca_11[%arg3, %c0, %283] : memref<1x4x4xf32>
    %295 = affine.apply affine_map<(d0) -> (d0 + 2)>(%c0_6)
    %296 = affine.load %alloca[%arg3, %c0, %295] : memref<1x4x8xf32>
    %297 = affine.load %alloca_10[%arg3, %295, %283] : memref<1x8x4xf32>
    %298 = affine.load %alloca_11[%arg3, %c0, %283] : memref<1x4x4xf32>
    %299 = arith.mulf %296, %297 : f32
    %300 = arith.addf %298, %299 : f32
    affine.store %300, %alloca_11[%arg3, %c0, %283] : memref<1x4x4xf32>
    %301 = affine.apply affine_map<(d0) -> (d0 + 3)>(%c0_6)
    %302 = affine.load %alloca[%arg3, %c0, %301] : memref<1x4x8xf32>
    %303 = affine.load %alloca_10[%arg3, %301, %283] : memref<1x8x4xf32>
    %304 = affine.load %alloca_11[%arg3, %c0, %283] : memref<1x4x4xf32>
    %305 = arith.mulf %302, %303 : f32
    %306 = arith.addf %304, %305 : f32
    affine.store %306, %alloca_11[%arg3, %c0, %283] : memref<1x4x4xf32>
    %307 = affine.apply affine_map<(d0) -> (d0 + 4)>(%c0_6)
    %308 = affine.load %alloca[%arg3, %c0, %307] : memref<1x4x8xf32>
    %309 = affine.load %alloca_10[%arg3, %307, %283] : memref<1x8x4xf32>
    %310 = affine.load %alloca_11[%arg3, %c0, %283] : memref<1x4x4xf32>
    %311 = arith.mulf %308, %309 : f32
    %312 = arith.addf %310, %311 : f32
    affine.store %312, %alloca_11[%arg3, %c0, %283] : memref<1x4x4xf32>
    %313 = affine.apply affine_map<(d0) -> (d0 + 5)>(%c0_6)
    %314 = affine.load %alloca[%arg3, %c0, %313] : memref<1x4x8xf32>
    %315 = affine.load %alloca_10[%arg3, %313, %283] : memref<1x8x4xf32>
    %316 = affine.load %alloca_11[%arg3, %c0, %283] : memref<1x4x4xf32>
    %317 = arith.mulf %314, %315 : f32
    %318 = arith.addf %316, %317 : f32
    affine.store %318, %alloca_11[%arg3, %c0, %283] : memref<1x4x4xf32>
    %319 = affine.apply affine_map<(d0) -> (d0 + 6)>(%c0_6)
    %320 = affine.load %alloca[%arg3, %c0, %319] : memref<1x4x8xf32>
    %321 = affine.load %alloca_10[%arg3, %319, %283] : memref<1x8x4xf32>
    %322 = affine.load %alloca_11[%arg3, %c0, %283] : memref<1x4x4xf32>
    %323 = arith.mulf %320, %321 : f32
    %324 = arith.addf %322, %323 : f32
    affine.store %324, %alloca_11[%arg3, %c0, %283] : memref<1x4x4xf32>
    %325 = affine.apply affine_map<(d0) -> (d0 + 7)>(%c0_6)
    %326 = affine.load %alloca[%arg3, %c0, %325] : memref<1x4x8xf32>
    %327 = affine.load %alloca_10[%arg3, %325, %283] : memref<1x8x4xf32>
    %328 = affine.load %alloca_11[%arg3, %c0, %283] : memref<1x4x4xf32>
    %329 = arith.mulf %326, %327 : f32
    %330 = arith.addf %328, %329 : f32
    affine.store %330, %alloca_11[%arg3, %c0, %283] : memref<1x4x4xf32>
    %331 = affine.apply affine_map<(d0) -> (d0 + 3)>(%c0_1)
    %332 = affine.load %alloca[%arg3, %c0, %c0_6] : memref<1x4x8xf32>
    %333 = affine.load %alloca_10[%arg3, %c0_6, %331] : memref<1x8x4xf32>
    %334 = affine.load %alloca_11[%arg3, %c0, %331] : memref<1x4x4xf32>
    %335 = arith.mulf %332, %333 : f32
    %336 = arith.addf %334, %335 : f32
    affine.store %336, %alloca_11[%arg3, %c0, %331] : memref<1x4x4xf32>
    %337 = affine.apply affine_map<(d0) -> (d0 + 1)>(%c0_6)
    %338 = affine.load %alloca[%arg3, %c0, %337] : memref<1x4x8xf32>
    %339 = affine.load %alloca_10[%arg3, %337, %331] : memref<1x8x4xf32>
    %340 = affine.load %alloca_11[%arg3, %c0, %331] : memref<1x4x4xf32>
    %341 = arith.mulf %338, %339 : f32
    %342 = arith.addf %340, %341 : f32
    affine.store %342, %alloca_11[%arg3, %c0, %331] : memref<1x4x4xf32>
    %343 = affine.apply affine_map<(d0) -> (d0 + 2)>(%c0_6)
    %344 = affine.load %alloca[%arg3, %c0, %343] : memref<1x4x8xf32>
    %345 = affine.load %alloca_10[%arg3, %343, %331] : memref<1x8x4xf32>
    %346 = affine.load %alloca_11[%arg3, %c0, %331] : memref<1x4x4xf32>
    %347 = arith.mulf %344, %345 : f32
    %348 = arith.addf %346, %347 : f32
    affine.store %348, %alloca_11[%arg3, %c0, %331] : memref<1x4x4xf32>
    %349 = affine.apply affine_map<(d0) -> (d0 + 3)>(%c0_6)
    %350 = affine.load %alloca[%arg3, %c0, %349] : memref<1x4x8xf32>
    %351 = affine.load %alloca_10[%arg3, %349, %331] : memref<1x8x4xf32>
    %352 = affine.load %alloca_11[%arg3, %c0, %331] : memref<1x4x4xf32>
    %353 = arith.mulf %350, %351 : f32
    %354 = arith.addf %352, %353 : f32
    affine.store %354, %alloca_11[%arg3, %c0, %331] : memref<1x4x4xf32>
    %355 = affine.apply affine_map<(d0) -> (d0 + 4)>(%c0_6)
    %356 = affine.load %alloca[%arg3, %c0, %355] : memref<1x4x8xf32>
    %357 = affine.load %alloca_10[%arg3, %355, %331] : memref<1x8x4xf32>
    %358 = affine.load %alloca_11[%arg3, %c0, %331] : memref<1x4x4xf32>
    %359 = arith.mulf %356, %357 : f32
    %360 = arith.addf %358, %359 : f32
    affine.store %360, %alloca_11[%arg3, %c0, %331] : memref<1x4x4xf32>
    %361 = affine.apply affine_map<(d0) -> (d0 + 5)>(%c0_6)
    %362 = affine.load %alloca[%arg3, %c0, %361] : memref<1x4x8xf32>
    %363 = affine.load %alloca_10[%arg3, %361, %331] : memref<1x8x4xf32>
    %364 = affine.load %alloca_11[%arg3, %c0, %331] : memref<1x4x4xf32>
    %365 = arith.mulf %362, %363 : f32
    %366 = arith.addf %364, %365 : f32
    affine.store %366, %alloca_11[%arg3, %c0, %331] : memref<1x4x4xf32>
    %367 = affine.apply affine_map<(d0) -> (d0 + 6)>(%c0_6)
    %368 = affine.load %alloca[%arg3, %c0, %367] : memref<1x4x8xf32>
    %369 = affine.load %alloca_10[%arg3, %367, %331] : memref<1x8x4xf32>
    %370 = affine.load %alloca_11[%arg3, %c0, %331] : memref<1x4x4xf32>
    %371 = arith.mulf %368, %369 : f32
    %372 = arith.addf %370, %371 : f32
    affine.store %372, %alloca_11[%arg3, %c0, %331] : memref<1x4x4xf32>
    %373 = affine.apply affine_map<(d0) -> (d0 + 7)>(%c0_6)
    %374 = affine.load %alloca[%arg3, %c0, %373] : memref<1x4x8xf32>
    %375 = affine.load %alloca_10[%arg3, %373, %331] : memref<1x8x4xf32>
    %376 = affine.load %alloca_11[%arg3, %c0, %331] : memref<1x4x4xf32>
    %377 = arith.mulf %374, %375 : f32
    %378 = arith.addf %376, %377 : f32
    affine.store %378, %alloca_11[%arg3, %c0, %331] : memref<1x4x4xf32>
    %379 = affine.apply affine_map<(d0) -> (d0 + 1)>(%c0)
    %380 = affine.load %alloca[%arg3, %379, %c0_6] : memref<1x4x8xf32>
    %381 = affine.load %alloca_10[%arg3, %c0_6, %c0_1] : memref<1x8x4xf32>
    %382 = affine.load %alloca_11[%arg3, %379, %c0_1] : memref<1x4x4xf32>
    %383 = arith.mulf %380, %381 : f32
    %384 = arith.addf %382, %383 : f32
    affine.store %384, %alloca_11[%arg3, %379, %c0_1] : memref<1x4x4xf32>
    %385 = affine.apply affine_map<(d0) -> (d0 + 1)>(%c0_6)
    %386 = affine.load %alloca[%arg3, %379, %385] : memref<1x4x8xf32>
    %387 = affine.load %alloca_10[%arg3, %385, %c0_1] : memref<1x8x4xf32>
    %388 = affine.load %alloca_11[%arg3, %379, %c0_1] : memref<1x4x4xf32>
    %389 = arith.mulf %386, %387 : f32
    %390 = arith.addf %388, %389 : f32
    affine.store %390, %alloca_11[%arg3, %379, %c0_1] : memref<1x4x4xf32>
    %391 = affine.apply affine_map<(d0) -> (d0 + 2)>(%c0_6)
    %392 = affine.load %alloca[%arg3, %379, %391] : memref<1x4x8xf32>
    %393 = affine.load %alloca_10[%arg3, %391, %c0_1] : memref<1x8x4xf32>
    %394 = affine.load %alloca_11[%arg3, %379, %c0_1] : memref<1x4x4xf32>
    %395 = arith.mulf %392, %393 : f32
    %396 = arith.addf %394, %395 : f32
    affine.store %396, %alloca_11[%arg3, %379, %c0_1] : memref<1x4x4xf32>
    %397 = affine.apply affine_map<(d0) -> (d0 + 3)>(%c0_6)
    %398 = affine.load %alloca[%arg3, %379, %397] : memref<1x4x8xf32>
    %399 = affine.load %alloca_10[%arg3, %397, %c0_1] : memref<1x8x4xf32>
    %400 = affine.load %alloca_11[%arg3, %379, %c0_1] : memref<1x4x4xf32>
    %401 = arith.mulf %398, %399 : f32
    %402 = arith.addf %400, %401 : f32
    affine.store %402, %alloca_11[%arg3, %379, %c0_1] : memref<1x4x4xf32>
    %403 = affine.apply affine_map<(d0) -> (d0 + 4)>(%c0_6)
    %404 = affine.load %alloca[%arg3, %379, %403] : memref<1x4x8xf32>
    %405 = affine.load %alloca_10[%arg3, %403, %c0_1] : memref<1x8x4xf32>
    %406 = affine.load %alloca_11[%arg3, %379, %c0_1] : memref<1x4x4xf32>
    %407 = arith.mulf %404, %405 : f32
    %408 = arith.addf %406, %407 : f32
    affine.store %408, %alloca_11[%arg3, %379, %c0_1] : memref<1x4x4xf32>
    %409 = affine.apply affine_map<(d0) -> (d0 + 5)>(%c0_6)
    %410 = affine.load %alloca[%arg3, %379, %409] : memref<1x4x8xf32>
    %411 = affine.load %alloca_10[%arg3, %409, %c0_1] : memref<1x8x4xf32>
    %412 = affine.load %alloca_11[%arg3, %379, %c0_1] : memref<1x4x4xf32>
    %413 = arith.mulf %410, %411 : f32
    %414 = arith.addf %412, %413 : f32
    affine.store %414, %alloca_11[%arg3, %379, %c0_1] : memref<1x4x4xf32>
    %415 = affine.apply affine_map<(d0) -> (d0 + 6)>(%c0_6)
    %416 = affine.load %alloca[%arg3, %379, %415] : memref<1x4x8xf32>
    %417 = affine.load %alloca_10[%arg3, %415, %c0_1] : memref<1x8x4xf32>
    %418 = affine.load %alloca_11[%arg3, %379, %c0_1] : memref<1x4x4xf32>
    %419 = arith.mulf %416, %417 : f32
    %420 = arith.addf %418, %419 : f32
    affine.store %420, %alloca_11[%arg3, %379, %c0_1] : memref<1x4x4xf32>
    %421 = affine.apply affine_map<(d0) -> (d0 + 7)>(%c0_6)
    %422 = affine.load %alloca[%arg3, %379, %421] : memref<1x4x8xf32>
    %423 = affine.load %alloca_10[%arg3, %421, %c0_1] : memref<1x8x4xf32>
    %424 = affine.load %alloca_11[%arg3, %379, %c0_1] : memref<1x4x4xf32>
    %425 = arith.mulf %422, %423 : f32
    %426 = arith.addf %424, %425 : f32
    affine.store %426, %alloca_11[%arg3, %379, %c0_1] : memref<1x4x4xf32>
    %427 = affine.apply affine_map<(d0) -> (d0 + 1)>(%c0_1)
    %428 = affine.load %alloca[%arg3, %379, %c0_6] : memref<1x4x8xf32>
    %429 = affine.load %alloca_10[%arg3, %c0_6, %427] : memref<1x8x4xf32>
    %430 = affine.load %alloca_11[%arg3, %379, %427] : memref<1x4x4xf32>
    %431 = arith.mulf %428, %429 : f32
    %432 = arith.addf %430, %431 : f32
    affine.store %432, %alloca_11[%arg3, %379, %427] : memref<1x4x4xf32>
    %433 = affine.apply affine_map<(d0) -> (d0 + 1)>(%c0_6)
    %434 = affine.load %alloca[%arg3, %379, %433] : memref<1x4x8xf32>
    %435 = affine.load %alloca_10[%arg3, %433, %427] : memref<1x8x4xf32>
    %436 = affine.load %alloca_11[%arg3, %379, %427] : memref<1x4x4xf32>
    %437 = arith.mulf %434, %435 : f32
    %438 = arith.addf %436, %437 : f32
    affine.store %438, %alloca_11[%arg3, %379, %427] : memref<1x4x4xf32>
    %439 = affine.apply affine_map<(d0) -> (d0 + 2)>(%c0_6)
    %440 = affine.load %alloca[%arg3, %379, %439] : memref<1x4x8xf32>
    %441 = affine.load %alloca_10[%arg3, %439, %427] : memref<1x8x4xf32>
    %442 = affine.load %alloca_11[%arg3, %379, %427] : memref<1x4x4xf32>
    %443 = arith.mulf %440, %441 : f32
    %444 = arith.addf %442, %443 : f32
    affine.store %444, %alloca_11[%arg3, %379, %427] : memref<1x4x4xf32>
    %445 = affine.apply affine_map<(d0) -> (d0 + 3)>(%c0_6)
    %446 = affine.load %alloca[%arg3, %379, %445] : memref<1x4x8xf32>
    %447 = affine.load %alloca_10[%arg3, %445, %427] : memref<1x8x4xf32>
    %448 = affine.load %alloca_11[%arg3, %379, %427] : memref<1x4x4xf32>
    %449 = arith.mulf %446, %447 : f32
    %450 = arith.addf %448, %449 : f32
    affine.store %450, %alloca_11[%arg3, %379, %427] : memref<1x4x4xf32>
    %451 = affine.apply affine_map<(d0) -> (d0 + 4)>(%c0_6)
    %452 = affine.load %alloca[%arg3, %379, %451] : memref<1x4x8xf32>
    %453 = affine.load %alloca_10[%arg3, %451, %427] : memref<1x8x4xf32>
    %454 = affine.load %alloca_11[%arg3, %379, %427] : memref<1x4x4xf32>
    %455 = arith.mulf %452, %453 : f32
    %456 = arith.addf %454, %455 : f32
    affine.store %456, %alloca_11[%arg3, %379, %427] : memref<1x4x4xf32>
    %457 = affine.apply affine_map<(d0) -> (d0 + 5)>(%c0_6)
    %458 = affine.load %alloca[%arg3, %379, %457] : memref<1x4x8xf32>
    %459 = affine.load %alloca_10[%arg3, %457, %427] : memref<1x8x4xf32>
    %460 = affine.load %alloca_11[%arg3, %379, %427] : memref<1x4x4xf32>
    %461 = arith.mulf %458, %459 : f32
    %462 = arith.addf %460, %461 : f32
    affine.store %462, %alloca_11[%arg3, %379, %427] : memref<1x4x4xf32>
    %463 = affine.apply affine_map<(d0) -> (d0 + 6)>(%c0_6)
    %464 = affine.load %alloca[%arg3, %379, %463] : memref<1x4x8xf32>
    %465 = affine.load %alloca_10[%arg3, %463, %427] : memref<1x8x4xf32>
    %466 = affine.load %alloca_11[%arg3, %379, %427] : memref<1x4x4xf32>
    %467 = arith.mulf %464, %465 : f32
    %468 = arith.addf %466, %467 : f32
    affine.store %468, %alloca_11[%arg3, %379, %427] : memref<1x4x4xf32>
    %469 = affine.apply affine_map<(d0) -> (d0 + 7)>(%c0_6)
    %470 = affine.load %alloca[%arg3, %379, %469] : memref<1x4x8xf32>
    %471 = affine.load %alloca_10[%arg3, %469, %427] : memref<1x8x4xf32>
    %472 = affine.load %alloca_11[%arg3, %379, %427] : memref<1x4x4xf32>
    %473 = arith.mulf %470, %471 : f32
    %474 = arith.addf %472, %473 : f32
    affine.store %474, %alloca_11[%arg3, %379, %427] : memref<1x4x4xf32>
    %475 = affine.apply affine_map<(d0) -> (d0 + 2)>(%c0_1)
    %476 = affine.load %alloca[%arg3, %379, %c0_6] : memref<1x4x8xf32>
    %477 = affine.load %alloca_10[%arg3, %c0_6, %475] : memref<1x8x4xf32>
    %478 = affine.load %alloca_11[%arg3, %379, %475] : memref<1x4x4xf32>
    %479 = arith.mulf %476, %477 : f32
    %480 = arith.addf %478, %479 : f32
    affine.store %480, %alloca_11[%arg3, %379, %475] : memref<1x4x4xf32>
    %481 = affine.apply affine_map<(d0) -> (d0 + 1)>(%c0_6)
    %482 = affine.load %alloca[%arg3, %379, %481] : memref<1x4x8xf32>
    %483 = affine.load %alloca_10[%arg3, %481, %475] : memref<1x8x4xf32>
    %484 = affine.load %alloca_11[%arg3, %379, %475] : memref<1x4x4xf32>
    %485 = arith.mulf %482, %483 : f32
    %486 = arith.addf %484, %485 : f32
    affine.store %486, %alloca_11[%arg3, %379, %475] : memref<1x4x4xf32>
    %487 = affine.apply affine_map<(d0) -> (d0 + 2)>(%c0_6)
    %488 = affine.load %alloca[%arg3, %379, %487] : memref<1x4x8xf32>
    %489 = affine.load %alloca_10[%arg3, %487, %475] : memref<1x8x4xf32>
    %490 = affine.load %alloca_11[%arg3, %379, %475] : memref<1x4x4xf32>
    %491 = arith.mulf %488, %489 : f32
    %492 = arith.addf %490, %491 : f32
    affine.store %492, %alloca_11[%arg3, %379, %475] : memref<1x4x4xf32>
    %493 = affine.apply affine_map<(d0) -> (d0 + 3)>(%c0_6)
    %494 = affine.load %alloca[%arg3, %379, %493] : memref<1x4x8xf32>
    %495 = affine.load %alloca_10[%arg3, %493, %475] : memref<1x8x4xf32>
    %496 = affine.load %alloca_11[%arg3, %379, %475] : memref<1x4x4xf32>
    %497 = arith.mulf %494, %495 : f32
    %498 = arith.addf %496, %497 : f32
    affine.store %498, %alloca_11[%arg3, %379, %475] : memref<1x4x4xf32>
    %499 = affine.apply affine_map<(d0) -> (d0 + 4)>(%c0_6)
    %500 = affine.load %alloca[%arg3, %379, %499] : memref<1x4x8xf32>
    %501 = affine.load %alloca_10[%arg3, %499, %475] : memref<1x8x4xf32>
    %502 = affine.load %alloca_11[%arg3, %379, %475] : memref<1x4x4xf32>
    %503 = arith.mulf %500, %501 : f32
    %504 = arith.addf %502, %503 : f32
    affine.store %504, %alloca_11[%arg3, %379, %475] : memref<1x4x4xf32>
    %505 = affine.apply affine_map<(d0) -> (d0 + 5)>(%c0_6)
    %506 = affine.load %alloca[%arg3, %379, %505] : memref<1x4x8xf32>
    %507 = affine.load %alloca_10[%arg3, %505, %475] : memref<1x8x4xf32>
    %508 = affine.load %alloca_11[%arg3, %379, %475] : memref<1x4x4xf32>
    %509 = arith.mulf %506, %507 : f32
    %510 = arith.addf %508, %509 : f32
    affine.store %510, %alloca_11[%arg3, %379, %475] : memref<1x4x4xf32>
    %511 = affine.apply affine_map<(d0) -> (d0 + 6)>(%c0_6)
    %512 = affine.load %alloca[%arg3, %379, %511] : memref<1x4x8xf32>
    %513 = affine.load %alloca_10[%arg3, %511, %475] : memref<1x8x4xf32>
    %514 = affine.load %alloca_11[%arg3, %379, %475] : memref<1x4x4xf32>
    %515 = arith.mulf %512, %513 : f32
    %516 = arith.addf %514, %515 : f32
    affine.store %516, %alloca_11[%arg3, %379, %475] : memref<1x4x4xf32>
    %517 = affine.apply affine_map<(d0) -> (d0 + 7)>(%c0_6)
    %518 = affine.load %alloca[%arg3, %379, %517] : memref<1x4x8xf32>
    %519 = affine.load %alloca_10[%arg3, %517, %475] : memref<1x8x4xf32>
    %520 = affine.load %alloca_11[%arg3, %379, %475] : memref<1x4x4xf32>
    %521 = arith.mulf %518, %519 : f32
    %522 = arith.addf %520, %521 : f32
    affine.store %522, %alloca_11[%arg3, %379, %475] : memref<1x4x4xf32>
    %523 = affine.apply affine_map<(d0) -> (d0 + 3)>(%c0_1)
    %524 = affine.load %alloca[%arg3, %379, %c0_6] : memref<1x4x8xf32>
    %525 = affine.load %alloca_10[%arg3, %c0_6, %523] : memref<1x8x4xf32>
    %526 = affine.load %alloca_11[%arg3, %379, %523] : memref<1x4x4xf32>
    %527 = arith.mulf %524, %525 : f32
    %528 = arith.addf %526, %527 : f32
    affine.store %528, %alloca_11[%arg3, %379, %523] : memref<1x4x4xf32>
    %529 = affine.apply affine_map<(d0) -> (d0 + 1)>(%c0_6)
    %530 = affine.load %alloca[%arg3, %379, %529] : memref<1x4x8xf32>
    %531 = affine.load %alloca_10[%arg3, %529, %523] : memref<1x8x4xf32>
    %532 = affine.load %alloca_11[%arg3, %379, %523] : memref<1x4x4xf32>
    %533 = arith.mulf %530, %531 : f32
    %534 = arith.addf %532, %533 : f32
    affine.store %534, %alloca_11[%arg3, %379, %523] : memref<1x4x4xf32>
    %535 = affine.apply affine_map<(d0) -> (d0 + 2)>(%c0_6)
    %536 = affine.load %alloca[%arg3, %379, %535] : memref<1x4x8xf32>
    %537 = affine.load %alloca_10[%arg3, %535, %523] : memref<1x8x4xf32>
    %538 = affine.load %alloca_11[%arg3, %379, %523] : memref<1x4x4xf32>
    %539 = arith.mulf %536, %537 : f32
    %540 = arith.addf %538, %539 : f32
    affine.store %540, %alloca_11[%arg3, %379, %523] : memref<1x4x4xf32>
    %541 = affine.apply affine_map<(d0) -> (d0 + 3)>(%c0_6)
    %542 = affine.load %alloca[%arg3, %379, %541] : memref<1x4x8xf32>
    %543 = affine.load %alloca_10[%arg3, %541, %523] : memref<1x8x4xf32>
    %544 = affine.load %alloca_11[%arg3, %379, %523] : memref<1x4x4xf32>
    %545 = arith.mulf %542, %543 : f32
    %546 = arith.addf %544, %545 : f32
    affine.store %546, %alloca_11[%arg3, %379, %523] : memref<1x4x4xf32>
    %547 = affine.apply affine_map<(d0) -> (d0 + 4)>(%c0_6)
    %548 = affine.load %alloca[%arg3, %379, %547] : memref<1x4x8xf32>
    %549 = affine.load %alloca_10[%arg3, %547, %523] : memref<1x8x4xf32>
    %550 = affine.load %alloca_11[%arg3, %379, %523] : memref<1x4x4xf32>
    %551 = arith.mulf %548, %549 : f32
    %552 = arith.addf %550, %551 : f32
    affine.store %552, %alloca_11[%arg3, %379, %523] : memref<1x4x4xf32>
    %553 = affine.apply affine_map<(d0) -> (d0 + 5)>(%c0_6)
    %554 = affine.load %alloca[%arg3, %379, %553] : memref<1x4x8xf32>
    %555 = affine.load %alloca_10[%arg3, %553, %523] : memref<1x8x4xf32>
    %556 = affine.load %alloca_11[%arg3, %379, %523] : memref<1x4x4xf32>
    %557 = arith.mulf %554, %555 : f32
    %558 = arith.addf %556, %557 : f32
    affine.store %558, %alloca_11[%arg3, %379, %523] : memref<1x4x4xf32>
    %559 = affine.apply affine_map<(d0) -> (d0 + 6)>(%c0_6)
    %560 = affine.load %alloca[%arg3, %379, %559] : memref<1x4x8xf32>
    %561 = affine.load %alloca_10[%arg3, %559, %523] : memref<1x8x4xf32>
    %562 = affine.load %alloca_11[%arg3, %379, %523] : memref<1x4x4xf32>
    %563 = arith.mulf %560, %561 : f32
    %564 = arith.addf %562, %563 : f32
    affine.store %564, %alloca_11[%arg3, %379, %523] : memref<1x4x4xf32>
    %565 = affine.apply affine_map<(d0) -> (d0 + 7)>(%c0_6)
    %566 = affine.load %alloca[%arg3, %379, %565] : memref<1x4x8xf32>
    %567 = affine.load %alloca_10[%arg3, %565, %523] : memref<1x8x4xf32>
    %568 = affine.load %alloca_11[%arg3, %379, %523] : memref<1x4x4xf32>
    %569 = arith.mulf %566, %567 : f32
    %570 = arith.addf %568, %569 : f32
    affine.store %570, %alloca_11[%arg3, %379, %523] : memref<1x4x4xf32>
    %571 = affine.apply affine_map<(d0) -> (d0 + 2)>(%c0)
    %572 = affine.load %alloca[%arg3, %571, %c0_6] : memref<1x4x8xf32>
    %573 = affine.load %alloca_10[%arg3, %c0_6, %c0_1] : memref<1x8x4xf32>
    %574 = affine.load %alloca_11[%arg3, %571, %c0_1] : memref<1x4x4xf32>
    %575 = arith.mulf %572, %573 : f32
    %576 = arith.addf %574, %575 : f32
    affine.store %576, %alloca_11[%arg3, %571, %c0_1] : memref<1x4x4xf32>
    %577 = affine.apply affine_map<(d0) -> (d0 + 1)>(%c0_6)
    %578 = affine.load %alloca[%arg3, %571, %577] : memref<1x4x8xf32>
    %579 = affine.load %alloca_10[%arg3, %577, %c0_1] : memref<1x8x4xf32>
    %580 = affine.load %alloca_11[%arg3, %571, %c0_1] : memref<1x4x4xf32>
    %581 = arith.mulf %578, %579 : f32
    %582 = arith.addf %580, %581 : f32
    affine.store %582, %alloca_11[%arg3, %571, %c0_1] : memref<1x4x4xf32>
    %583 = affine.apply affine_map<(d0) -> (d0 + 2)>(%c0_6)
    %584 = affine.load %alloca[%arg3, %571, %583] : memref<1x4x8xf32>
    %585 = affine.load %alloca_10[%arg3, %583, %c0_1] : memref<1x8x4xf32>
    %586 = affine.load %alloca_11[%arg3, %571, %c0_1] : memref<1x4x4xf32>
    %587 = arith.mulf %584, %585 : f32
    %588 = arith.addf %586, %587 : f32
    affine.store %588, %alloca_11[%arg3, %571, %c0_1] : memref<1x4x4xf32>
    %589 = affine.apply affine_map<(d0) -> (d0 + 3)>(%c0_6)
    %590 = affine.load %alloca[%arg3, %571, %589] : memref<1x4x8xf32>
    %591 = affine.load %alloca_10[%arg3, %589, %c0_1] : memref<1x8x4xf32>
    %592 = affine.load %alloca_11[%arg3, %571, %c0_1] : memref<1x4x4xf32>
    %593 = arith.mulf %590, %591 : f32
    %594 = arith.addf %592, %593 : f32
    affine.store %594, %alloca_11[%arg3, %571, %c0_1] : memref<1x4x4xf32>
    %595 = affine.apply affine_map<(d0) -> (d0 + 4)>(%c0_6)
    %596 = affine.load %alloca[%arg3, %571, %595] : memref<1x4x8xf32>
    %597 = affine.load %alloca_10[%arg3, %595, %c0_1] : memref<1x8x4xf32>
    %598 = affine.load %alloca_11[%arg3, %571, %c0_1] : memref<1x4x4xf32>
    %599 = arith.mulf %596, %597 : f32
    %600 = arith.addf %598, %599 : f32
    affine.store %600, %alloca_11[%arg3, %571, %c0_1] : memref<1x4x4xf32>
    %601 = affine.apply affine_map<(d0) -> (d0 + 5)>(%c0_6)
    %602 = affine.load %alloca[%arg3, %571, %601] : memref<1x4x8xf32>
    %603 = affine.load %alloca_10[%arg3, %601, %c0_1] : memref<1x8x4xf32>
    %604 = affine.load %alloca_11[%arg3, %571, %c0_1] : memref<1x4x4xf32>
    %605 = arith.mulf %602, %603 : f32
    %606 = arith.addf %604, %605 : f32
    affine.store %606, %alloca_11[%arg3, %571, %c0_1] : memref<1x4x4xf32>
    %607 = affine.apply affine_map<(d0) -> (d0 + 6)>(%c0_6)
    %608 = affine.load %alloca[%arg3, %571, %607] : memref<1x4x8xf32>
    %609 = affine.load %alloca_10[%arg3, %607, %c0_1] : memref<1x8x4xf32>
    %610 = affine.load %alloca_11[%arg3, %571, %c0_1] : memref<1x4x4xf32>
    %611 = arith.mulf %608, %609 : f32
    %612 = arith.addf %610, %611 : f32
    affine.store %612, %alloca_11[%arg3, %571, %c0_1] : memref<1x4x4xf32>
    %613 = affine.apply affine_map<(d0) -> (d0 + 7)>(%c0_6)
    %614 = affine.load %alloca[%arg3, %571, %613] : memref<1x4x8xf32>
    %615 = affine.load %alloca_10[%arg3, %613, %c0_1] : memref<1x8x4xf32>
    %616 = affine.load %alloca_11[%arg3, %571, %c0_1] : memref<1x4x4xf32>
    %617 = arith.mulf %614, %615 : f32
    %618 = arith.addf %616, %617 : f32
    affine.store %618, %alloca_11[%arg3, %571, %c0_1] : memref<1x4x4xf32>
    %619 = affine.apply affine_map<(d0) -> (d0 + 1)>(%c0_1)
    %620 = affine.load %alloca[%arg3, %571, %c0_6] : memref<1x4x8xf32>
    %621 = affine.load %alloca_10[%arg3, %c0_6, %619] : memref<1x8x4xf32>
    %622 = affine.load %alloca_11[%arg3, %571, %619] : memref<1x4x4xf32>
    %623 = arith.mulf %620, %621 : f32
    %624 = arith.addf %622, %623 : f32
    affine.store %624, %alloca_11[%arg3, %571, %619] : memref<1x4x4xf32>
    %625 = affine.apply affine_map<(d0) -> (d0 + 1)>(%c0_6)
    %626 = affine.load %alloca[%arg3, %571, %625] : memref<1x4x8xf32>
    %627 = affine.load %alloca_10[%arg3, %625, %619] : memref<1x8x4xf32>
    %628 = affine.load %alloca_11[%arg3, %571, %619] : memref<1x4x4xf32>
    %629 = arith.mulf %626, %627 : f32
    %630 = arith.addf %628, %629 : f32
    affine.store %630, %alloca_11[%arg3, %571, %619] : memref<1x4x4xf32>
    %631 = affine.apply affine_map<(d0) -> (d0 + 2)>(%c0_6)
    %632 = affine.load %alloca[%arg3, %571, %631] : memref<1x4x8xf32>
    %633 = affine.load %alloca_10[%arg3, %631, %619] : memref<1x8x4xf32>
    %634 = affine.load %alloca_11[%arg3, %571, %619] : memref<1x4x4xf32>
    %635 = arith.mulf %632, %633 : f32
    %636 = arith.addf %634, %635 : f32
    affine.store %636, %alloca_11[%arg3, %571, %619] : memref<1x4x4xf32>
    %637 = affine.apply affine_map<(d0) -> (d0 + 3)>(%c0_6)
    %638 = affine.load %alloca[%arg3, %571, %637] : memref<1x4x8xf32>
    %639 = affine.load %alloca_10[%arg3, %637, %619] : memref<1x8x4xf32>
    %640 = affine.load %alloca_11[%arg3, %571, %619] : memref<1x4x4xf32>
    %641 = arith.mulf %638, %639 : f32
    %642 = arith.addf %640, %641 : f32
    affine.store %642, %alloca_11[%arg3, %571, %619] : memref<1x4x4xf32>
    %643 = affine.apply affine_map<(d0) -> (d0 + 4)>(%c0_6)
    %644 = affine.load %alloca[%arg3, %571, %643] : memref<1x4x8xf32>
    %645 = affine.load %alloca_10[%arg3, %643, %619] : memref<1x8x4xf32>
    %646 = affine.load %alloca_11[%arg3, %571, %619] : memref<1x4x4xf32>
    %647 = arith.mulf %644, %645 : f32
    %648 = arith.addf %646, %647 : f32
    affine.store %648, %alloca_11[%arg3, %571, %619] : memref<1x4x4xf32>
    %649 = affine.apply affine_map<(d0) -> (d0 + 5)>(%c0_6)
    %650 = affine.load %alloca[%arg3, %571, %649] : memref<1x4x8xf32>
    %651 = affine.load %alloca_10[%arg3, %649, %619] : memref<1x8x4xf32>
    %652 = affine.load %alloca_11[%arg3, %571, %619] : memref<1x4x4xf32>
    %653 = arith.mulf %650, %651 : f32
    %654 = arith.addf %652, %653 : f32
    affine.store %654, %alloca_11[%arg3, %571, %619] : memref<1x4x4xf32>
    %655 = affine.apply affine_map<(d0) -> (d0 + 6)>(%c0_6)
    %656 = affine.load %alloca[%arg3, %571, %655] : memref<1x4x8xf32>
    %657 = affine.load %alloca_10[%arg3, %655, %619] : memref<1x8x4xf32>
    %658 = affine.load %alloca_11[%arg3, %571, %619] : memref<1x4x4xf32>
    %659 = arith.mulf %656, %657 : f32
    %660 = arith.addf %658, %659 : f32
    affine.store %660, %alloca_11[%arg3, %571, %619] : memref<1x4x4xf32>
    %661 = affine.apply affine_map<(d0) -> (d0 + 7)>(%c0_6)
    %662 = affine.load %alloca[%arg3, %571, %661] : memref<1x4x8xf32>
    %663 = affine.load %alloca_10[%arg3, %661, %619] : memref<1x8x4xf32>
    %664 = affine.load %alloca_11[%arg3, %571, %619] : memref<1x4x4xf32>
    %665 = arith.mulf %662, %663 : f32
    %666 = arith.addf %664, %665 : f32
    affine.store %666, %alloca_11[%arg3, %571, %619] : memref<1x4x4xf32>
    %667 = affine.apply affine_map<(d0) -> (d0 + 2)>(%c0_1)
    %668 = affine.load %alloca[%arg3, %571, %c0_6] : memref<1x4x8xf32>
    %669 = affine.load %alloca_10[%arg3, %c0_6, %667] : memref<1x8x4xf32>
    %670 = affine.load %alloca_11[%arg3, %571, %667] : memref<1x4x4xf32>
    %671 = arith.mulf %668, %669 : f32
    %672 = arith.addf %670, %671 : f32
    affine.store %672, %alloca_11[%arg3, %571, %667] : memref<1x4x4xf32>
    %673 = affine.apply affine_map<(d0) -> (d0 + 1)>(%c0_6)
    %674 = affine.load %alloca[%arg3, %571, %673] : memref<1x4x8xf32>
    %675 = affine.load %alloca_10[%arg3, %673, %667] : memref<1x8x4xf32>
    %676 = affine.load %alloca_11[%arg3, %571, %667] : memref<1x4x4xf32>
    %677 = arith.mulf %674, %675 : f32
    %678 = arith.addf %676, %677 : f32
    affine.store %678, %alloca_11[%arg3, %571, %667] : memref<1x4x4xf32>
    %679 = affine.apply affine_map<(d0) -> (d0 + 2)>(%c0_6)
    %680 = affine.load %alloca[%arg3, %571, %679] : memref<1x4x8xf32>
    %681 = affine.load %alloca_10[%arg3, %679, %667] : memref<1x8x4xf32>
    %682 = affine.load %alloca_11[%arg3, %571, %667] : memref<1x4x4xf32>
    %683 = arith.mulf %680, %681 : f32
    %684 = arith.addf %682, %683 : f32
    affine.store %684, %alloca_11[%arg3, %571, %667] : memref<1x4x4xf32>
    %685 = affine.apply affine_map<(d0) -> (d0 + 3)>(%c0_6)
    %686 = affine.load %alloca[%arg3, %571, %685] : memref<1x4x8xf32>
    %687 = affine.load %alloca_10[%arg3, %685, %667] : memref<1x8x4xf32>
    %688 = affine.load %alloca_11[%arg3, %571, %667] : memref<1x4x4xf32>
    %689 = arith.mulf %686, %687 : f32
    %690 = arith.addf %688, %689 : f32
    affine.store %690, %alloca_11[%arg3, %571, %667] : memref<1x4x4xf32>
    %691 = affine.apply affine_map<(d0) -> (d0 + 4)>(%c0_6)
    %692 = affine.load %alloca[%arg3, %571, %691] : memref<1x4x8xf32>
    %693 = affine.load %alloca_10[%arg3, %691, %667] : memref<1x8x4xf32>
    %694 = affine.load %alloca_11[%arg3, %571, %667] : memref<1x4x4xf32>
    %695 = arith.mulf %692, %693 : f32
    %696 = arith.addf %694, %695 : f32
    affine.store %696, %alloca_11[%arg3, %571, %667] : memref<1x4x4xf32>
    %697 = affine.apply affine_map<(d0) -> (d0 + 5)>(%c0_6)
    %698 = affine.load %alloca[%arg3, %571, %697] : memref<1x4x8xf32>
    %699 = affine.load %alloca_10[%arg3, %697, %667] : memref<1x8x4xf32>
    %700 = affine.load %alloca_11[%arg3, %571, %667] : memref<1x4x4xf32>
    %701 = arith.mulf %698, %699 : f32
    %702 = arith.addf %700, %701 : f32
    affine.store %702, %alloca_11[%arg3, %571, %667] : memref<1x4x4xf32>
    %703 = affine.apply affine_map<(d0) -> (d0 + 6)>(%c0_6)
    %704 = affine.load %alloca[%arg3, %571, %703] : memref<1x4x8xf32>
    %705 = affine.load %alloca_10[%arg3, %703, %667] : memref<1x8x4xf32>
    %706 = affine.load %alloca_11[%arg3, %571, %667] : memref<1x4x4xf32>
    %707 = arith.mulf %704, %705 : f32
    %708 = arith.addf %706, %707 : f32
    affine.store %708, %alloca_11[%arg3, %571, %667] : memref<1x4x4xf32>
    %709 = affine.apply affine_map<(d0) -> (d0 + 7)>(%c0_6)
    %710 = affine.load %alloca[%arg3, %571, %709] : memref<1x4x8xf32>
    %711 = affine.load %alloca_10[%arg3, %709, %667] : memref<1x8x4xf32>
    %712 = affine.load %alloca_11[%arg3, %571, %667] : memref<1x4x4xf32>
    %713 = arith.mulf %710, %711 : f32
    %714 = arith.addf %712, %713 : f32
    affine.store %714, %alloca_11[%arg3, %571, %667] : memref<1x4x4xf32>
    %715 = affine.apply affine_map<(d0) -> (d0 + 3)>(%c0_1)
    %716 = affine.load %alloca[%arg3, %571, %c0_6] : memref<1x4x8xf32>
    %717 = affine.load %alloca_10[%arg3, %c0_6, %715] : memref<1x8x4xf32>
    %718 = affine.load %alloca_11[%arg3, %571, %715] : memref<1x4x4xf32>
    %719 = arith.mulf %716, %717 : f32
    %720 = arith.addf %718, %719 : f32
    affine.store %720, %alloca_11[%arg3, %571, %715] : memref<1x4x4xf32>
    %721 = affine.apply affine_map<(d0) -> (d0 + 1)>(%c0_6)
    %722 = affine.load %alloca[%arg3, %571, %721] : memref<1x4x8xf32>
    %723 = affine.load %alloca_10[%arg3, %721, %715] : memref<1x8x4xf32>
    %724 = affine.load %alloca_11[%arg3, %571, %715] : memref<1x4x4xf32>
    %725 = arith.mulf %722, %723 : f32
    %726 = arith.addf %724, %725 : f32
    affine.store %726, %alloca_11[%arg3, %571, %715] : memref<1x4x4xf32>
    %727 = affine.apply affine_map<(d0) -> (d0 + 2)>(%c0_6)
    %728 = affine.load %alloca[%arg3, %571, %727] : memref<1x4x8xf32>
    %729 = affine.load %alloca_10[%arg3, %727, %715] : memref<1x8x4xf32>
    %730 = affine.load %alloca_11[%arg3, %571, %715] : memref<1x4x4xf32>
    %731 = arith.mulf %728, %729 : f32
    %732 = arith.addf %730, %731 : f32
    affine.store %732, %alloca_11[%arg3, %571, %715] : memref<1x4x4xf32>
    %733 = affine.apply affine_map<(d0) -> (d0 + 3)>(%c0_6)
    %734 = affine.load %alloca[%arg3, %571, %733] : memref<1x4x8xf32>
    %735 = affine.load %alloca_10[%arg3, %733, %715] : memref<1x8x4xf32>
    %736 = affine.load %alloca_11[%arg3, %571, %715] : memref<1x4x4xf32>
    %737 = arith.mulf %734, %735 : f32
    %738 = arith.addf %736, %737 : f32
    affine.store %738, %alloca_11[%arg3, %571, %715] : memref<1x4x4xf32>
    %739 = affine.apply affine_map<(d0) -> (d0 + 4)>(%c0_6)
    %740 = affine.load %alloca[%arg3, %571, %739] : memref<1x4x8xf32>
    %741 = affine.load %alloca_10[%arg3, %739, %715] : memref<1x8x4xf32>
    %742 = affine.load %alloca_11[%arg3, %571, %715] : memref<1x4x4xf32>
    %743 = arith.mulf %740, %741 : f32
    %744 = arith.addf %742, %743 : f32
    affine.store %744, %alloca_11[%arg3, %571, %715] : memref<1x4x4xf32>
    %745 = affine.apply affine_map<(d0) -> (d0 + 5)>(%c0_6)
    %746 = affine.load %alloca[%arg3, %571, %745] : memref<1x4x8xf32>
    %747 = affine.load %alloca_10[%arg3, %745, %715] : memref<1x8x4xf32>
    %748 = affine.load %alloca_11[%arg3, %571, %715] : memref<1x4x4xf32>
    %749 = arith.mulf %746, %747 : f32
    %750 = arith.addf %748, %749 : f32
    affine.store %750, %alloca_11[%arg3, %571, %715] : memref<1x4x4xf32>
    %751 = affine.apply affine_map<(d0) -> (d0 + 6)>(%c0_6)
    %752 = affine.load %alloca[%arg3, %571, %751] : memref<1x4x8xf32>
    %753 = affine.load %alloca_10[%arg3, %751, %715] : memref<1x8x4xf32>
    %754 = affine.load %alloca_11[%arg3, %571, %715] : memref<1x4x4xf32>
    %755 = arith.mulf %752, %753 : f32
    %756 = arith.addf %754, %755 : f32
    affine.store %756, %alloca_11[%arg3, %571, %715] : memref<1x4x4xf32>
    %757 = affine.apply affine_map<(d0) -> (d0 + 7)>(%c0_6)
    %758 = affine.load %alloca[%arg3, %571, %757] : memref<1x4x8xf32>
    %759 = affine.load %alloca_10[%arg3, %757, %715] : memref<1x8x4xf32>
    %760 = affine.load %alloca_11[%arg3, %571, %715] : memref<1x4x4xf32>
    %761 = arith.mulf %758, %759 : f32
    %762 = arith.addf %760, %761 : f32
    affine.store %762, %alloca_11[%arg3, %571, %715] : memref<1x4x4xf32>
    %763 = affine.apply affine_map<(d0) -> (d0 + 3)>(%c0)
    %764 = affine.load %alloca[%arg3, %763, %c0_6] : memref<1x4x8xf32>
    %765 = affine.load %alloca_10[%arg3, %c0_6, %c0_1] : memref<1x8x4xf32>
    %766 = affine.load %alloca_11[%arg3, %763, %c0_1] : memref<1x4x4xf32>
    %767 = arith.mulf %764, %765 : f32
    %768 = arith.addf %766, %767 : f32
    affine.store %768, %alloca_11[%arg3, %763, %c0_1] : memref<1x4x4xf32>
    %769 = affine.apply affine_map<(d0) -> (d0 + 1)>(%c0_6)
    %770 = affine.load %alloca[%arg3, %763, %769] : memref<1x4x8xf32>
    %771 = affine.load %alloca_10[%arg3, %769, %c0_1] : memref<1x8x4xf32>
    %772 = affine.load %alloca_11[%arg3, %763, %c0_1] : memref<1x4x4xf32>
    %773 = arith.mulf %770, %771 : f32
    %774 = arith.addf %772, %773 : f32
    affine.store %774, %alloca_11[%arg3, %763, %c0_1] : memref<1x4x4xf32>
    %775 = affine.apply affine_map<(d0) -> (d0 + 2)>(%c0_6)
    %776 = affine.load %alloca[%arg3, %763, %775] : memref<1x4x8xf32>
    %777 = affine.load %alloca_10[%arg3, %775, %c0_1] : memref<1x8x4xf32>
    %778 = affine.load %alloca_11[%arg3, %763, %c0_1] : memref<1x4x4xf32>
    %779 = arith.mulf %776, %777 : f32
    %780 = arith.addf %778, %779 : f32
    affine.store %780, %alloca_11[%arg3, %763, %c0_1] : memref<1x4x4xf32>
    %781 = affine.apply affine_map<(d0) -> (d0 + 3)>(%c0_6)
    %782 = affine.load %alloca[%arg3, %763, %781] : memref<1x4x8xf32>
    %783 = affine.load %alloca_10[%arg3, %781, %c0_1] : memref<1x8x4xf32>
    %784 = affine.load %alloca_11[%arg3, %763, %c0_1] : memref<1x4x4xf32>
    %785 = arith.mulf %782, %783 : f32
    %786 = arith.addf %784, %785 : f32
    affine.store %786, %alloca_11[%arg3, %763, %c0_1] : memref<1x4x4xf32>
    %787 = affine.apply affine_map<(d0) -> (d0 + 4)>(%c0_6)
    %788 = affine.load %alloca[%arg3, %763, %787] : memref<1x4x8xf32>
    %789 = affine.load %alloca_10[%arg3, %787, %c0_1] : memref<1x8x4xf32>
    %790 = affine.load %alloca_11[%arg3, %763, %c0_1] : memref<1x4x4xf32>
    %791 = arith.mulf %788, %789 : f32
    %792 = arith.addf %790, %791 : f32
    affine.store %792, %alloca_11[%arg3, %763, %c0_1] : memref<1x4x4xf32>
    %793 = affine.apply affine_map<(d0) -> (d0 + 5)>(%c0_6)
    %794 = affine.load %alloca[%arg3, %763, %793] : memref<1x4x8xf32>
    %795 = affine.load %alloca_10[%arg3, %793, %c0_1] : memref<1x8x4xf32>
    %796 = affine.load %alloca_11[%arg3, %763, %c0_1] : memref<1x4x4xf32>
    %797 = arith.mulf %794, %795 : f32
    %798 = arith.addf %796, %797 : f32
    affine.store %798, %alloca_11[%arg3, %763, %c0_1] : memref<1x4x4xf32>
    %799 = affine.apply affine_map<(d0) -> (d0 + 6)>(%c0_6)
    %800 = affine.load %alloca[%arg3, %763, %799] : memref<1x4x8xf32>
    %801 = affine.load %alloca_10[%arg3, %799, %c0_1] : memref<1x8x4xf32>
    %802 = affine.load %alloca_11[%arg3, %763, %c0_1] : memref<1x4x4xf32>
    %803 = arith.mulf %800, %801 : f32
    %804 = arith.addf %802, %803 : f32
    affine.store %804, %alloca_11[%arg3, %763, %c0_1] : memref<1x4x4xf32>
    %805 = affine.apply affine_map<(d0) -> (d0 + 7)>(%c0_6)
    %806 = affine.load %alloca[%arg3, %763, %805] : memref<1x4x8xf32>
    %807 = affine.load %alloca_10[%arg3, %805, %c0_1] : memref<1x8x4xf32>
    %808 = affine.load %alloca_11[%arg3, %763, %c0_1] : memref<1x4x4xf32>
    %809 = arith.mulf %806, %807 : f32
    %810 = arith.addf %808, %809 : f32
    affine.store %810, %alloca_11[%arg3, %763, %c0_1] : memref<1x4x4xf32>
    %811 = affine.apply affine_map<(d0) -> (d0 + 1)>(%c0_1)
    %812 = affine.load %alloca[%arg3, %763, %c0_6] : memref<1x4x8xf32>
    %813 = affine.load %alloca_10[%arg3, %c0_6, %811] : memref<1x8x4xf32>
    %814 = affine.load %alloca_11[%arg3, %763, %811] : memref<1x4x4xf32>
    %815 = arith.mulf %812, %813 : f32
    %816 = arith.addf %814, %815 : f32
    affine.store %816, %alloca_11[%arg3, %763, %811] : memref<1x4x4xf32>
    %817 = affine.apply affine_map<(d0) -> (d0 + 1)>(%c0_6)
    %818 = affine.load %alloca[%arg3, %763, %817] : memref<1x4x8xf32>
    %819 = affine.load %alloca_10[%arg3, %817, %811] : memref<1x8x4xf32>
    %820 = affine.load %alloca_11[%arg3, %763, %811] : memref<1x4x4xf32>
    %821 = arith.mulf %818, %819 : f32
    %822 = arith.addf %820, %821 : f32
    affine.store %822, %alloca_11[%arg3, %763, %811] : memref<1x4x4xf32>
    %823 = affine.apply affine_map<(d0) -> (d0 + 2)>(%c0_6)
    %824 = affine.load %alloca[%arg3, %763, %823] : memref<1x4x8xf32>
    %825 = affine.load %alloca_10[%arg3, %823, %811] : memref<1x8x4xf32>
    %826 = affine.load %alloca_11[%arg3, %763, %811] : memref<1x4x4xf32>
    %827 = arith.mulf %824, %825 : f32
    %828 = arith.addf %826, %827 : f32
    affine.store %828, %alloca_11[%arg3, %763, %811] : memref<1x4x4xf32>
    %829 = affine.apply affine_map<(d0) -> (d0 + 3)>(%c0_6)
    %830 = affine.load %alloca[%arg3, %763, %829] : memref<1x4x8xf32>
    %831 = affine.load %alloca_10[%arg3, %829, %811] : memref<1x8x4xf32>
    %832 = affine.load %alloca_11[%arg3, %763, %811] : memref<1x4x4xf32>
    %833 = arith.mulf %830, %831 : f32
    %834 = arith.addf %832, %833 : f32
    affine.store %834, %alloca_11[%arg3, %763, %811] : memref<1x4x4xf32>
    %835 = affine.apply affine_map<(d0) -> (d0 + 4)>(%c0_6)
    %836 = affine.load %alloca[%arg3, %763, %835] : memref<1x4x8xf32>
    %837 = affine.load %alloca_10[%arg3, %835, %811] : memref<1x8x4xf32>
    %838 = affine.load %alloca_11[%arg3, %763, %811] : memref<1x4x4xf32>
    %839 = arith.mulf %836, %837 : f32
    %840 = arith.addf %838, %839 : f32
    affine.store %840, %alloca_11[%arg3, %763, %811] : memref<1x4x4xf32>
    %841 = affine.apply affine_map<(d0) -> (d0 + 5)>(%c0_6)
    %842 = affine.load %alloca[%arg3, %763, %841] : memref<1x4x8xf32>
    %843 = affine.load %alloca_10[%arg3, %841, %811] : memref<1x8x4xf32>
    %844 = affine.load %alloca_11[%arg3, %763, %811] : memref<1x4x4xf32>
    %845 = arith.mulf %842, %843 : f32
    %846 = arith.addf %844, %845 : f32
    affine.store %846, %alloca_11[%arg3, %763, %811] : memref<1x4x4xf32>
    %847 = affine.apply affine_map<(d0) -> (d0 + 6)>(%c0_6)
    %848 = affine.load %alloca[%arg3, %763, %847] : memref<1x4x8xf32>
    %849 = affine.load %alloca_10[%arg3, %847, %811] : memref<1x8x4xf32>
    %850 = affine.load %alloca_11[%arg3, %763, %811] : memref<1x4x4xf32>
    %851 = arith.mulf %848, %849 : f32
    %852 = arith.addf %850, %851 : f32
    affine.store %852, %alloca_11[%arg3, %763, %811] : memref<1x4x4xf32>
    %853 = affine.apply affine_map<(d0) -> (d0 + 7)>(%c0_6)
    %854 = affine.load %alloca[%arg3, %763, %853] : memref<1x4x8xf32>
    %855 = affine.load %alloca_10[%arg3, %853, %811] : memref<1x8x4xf32>
    %856 = affine.load %alloca_11[%arg3, %763, %811] : memref<1x4x4xf32>
    %857 = arith.mulf %854, %855 : f32
    %858 = arith.addf %856, %857 : f32
    affine.store %858, %alloca_11[%arg3, %763, %811] : memref<1x4x4xf32>
    %859 = affine.apply affine_map<(d0) -> (d0 + 2)>(%c0_1)
    %860 = affine.load %alloca[%arg3, %763, %c0_6] : memref<1x4x8xf32>
    %861 = affine.load %alloca_10[%arg3, %c0_6, %859] : memref<1x8x4xf32>
    %862 = affine.load %alloca_11[%arg3, %763, %859] : memref<1x4x4xf32>
    %863 = arith.mulf %860, %861 : f32
    %864 = arith.addf %862, %863 : f32
    affine.store %864, %alloca_11[%arg3, %763, %859] : memref<1x4x4xf32>
    %865 = affine.apply affine_map<(d0) -> (d0 + 1)>(%c0_6)
    %866 = affine.load %alloca[%arg3, %763, %865] : memref<1x4x8xf32>
    %867 = affine.load %alloca_10[%arg3, %865, %859] : memref<1x8x4xf32>
    %868 = affine.load %alloca_11[%arg3, %763, %859] : memref<1x4x4xf32>
    %869 = arith.mulf %866, %867 : f32
    %870 = arith.addf %868, %869 : f32
    affine.store %870, %alloca_11[%arg3, %763, %859] : memref<1x4x4xf32>
    %871 = affine.apply affine_map<(d0) -> (d0 + 2)>(%c0_6)
    %872 = affine.load %alloca[%arg3, %763, %871] : memref<1x4x8xf32>
    %873 = affine.load %alloca_10[%arg3, %871, %859] : memref<1x8x4xf32>
    %874 = affine.load %alloca_11[%arg3, %763, %859] : memref<1x4x4xf32>
    %875 = arith.mulf %872, %873 : f32
    %876 = arith.addf %874, %875 : f32
    affine.store %876, %alloca_11[%arg3, %763, %859] : memref<1x4x4xf32>
    %877 = affine.apply affine_map<(d0) -> (d0 + 3)>(%c0_6)
    %878 = affine.load %alloca[%arg3, %763, %877] : memref<1x4x8xf32>
    %879 = affine.load %alloca_10[%arg3, %877, %859] : memref<1x8x4xf32>
    %880 = affine.load %alloca_11[%arg3, %763, %859] : memref<1x4x4xf32>
    %881 = arith.mulf %878, %879 : f32
    %882 = arith.addf %880, %881 : f32
    affine.store %882, %alloca_11[%arg3, %763, %859] : memref<1x4x4xf32>
    %883 = affine.apply affine_map<(d0) -> (d0 + 4)>(%c0_6)
    %884 = affine.load %alloca[%arg3, %763, %883] : memref<1x4x8xf32>
    %885 = affine.load %alloca_10[%arg3, %883, %859] : memref<1x8x4xf32>
    %886 = affine.load %alloca_11[%arg3, %763, %859] : memref<1x4x4xf32>
    %887 = arith.mulf %884, %885 : f32
    %888 = arith.addf %886, %887 : f32
    affine.store %888, %alloca_11[%arg3, %763, %859] : memref<1x4x4xf32>
    %889 = affine.apply affine_map<(d0) -> (d0 + 5)>(%c0_6)
    %890 = affine.load %alloca[%arg3, %763, %889] : memref<1x4x8xf32>
    %891 = affine.load %alloca_10[%arg3, %889, %859] : memref<1x8x4xf32>
    %892 = affine.load %alloca_11[%arg3, %763, %859] : memref<1x4x4xf32>
    %893 = arith.mulf %890, %891 : f32
    %894 = arith.addf %892, %893 : f32
    affine.store %894, %alloca_11[%arg3, %763, %859] : memref<1x4x4xf32>
    %895 = affine.apply affine_map<(d0) -> (d0 + 6)>(%c0_6)
    %896 = affine.load %alloca[%arg3, %763, %895] : memref<1x4x8xf32>
    %897 = affine.load %alloca_10[%arg3, %895, %859] : memref<1x8x4xf32>
    %898 = affine.load %alloca_11[%arg3, %763, %859] : memref<1x4x4xf32>
    %899 = arith.mulf %896, %897 : f32
    %900 = arith.addf %898, %899 : f32
    affine.store %900, %alloca_11[%arg3, %763, %859] : memref<1x4x4xf32>
    %901 = affine.apply affine_map<(d0) -> (d0 + 7)>(%c0_6)
    %902 = affine.load %alloca[%arg3, %763, %901] : memref<1x4x8xf32>
    %903 = affine.load %alloca_10[%arg3, %901, %859] : memref<1x8x4xf32>
    %904 = affine.load %alloca_11[%arg3, %763, %859] : memref<1x4x4xf32>
    %905 = arith.mulf %902, %903 : f32
    %906 = arith.addf %904, %905 : f32
    affine.store %906, %alloca_11[%arg3, %763, %859] : memref<1x4x4xf32>
    %907 = affine.apply affine_map<(d0) -> (d0 + 3)>(%c0_1)
    %908 = affine.load %alloca[%arg3, %763, %c0_6] : memref<1x4x8xf32>
    %909 = affine.load %alloca_10[%arg3, %c0_6, %907] : memref<1x8x4xf32>
    %910 = affine.load %alloca_11[%arg3, %763, %907] : memref<1x4x4xf32>
    %911 = arith.mulf %908, %909 : f32
    %912 = arith.addf %910, %911 : f32
    affine.store %912, %alloca_11[%arg3, %763, %907] : memref<1x4x4xf32>
    %913 = affine.apply affine_map<(d0) -> (d0 + 1)>(%c0_6)
    %914 = affine.load %alloca[%arg3, %763, %913] : memref<1x4x8xf32>
    %915 = affine.load %alloca_10[%arg3, %913, %907] : memref<1x8x4xf32>
    %916 = affine.load %alloca_11[%arg3, %763, %907] : memref<1x4x4xf32>
    %917 = arith.mulf %914, %915 : f32
    %918 = arith.addf %916, %917 : f32
    affine.store %918, %alloca_11[%arg3, %763, %907] : memref<1x4x4xf32>
    %919 = affine.apply affine_map<(d0) -> (d0 + 2)>(%c0_6)
    %920 = affine.load %alloca[%arg3, %763, %919] : memref<1x4x8xf32>
    %921 = affine.load %alloca_10[%arg3, %919, %907] : memref<1x8x4xf32>
    %922 = affine.load %alloca_11[%arg3, %763, %907] : memref<1x4x4xf32>
    %923 = arith.mulf %920, %921 : f32
    %924 = arith.addf %922, %923 : f32
    affine.store %924, %alloca_11[%arg3, %763, %907] : memref<1x4x4xf32>
    %925 = affine.apply affine_map<(d0) -> (d0 + 3)>(%c0_6)
    %926 = affine.load %alloca[%arg3, %763, %925] : memref<1x4x8xf32>
    %927 = affine.load %alloca_10[%arg3, %925, %907] : memref<1x8x4xf32>
    %928 = affine.load %alloca_11[%arg3, %763, %907] : memref<1x4x4xf32>
    %929 = arith.mulf %926, %927 : f32
    %930 = arith.addf %928, %929 : f32
    affine.store %930, %alloca_11[%arg3, %763, %907] : memref<1x4x4xf32>
    %931 = affine.apply affine_map<(d0) -> (d0 + 4)>(%c0_6)
    %932 = affine.load %alloca[%arg3, %763, %931] : memref<1x4x8xf32>
    %933 = affine.load %alloca_10[%arg3, %931, %907] : memref<1x8x4xf32>
    %934 = affine.load %alloca_11[%arg3, %763, %907] : memref<1x4x4xf32>
    %935 = arith.mulf %932, %933 : f32
    %936 = arith.addf %934, %935 : f32
    affine.store %936, %alloca_11[%arg3, %763, %907] : memref<1x4x4xf32>
    %937 = affine.apply affine_map<(d0) -> (d0 + 5)>(%c0_6)
    %938 = affine.load %alloca[%arg3, %763, %937] : memref<1x4x8xf32>
    %939 = affine.load %alloca_10[%arg3, %937, %907] : memref<1x8x4xf32>
    %940 = affine.load %alloca_11[%arg3, %763, %907] : memref<1x4x4xf32>
    %941 = arith.mulf %938, %939 : f32
    %942 = arith.addf %940, %941 : f32
    affine.store %942, %alloca_11[%arg3, %763, %907] : memref<1x4x4xf32>
    %943 = affine.apply affine_map<(d0) -> (d0 + 6)>(%c0_6)
    %944 = affine.load %alloca[%arg3, %763, %943] : memref<1x4x8xf32>
    %945 = affine.load %alloca_10[%arg3, %943, %907] : memref<1x8x4xf32>
    %946 = affine.load %alloca_11[%arg3, %763, %907] : memref<1x4x4xf32>
    %947 = arith.mulf %944, %945 : f32
    %948 = arith.addf %946, %947 : f32
    affine.store %948, %alloca_11[%arg3, %763, %907] : memref<1x4x4xf32>
    %949 = affine.apply affine_map<(d0) -> (d0 + 7)>(%c0_6)
    %950 = affine.load %alloca[%arg3, %763, %949] : memref<1x4x8xf32>
    %951 = affine.load %alloca_10[%arg3, %949, %907] : memref<1x8x4xf32>
    %952 = affine.load %alloca_11[%arg3, %763, %907] : memref<1x4x4xf32>
    %953 = arith.mulf %950, %951 : f32
    %954 = arith.addf %952, %953 : f32
    affine.store %954, %alloca_11[%arg3, %763, %907] : memref<1x4x4xf32>
  }
  %157 = affine.load %alloca_11[0, %c0_0, %c0_5] : memref<1x4x4xf32>
  affine.store %157, %arg2[0, %c0_0, %c0_5] : memref<1x4x4xf32>
  %158 = affine.apply affine_map<(d0) -> (d0 + 1)>(%c0_5)
  %159 = affine.load %alloca_11[0, %c0_0, %158] : memref<1x4x4xf32>
  affine.store %159, %arg2[0, %c0_0, %158] : memref<1x4x4xf32>
  %160 = affine.apply affine_map<(d0) -> (d0 + 2)>(%c0_5)
  %161 = affine.load %alloca_11[0, %c0_0, %160] : memref<1x4x4xf32>
  affine.store %161, %arg2[0, %c0_0, %160] : memref<1x4x4xf32>
  %162 = affine.apply affine_map<(d0) -> (d0 + 3)>(%c0_5)
  %163 = affine.load %alloca_11[0, %c0_0, %162] : memref<1x4x4xf32>
  affine.store %163, %arg2[0, %c0_0, %162] : memref<1x4x4xf32>
  %164 = affine.apply affine_map<(d0) -> (d0 + 1)>(%c0_0)
  %165 = affine.load %alloca_11[0, %164, %c0_5] : memref<1x4x4xf32>
  affine.store %165, %arg2[0, %164, %c0_5] : memref<1x4x4xf32>
  %166 = affine.apply affine_map<(d0) -> (d0 + 1)>(%c0_5)
  %167 = affine.load %alloca_11[0, %164, %166] : memref<1x4x4xf32>
  affine.store %167, %arg2[0, %164, %166] : memref<1x4x4xf32>
  %168 = affine.apply affine_map<(d0) -> (d0 + 2)>(%c0_5)
  %169 = affine.load %alloca_11[0, %164, %168] : memref<1x4x4xf32>
  affine.store %169, %arg2[0, %164, %168] : memref<1x4x4xf32>
  %170 = affine.apply affine_map<(d0) -> (d0 + 3)>(%c0_5)
  %171 = affine.load %alloca_11[0, %164, %170] : memref<1x4x4xf32>
  affine.store %171, %arg2[0, %164, %170] : memref<1x4x4xf32>
  %172 = affine.apply affine_map<(d0) -> (d0 + 2)>(%c0_0)
  %173 = affine.load %alloca_11[0, %172, %c0_5] : memref<1x4x4xf32>
  affine.store %173, %arg2[0, %172, %c0_5] : memref<1x4x4xf32>
  %174 = affine.apply affine_map<(d0) -> (d0 + 1)>(%c0_5)
  %175 = affine.load %alloca_11[0, %172, %174] : memref<1x4x4xf32>
  affine.store %175, %arg2[0, %172, %174] : memref<1x4x4xf32>
  %176 = affine.apply affine_map<(d0) -> (d0 + 2)>(%c0_5)
  %177 = affine.load %alloca_11[0, %172, %176] : memref<1x4x4xf32>
  affine.store %177, %arg2[0, %172, %176] : memref<1x4x4xf32>
  %178 = affine.apply affine_map<(d0) -> (d0 + 3)>(%c0_5)
  %179 = affine.load %alloca_11[0, %172, %178] : memref<1x4x4xf32>
  affine.store %179, %arg2[0, %172, %178] : memref<1x4x4xf32>
  %180 = affine.apply affine_map<(d0) -> (d0 + 3)>(%c0_0)
  %181 = affine.load %alloca_11[0, %180, %c0_5] : memref<1x4x4xf32>
  affine.store %181, %arg2[0, %180, %c0_5] : memref<1x4x4xf32>
  %182 = affine.apply affine_map<(d0) -> (d0 + 1)>(%c0_5)
  %183 = affine.load %alloca_11[0, %180, %182] : memref<1x4x4xf32>
  affine.store %183, %arg2[0, %180, %182] : memref<1x4x4xf32>
  %184 = affine.apply affine_map<(d0) -> (d0 + 2)>(%c0_5)
  %185 = affine.load %alloca_11[0, %180, %184] : memref<1x4x4xf32>
  affine.store %185, %arg2[0, %180, %184] : memref<1x4x4xf32>
  %186 = affine.apply affine_map<(d0) -> (d0 + 3)>(%c0_5)
  %187 = affine.load %alloca_11[0, %180, %186] : memref<1x4x4xf32>
  affine.store %187, %arg2[0, %180, %186] : memref<1x4x4xf32>
  return
}

// -----// IR Dump After CSE (cse) //----- //
#map = affine_map<(d0) -> (d0 + 1)>
#map1 = affine_map<(d0) -> (d0 + 2)>
#map2 = affine_map<(d0) -> (d0 + 3)>
#map3 = affine_map<(d0) -> (d0 + 4)>
#map4 = affine_map<(d0) -> (d0 + 5)>
#map5 = affine_map<(d0) -> (d0 + 6)>
#map6 = affine_map<(d0) -> (d0 + 7)>
module attributes {soda.bambu.container_module, soda.container_module, tf.versions = {bad_consumers = [], min_consumer = 0 : i32, producer = 1882 : i32}} {
  func.func @main_kernel(%arg0: memref<1x4x8xf32> {llvm.noalias}, %arg1: memref<1x8x4xf32> {llvm.noalias}, %arg2: memref<1x4x4xf32> {llvm.noalias}) {
    %c0 = arith.constant 0 : index
    cf.br ^bb1
  ^bb1:  // pred: ^bb0
    %alloca = memref.alloca() : memref<1x4x8xf32>
    %0 = affine.load %arg0[0, %c0, %c0] : memref<1x4x8xf32>
    affine.store %0, %alloca[0, %c0, %c0] : memref<1x4x8xf32>
    %1 = affine.apply #map(%c0)
    %2 = affine.load %arg0[0, %c0, %1] : memref<1x4x8xf32>
    affine.store %2, %alloca[0, %c0, %1] : memref<1x4x8xf32>
    %3 = affine.apply #map1(%c0)
    %4 = affine.load %arg0[0, %c0, %3] : memref<1x4x8xf32>
    affine.store %4, %alloca[0, %c0, %3] : memref<1x4x8xf32>
    %5 = affine.apply #map2(%c0)
    %6 = affine.load %arg0[0, %c0, %5] : memref<1x4x8xf32>
    affine.store %6, %alloca[0, %c0, %5] : memref<1x4x8xf32>
    %7 = affine.apply #map3(%c0)
    %8 = affine.load %arg0[0, %c0, %7] : memref<1x4x8xf32>
    affine.store %8, %alloca[0, %c0, %7] : memref<1x4x8xf32>
    %9 = affine.apply #map4(%c0)
    %10 = affine.load %arg0[0, %c0, %9] : memref<1x4x8xf32>
    affine.store %10, %alloca[0, %c0, %9] : memref<1x4x8xf32>
    %11 = affine.apply #map5(%c0)
    %12 = affine.load %arg0[0, %c0, %11] : memref<1x4x8xf32>
    affine.store %12, %alloca[0, %c0, %11] : memref<1x4x8xf32>
    %13 = affine.apply #map6(%c0)
    %14 = affine.load %arg0[0, %c0, %13] : memref<1x4x8xf32>
    affine.store %14, %alloca[0, %c0, %13] : memref<1x4x8xf32>
    %15 = affine.load %arg0[0, %1, %c0] : memref<1x4x8xf32>
    affine.store %15, %alloca[0, %1, %c0] : memref<1x4x8xf32>
    %16 = affine.load %arg0[0, %1, %1] : memref<1x4x8xf32>
    affine.store %16, %alloca[0, %1, %1] : memref<1x4x8xf32>
    %17 = affine.load %arg0[0, %1, %3] : memref<1x4x8xf32>
    affine.store %17, %alloca[0, %1, %3] : memref<1x4x8xf32>
    %18 = affine.load %arg0[0, %1, %5] : memref<1x4x8xf32>
    affine.store %18, %alloca[0, %1, %5] : memref<1x4x8xf32>
    %19 = affine.load %arg0[0, %1, %7] : memref<1x4x8xf32>
    affine.store %19, %alloca[0, %1, %7] : memref<1x4x8xf32>
    %20 = affine.load %arg0[0, %1, %9] : memref<1x4x8xf32>
    affine.store %20, %alloca[0, %1, %9] : memref<1x4x8xf32>
    %21 = affine.load %arg0[0, %1, %11] : memref<1x4x8xf32>
    affine.store %21, %alloca[0, %1, %11] : memref<1x4x8xf32>
    %22 = affine.load %arg0[0, %1, %13] : memref<1x4x8xf32>
    affine.store %22, %alloca[0, %1, %13] : memref<1x4x8xf32>
    %23 = affine.load %arg0[0, %3, %c0] : memref<1x4x8xf32>
    affine.store %23, %alloca[0, %3, %c0] : memref<1x4x8xf32>
    %24 = affine.load %arg0[0, %3, %1] : memref<1x4x8xf32>
    affine.store %24, %alloca[0, %3, %1] : memref<1x4x8xf32>
    %25 = affine.load %arg0[0, %3, %3] : memref<1x4x8xf32>
    affine.store %25, %alloca[0, %3, %3] : memref<1x4x8xf32>
    %26 = affine.load %arg0[0, %3, %5] : memref<1x4x8xf32>
    affine.store %26, %alloca[0, %3, %5] : memref<1x4x8xf32>
    %27 = affine.load %arg0[0, %3, %7] : memref<1x4x8xf32>
    affine.store %27, %alloca[0, %3, %7] : memref<1x4x8xf32>
    %28 = affine.load %arg0[0, %3, %9] : memref<1x4x8xf32>
    affine.store %28, %alloca[0, %3, %9] : memref<1x4x8xf32>
    %29 = affine.load %arg0[0, %3, %11] : memref<1x4x8xf32>
    affine.store %29, %alloca[0, %3, %11] : memref<1x4x8xf32>
    %30 = affine.load %arg0[0, %3, %13] : memref<1x4x8xf32>
    affine.store %30, %alloca[0, %3, %13] : memref<1x4x8xf32>
    %31 = affine.load %arg0[0, %5, %c0] : memref<1x4x8xf32>
    affine.store %31, %alloca[0, %5, %c0] : memref<1x4x8xf32>
    %32 = affine.load %arg0[0, %5, %1] : memref<1x4x8xf32>
    affine.store %32, %alloca[0, %5, %1] : memref<1x4x8xf32>
    %33 = affine.load %arg0[0, %5, %3] : memref<1x4x8xf32>
    affine.store %33, %alloca[0, %5, %3] : memref<1x4x8xf32>
    %34 = affine.load %arg0[0, %5, %5] : memref<1x4x8xf32>
    affine.store %34, %alloca[0, %5, %5] : memref<1x4x8xf32>
    %35 = affine.load %arg0[0, %5, %7] : memref<1x4x8xf32>
    affine.store %35, %alloca[0, %5, %7] : memref<1x4x8xf32>
    %36 = affine.load %arg0[0, %5, %9] : memref<1x4x8xf32>
    affine.store %36, %alloca[0, %5, %9] : memref<1x4x8xf32>
    %37 = affine.load %arg0[0, %5, %11] : memref<1x4x8xf32>
    affine.store %37, %alloca[0, %5, %11] : memref<1x4x8xf32>
    %38 = affine.load %arg0[0, %5, %13] : memref<1x4x8xf32>
    affine.store %38, %alloca[0, %5, %13] : memref<1x4x8xf32>
    %alloca_0 = memref.alloca() : memref<1x8x4xf32>
    %39 = affine.load %arg1[0, %c0, %c0] : memref<1x8x4xf32>
    affine.store %39, %alloca_0[0, %c0, %c0] : memref<1x8x4xf32>
    %40 = affine.load %arg1[0, %c0, %1] : memref<1x8x4xf32>
    affine.store %40, %alloca_0[0, %c0, %1] : memref<1x8x4xf32>
    %41 = affine.load %arg1[0, %c0, %3] : memref<1x8x4xf32>
    affine.store %41, %alloca_0[0, %c0, %3] : memref<1x8x4xf32>
    %42 = affine.load %arg1[0, %c0, %5] : memref<1x8x4xf32>
    affine.store %42, %alloca_0[0, %c0, %5] : memref<1x8x4xf32>
    %43 = affine.load %arg1[0, %1, %c0] : memref<1x8x4xf32>
    affine.store %43, %alloca_0[0, %1, %c0] : memref<1x8x4xf32>
    %44 = affine.load %arg1[0, %1, %1] : memref<1x8x4xf32>
    affine.store %44, %alloca_0[0, %1, %1] : memref<1x8x4xf32>
    %45 = affine.load %arg1[0, %1, %3] : memref<1x8x4xf32>
    affine.store %45, %alloca_0[0, %1, %3] : memref<1x8x4xf32>
    %46 = affine.load %arg1[0, %1, %5] : memref<1x8x4xf32>
    affine.store %46, %alloca_0[0, %1, %5] : memref<1x8x4xf32>
    %47 = affine.load %arg1[0, %3, %c0] : memref<1x8x4xf32>
    affine.store %47, %alloca_0[0, %3, %c0] : memref<1x8x4xf32>
    %48 = affine.load %arg1[0, %3, %1] : memref<1x8x4xf32>
    affine.store %48, %alloca_0[0, %3, %1] : memref<1x8x4xf32>
    %49 = affine.load %arg1[0, %3, %3] : memref<1x8x4xf32>
    affine.store %49, %alloca_0[0, %3, %3] : memref<1x8x4xf32>
    %50 = affine.load %arg1[0, %3, %5] : memref<1x8x4xf32>
    affine.store %50, %alloca_0[0, %3, %5] : memref<1x8x4xf32>
    %51 = affine.load %arg1[0, %5, %c0] : memref<1x8x4xf32>
    affine.store %51, %alloca_0[0, %5, %c0] : memref<1x8x4xf32>
    %52 = affine.load %arg1[0, %5, %1] : memref<1x8x4xf32>
    affine.store %52, %alloca_0[0, %5, %1] : memref<1x8x4xf32>
    %53 = affine.load %arg1[0, %5, %3] : memref<1x8x4xf32>
    affine.store %53, %alloca_0[0, %5, %3] : memref<1x8x4xf32>
    %54 = affine.load %arg1[0, %5, %5] : memref<1x8x4xf32>
    affine.store %54, %alloca_0[0, %5, %5] : memref<1x8x4xf32>
    %55 = affine.load %arg1[0, %7, %c0] : memref<1x8x4xf32>
    affine.store %55, %alloca_0[0, %7, %c0] : memref<1x8x4xf32>
    %56 = affine.load %arg1[0, %7, %1] : memref<1x8x4xf32>
    affine.store %56, %alloca_0[0, %7, %1] : memref<1x8x4xf32>
    %57 = affine.load %arg1[0, %7, %3] : memref<1x8x4xf32>
    affine.store %57, %alloca_0[0, %7, %3] : memref<1x8x4xf32>
    %58 = affine.load %arg1[0, %7, %5] : memref<1x8x4xf32>
    affine.store %58, %alloca_0[0, %7, %5] : memref<1x8x4xf32>
    %59 = affine.load %arg1[0, %9, %c0] : memref<1x8x4xf32>
    affine.store %59, %alloca_0[0, %9, %c0] : memref<1x8x4xf32>
    %60 = affine.load %arg1[0, %9, %1] : memref<1x8x4xf32>
    affine.store %60, %alloca_0[0, %9, %1] : memref<1x8x4xf32>
    %61 = affine.load %arg1[0, %9, %3] : memref<1x8x4xf32>
    affine.store %61, %alloca_0[0, %9, %3] : memref<1x8x4xf32>
    %62 = affine.load %arg1[0, %9, %5] : memref<1x8x4xf32>
    affine.store %62, %alloca_0[0, %9, %5] : memref<1x8x4xf32>
    %63 = affine.load %arg1[0, %11, %c0] : memref<1x8x4xf32>
    affine.store %63, %alloca_0[0, %11, %c0] : memref<1x8x4xf32>
    %64 = affine.load %arg1[0, %11, %1] : memref<1x8x4xf32>
    affine.store %64, %alloca_0[0, %11, %1] : memref<1x8x4xf32>
    %65 = affine.load %arg1[0, %11, %3] : memref<1x8x4xf32>
    affine.store %65, %alloca_0[0, %11, %3] : memref<1x8x4xf32>
    %66 = affine.load %arg1[0, %11, %5] : memref<1x8x4xf32>
    affine.store %66, %alloca_0[0, %11, %5] : memref<1x8x4xf32>
    %67 = affine.load %arg1[0, %13, %c0] : memref<1x8x4xf32>
    affine.store %67, %alloca_0[0, %13, %c0] : memref<1x8x4xf32>
    %68 = affine.load %arg1[0, %13, %1] : memref<1x8x4xf32>
    affine.store %68, %alloca_0[0, %13, %1] : memref<1x8x4xf32>
    %69 = affine.load %arg1[0, %13, %3] : memref<1x8x4xf32>
    affine.store %69, %alloca_0[0, %13, %3] : memref<1x8x4xf32>
    %70 = affine.load %arg1[0, %13, %5] : memref<1x8x4xf32>
    affine.store %70, %alloca_0[0, %13, %5] : memref<1x8x4xf32>
    %alloca_1 = memref.alloca() : memref<1x4x4xf32>
    %71 = affine.load %arg2[0, %c0, %c0] : memref<1x4x4xf32>
    affine.store %71, %alloca_1[0, %c0, %c0] : memref<1x4x4xf32>
    %72 = affine.load %arg2[0, %c0, %1] : memref<1x4x4xf32>
    affine.store %72, %alloca_1[0, %c0, %1] : memref<1x4x4xf32>
    %73 = affine.load %arg2[0, %c0, %3] : memref<1x4x4xf32>
    affine.store %73, %alloca_1[0, %c0, %3] : memref<1x4x4xf32>
    %74 = affine.load %arg2[0, %c0, %5] : memref<1x4x4xf32>
    affine.store %74, %alloca_1[0, %c0, %5] : memref<1x4x4xf32>
    %75 = affine.load %arg2[0, %1, %c0] : memref<1x4x4xf32>
    affine.store %75, %alloca_1[0, %1, %c0] : memref<1x4x4xf32>
    %76 = affine.load %arg2[0, %1, %1] : memref<1x4x4xf32>
    affine.store %76, %alloca_1[0, %1, %1] : memref<1x4x4xf32>
    %77 = affine.load %arg2[0, %1, %3] : memref<1x4x4xf32>
    affine.store %77, %alloca_1[0, %1, %3] : memref<1x4x4xf32>
    %78 = affine.load %arg2[0, %1, %5] : memref<1x4x4xf32>
    affine.store %78, %alloca_1[0, %1, %5] : memref<1x4x4xf32>
    %79 = affine.load %arg2[0, %3, %c0] : memref<1x4x4xf32>
    affine.store %79, %alloca_1[0, %3, %c0] : memref<1x4x4xf32>
    %80 = affine.load %arg2[0, %3, %1] : memref<1x4x4xf32>
    affine.store %80, %alloca_1[0, %3, %1] : memref<1x4x4xf32>
    %81 = affine.load %arg2[0, %3, %3] : memref<1x4x4xf32>
    affine.store %81, %alloca_1[0, %3, %3] : memref<1x4x4xf32>
    %82 = affine.load %arg2[0, %3, %5] : memref<1x4x4xf32>
    affine.store %82, %alloca_1[0, %3, %5] : memref<1x4x4xf32>
    %83 = affine.load %arg2[0, %5, %c0] : memref<1x4x4xf32>
    affine.store %83, %alloca_1[0, %5, %c0] : memref<1x4x4xf32>
    %84 = affine.load %arg2[0, %5, %1] : memref<1x4x4xf32>
    affine.store %84, %alloca_1[0, %5, %1] : memref<1x4x4xf32>
    %85 = affine.load %arg2[0, %5, %3] : memref<1x4x4xf32>
    affine.store %85, %alloca_1[0, %5, %3] : memref<1x4x4xf32>
    %86 = affine.load %arg2[0, %5, %5] : memref<1x4x4xf32>
    affine.store %86, %alloca_1[0, %5, %5] : memref<1x4x4xf32>
    affine.for %arg3 = 0 to 1 {
      %103 = affine.load %alloca[%arg3, %c0, %c0] : memref<1x4x8xf32>
      %104 = affine.load %alloca_0[%arg3, %c0, %c0] : memref<1x8x4xf32>
      %105 = affine.load %alloca_1[%arg3, %c0, %c0] : memref<1x4x4xf32>
      %106 = arith.mulf %103, %104 : f32
      %107 = arith.addf %105, %106 : f32
…
    %799 = llvm.getelementptr %arg2[%798] : (!llvm.ptr, i64) -> !llvm.ptr, f32
    %800 = llvm.load %799 : !llvm.ptr -> f32
    %801 = llvm.mul %10, %8 : i64
    %802 = llvm.mul %9, %7 : i64
    %803 = llvm.add %801, %802 : i64
    %804 = llvm.add %803, %3 : i64
    %805 = llvm.getelementptr %717[%804] : (!llvm.ptr, i64) -> !llvm.ptr, f32
    llvm.store %800, %805 : f32, !llvm.ptr
    %806 = llvm.mul %10, %8 : i64
    %807 = llvm.mul %4, %7 : i64
    %808 = llvm.add %806, %807 : i64
    %809 = llvm.add %808, %10 : i64
    %810 = llvm.getelementptr %arg2[%809] : (!llvm.ptr, i64) -> !llvm.ptr, f32
    %811 = llvm.load %810 : !llvm.ptr -> f32
    %812 = llvm.mul %10, %8 : i64
    %813 = llvm.mul %4, %7 : i64
    %814 = llvm.add %812, %813 : i64
    %815 = llvm.add %814, %10 : i64
    %816 = llvm.getelementptr %717[%815] : (!llvm.ptr, i64) -> !llvm.ptr, f32
    llvm.store %811, %816 : f32, !llvm.ptr
    %817 = llvm.mul %10, %8 : i64
    %818 = llvm.mul %4, %7 : i64
    %819 = llvm.add %817, %818 : i64
    %820 = llvm.add %819, %9 : i64
    %821 = llvm.getelementptr %arg2[%820] : (!llvm.ptr, i64) -> !llvm.ptr, f32
    %822 = llvm.load %821 : !llvm.ptr -> f32
    %823 = llvm.mul %10, %8 : i64
    %824 = llvm.mul %4, %7 : i64
    %825 = llvm.add %823, %824 : i64
    %826 = llvm.add %825, %9 : i64
    %827 = llvm.getelementptr %717[%826] : (!llvm.ptr, i64) -> !llvm.ptr, f32
    llvm.store %822, %827 : f32, !llvm.ptr
    %828 = llvm.mul %10, %8 : i64
    %829 = llvm.mul %4, %7 : i64
    %830 = llvm.add %828, %829 : i64
    %831 = llvm.add %830, %4 : i64
    %832 = llvm.getelementptr %arg2[%831] : (!llvm.ptr, i64) -> !llvm.ptr, f32
    %833 = llvm.load %832 : !llvm.ptr -> f32
    %834 = llvm.mul %10, %8 : i64
    %835 = llvm.mul %4, %7 : i64
    %836 = llvm.add %834, %835 : i64
    %837 = llvm.add %836, %4 : i64
    %838 = llvm.getelementptr %717[%837] : (!llvm.ptr, i64) -> !llvm.ptr, f32
    llvm.store %833, %838 : f32, !llvm.ptr
    %839 = llvm.mul %10, %8 : i64
    %840 = llvm.mul %4, %7 : i64
    %841 = llvm.add %839, %840 : i64
    %842 = llvm.add %841, %3 : i64
    %843 = llvm.getelementptr %arg2[%842] : (!llvm.ptr, i64) -> !llvm.ptr, f32
    %844 = llvm.load %843 : !llvm.ptr -> f32
    %845 = llvm.mul %10, %8 : i64
    %846 = llvm.mul %4, %7 : i64
    %847 = llvm.add %845, %846 : i64
    %848 = llvm.add %847, %3 : i64
    %849 = llvm.getelementptr %717[%848] : (!llvm.ptr, i64) -> !llvm.ptr, f32
    llvm.store %844, %849 : f32, !llvm.ptr
    %850 = llvm.mul %10, %8 : i64
    %851 = llvm.mul %3, %7 : i64
    %852 = llvm.add %850, %851 : i64
    %853 = llvm.add %852, %10 : i64
    %854 = llvm.getelementptr %arg2[%853] : (!llvm.ptr, i64) -> !llvm.ptr, f32
    %855 = llvm.load %854 : !llvm.ptr -> f32
    %856 = llvm.mul %10, %8 : i64
    %857 = llvm.mul %3, %7 : i64
    %858 = llvm.add %856, %857 : i64
    %859 = llvm.add %858, %10 : i64
    %860 = llvm.getelementptr %717[%859] : (!llvm.ptr, i64) -> !llvm.ptr, f32
    llvm.store %855, %860 : f32, !llvm.ptr
    %861 = llvm.mul %10, %8 : i64
    %862 = llvm.mul %3, %7 : i64
    %863 = llvm.add %861, %862 : i64
    %864 = llvm.add %863, %9 : i64
    %865 = llvm.getelementptr %arg2[%864] : (!llvm.ptr, i64) -> !llvm.ptr, f32
    %866 = llvm.load %865 : !llvm.ptr -> f32
    %867 = llvm.mul %10, %8 : i64
    %868 = llvm.mul %3, %7 : i64
    %869 = llvm.add %867, %868 : i64
    %870 = llvm.add %869, %9 : i64
    %871 = llvm.getelementptr %717[%870] : (!llvm.ptr, i64) -> !llvm.ptr, f32
    llvm.store %866, %871 : f32, !llvm.ptr
    %872 = llvm.mul %10, %8 : i64
    %873 = llvm.mul %3, %7 : i64
    %874 = llvm.add %872, %873 : i64
    %875 = llvm.add %874, %4 : i64
    %876 = llvm.getelementptr %arg2[%875] : (!llvm.ptr, i64) -> !llvm.ptr, f32
    %877 = llvm.load %876 : !llvm.ptr -> f32
    %878 = llvm.mul %10, %8 : i64
    %879 = llvm.mul %3, %7 : i64
    %880 = llvm.add %878, %879 : i64
    %881 = llvm.add %880, %4 : i64
    %882 = llvm.getelementptr %717[%881] : (!llvm.ptr, i64) -> !llvm.ptr, f32
    llvm.store %877, %882 : f32, !llvm.ptr
    %883 = llvm.mul %10, %8 : i64
    %884 = llvm.mul %3, %7 : i64
    %885 = llvm.add %883, %884 : i64
    %886 = llvm.add %885, %3 : i64
    %887 = llvm.getelementptr %arg2[%886] : (!llvm.ptr, i64) -> !llvm.ptr, f32
    %888 = llvm.load %887 : !llvm.ptr -> f32
    %889 = llvm.mul %10, %8 : i64
    %890 = llvm.mul %3, %7 : i64
    %891 = llvm.add %889, %890 : i64
    %892 = llvm.add %891, %3 : i64
    %893 = llvm.getelementptr %717[%892] : (!llvm.ptr, i64) -> !llvm.ptr, f32
    llvm.store %888, %893 : f32, !llvm.ptr
    %894 = llvm.mul %10, %6 : i64
    %895 = llvm.mul %10, %5 : i64
    %896 = llvm.add %894, %895 : i64
    %897 = llvm.add %896, %10 : i64
    %898 = llvm.getelementptr %11[%897] : (!llvm.ptr, i64) -> !llvm.ptr, f32
    %899 = llvm.load %898 : !llvm.ptr -> f32
    %900 = llvm.mul %10, %6 : i64
    %901 = llvm.mul %10, %7 : i64
    %902 = llvm.add %900, %901 : i64
    %903 = llvm.add %902, %10 : i64
    %904 = llvm.getelementptr %364[%903] : (!llvm.ptr, i64) -> !llvm.ptr, f32
    %905 = llvm.load %904 : !llvm.ptr -> f32
    %906 = llvm.mul %10, %8 : i64
    %907 = llvm.mul %10, %7 : i64
    %908 = llvm.add %906, %907 : i64
    %909 = llvm.add %908, %10 : i64
    %910 = llvm.getelementptr %717[%909] : (!llvm.ptr, i64) -> !llvm.ptr, f32
    %911 = llvm.load %910 : !llvm.ptr -> f32
    %912 = llvm.fmul %899, %905  : f32
    %913 = llvm.fadd %911, %912  : f32
    %914 = llvm.mul %10, %6 : i64
    %915 = llvm.mul %10, %5 : i64
    %916 = llvm.add %914, %915 : i64
    %917 = llvm.add %916, %9 : i64
    %918 = llvm.getelementptr %11[%917] : (!llvm.ptr, i64) -> !llvm.ptr, f32
    %919 = llvm.load %918 : !llvm.ptr -> f32
    %920 = llvm.mul %10, %6 : i64
    %921 = llvm.mul %9, %7 : i64
    %922 = llvm.add %920, %921 : i64
    %923 = llvm.add %922, %10 : i64
    %924 = llvm.getelementptr %364[%923] : (!llvm.ptr, i64) -> !llvm.ptr, f32
    %925 = llvm.load %924 : !llvm.ptr -> f32
    %926 = llvm.fmul %919, %925  : f32
    %927 = llvm.fadd %913, %926  : f32
    %928 = llvm.mul %10, %6 : i64
    %929 = llvm.mul %10, %5 : i64
    %930 = llvm.add %928, %929 : i64
    %931 = llvm.add %930, %4 : i64
    %932 = llvm.getelementptr %11[%931] : (!llvm.ptr, i64) -> !llvm.ptr, f32
    %933 = llvm.load %932 : !llvm.ptr -> f32
    %934 = llvm.mul %10, %6 : i64
    %935 = llvm.mul %4, %7 : i64
    %936 = llvm.add %934, %935 : i64
    %937 = llvm.add %936, %10 : i64
    %938 = llvm.getelementptr %364[%937] : (!llvm.ptr, i64) -> !llvm.ptr, f32
    %939 = llvm.load %938 : !llvm.ptr -> f32
    %940 = llvm.fmul %933, %939  : f32
    %941 = llvm.fadd %927, %940  : f32
    %942 = llvm.mul %10, %6 : i64
    %943 = llvm.mul %10, %5 : i64
    %944 = llvm.add %942, %943 : i64
    %945 = llvm.add %944, %3 : i64
    %946 = llvm.getelementptr %11[%945] : (!llvm.ptr, i64) -> !llvm.ptr, f32
    %947 = llvm.load %946 : !llvm.ptr -> f32
    %948 = llvm.mul %10, %6 : i64
    %949 = llvm.mul %3, %7 : i64
    %950 = llvm.add %948, %949 : i64
    %951 = llvm.add %950, %10 : i64
    %952 = llvm.getelementptr %364[%951] : (!llvm.ptr, i64) -> !llvm.ptr, f32
    %953 = llvm.load %952 : !llvm.ptr -> f32
    %954 = llvm.fmul %947, %953  : f32
    %955 = llvm.fadd %941, %954  : f32
    %956 = llvm.mul %10, %6 : i64
    %957 = llvm.mul %10, %5 : i64
    %958 = llvm.add %956, %957 : i64
    %959 = llvm.add %958, %7 : i64
    %960 = llvm.getelementptr %11[%959] : (!llvm.ptr, i64) -> !llvm.ptr, f32
    %961 = llvm.load %960 : !llvm.ptr -> f32
    %962 = llvm.mul %10, %6 : i64
    %963 = llvm.mul %7, %7 : i64
    %964 = llvm.add %962, %963 : i64
    %965 = llvm.add %964, %10 : i64
    %966 = llvm.getelementptr %364[%965] : (!llvm.ptr, i64) -> !llvm.ptr, f32
    %967 = llvm.load %966 : !llvm.ptr -> f32
    %968 = llvm.fmul %961, %967  : f32
    %969 = llvm.fadd %955, %968  : f32
    %970 = llvm.mul %10, %6 : i64
    %971 = llvm.mul %10, %5 : i64
    %972 = llvm.add %970, %971 : i64
    %973 = llvm.add %972, %2 : i64
    %974 = llvm.getelementptr %11[%973] : (!llvm.ptr, i64) -> !llvm.ptr, f32
    %975 = llvm.load %974 : !llvm.ptr -> f32
    %976 = llvm.mul %10, %6 : i64
    %977 = llvm.mul %2, %7 : i64
    %978 = llvm.add %976, %977 : i64
    %979 = llvm.add %978, %10 : i64
    %980 = llvm.getelementptr %364[%979] : (!llvm.ptr, i64) -> !llvm.ptr, f32
    %981 = llvm.load %980 : !llvm.ptr -> f32
    %982 = llvm.fmul %975, %981  : f32
    %983 = llvm.fadd %969, %982  : f32
    %984 = llvm.mul %10, %6 : i64
    %985 = llvm.mul %10, %5 : i64
    %986 = llvm.add %984, %985 : i64
    %987 = llvm.add %986, %1 : i64
    %988 = llvm.getelementptr %11[%987] : (!llvm.ptr, i64) -> !llvm.ptr, f32
    %989 = llvm.load %988 : !llvm.ptr -> f32
    %990 = llvm.mul %10, %6 : i64
    %991 = llvm.mul %1, %7 : i64
    %992 = llvm.add %990, %991 : i64
    %993 = llvm.add %992, %10 : i64
    %994 = llvm.getelementptr %364[%993] : (!llvm.ptr, i64) -> !llvm.ptr, f32
    %995 = llvm.load %994 : !llvm.ptr -> f32
    %996 = llvm.fmul %989, %995  : f32
    %997 = llvm.fadd %983, %996  : f32
    %998 = llvm.mul %10, %6 : i64
    %999 = llvm.mul %10, %5 : i64
    %1000 = llvm.add %998, %999 : i64
    %1001 = llvm.add %1000, %0 : i64
    %1002 = llvm.getelementptr %11[%1001] : (!llvm.ptr, i64) -> !llvm.ptr, f32
    %1003 = llvm.load %1002 : !llvm.ptr -> f32
    %1004 = llvm.mul %10, %6 : i64
    %1005 = llvm.mul %0, %7 : i64
    %1006 = llvm.add %1004, %1005 : i64
    %1007 = llvm.add %1006, %10 : i64
    %1008 = llvm.getelementptr %364[%1007] : (!llvm.ptr, i64) -> !llvm.ptr, f32
    %1009 = llvm.load %1008 : !llvm.ptr -> f32
    %1010 = llvm.fmul %1003, %1009  : f32
    %1011 = llvm.fadd %997, %1010  : f32
    %1012 = llvm.mul %10, %8 : i64
    %1013 = llvm.mul %10, %7 : i64
    %1014 = llvm.add %1012, %1013 : i64
    %1015 = llvm.add %1014, %10 : i64
    %1016 = llvm.getelementptr %717[%1015] : (!llvm.ptr, i64) -> !llvm.ptr, f32
    llvm.store %1011, %1016 : f32, !llvm.ptr
    %1017 = llvm.mul %10, %6 : i64
    %1018 = llvm.mul %10, %7 : i64
    %1019 = llvm.add %1017, %1018 : i64
    %1020 = llvm.add %1019, %9 : i64
    %1021 = llvm.getelementptr %364[%1020] : (!llvm.ptr, i64) -> !llvm.ptr, f32
    %1022 = llvm.load %1021 : !llvm.ptr -> f32
    %1023 = llvm.mul %10, %8 : i64
    %1024 = llvm.mul %10, %7 : i64
    %1025 = llvm.add %1023, %1024 : i64
    %1026 = llvm.add %1025, %9 : i64
    %1027 = llvm.getelementptr %717[%1026] : (!llvm.ptr, i64) -> !llvm.ptr, f32
    %1028 = llvm.load %1027 : !llvm.ptr -> f32
    %1029 = llvm.fmul %899, %1022  : f32
    %1030 = llvm.fadd %1028, %1029  : f32
    %1031 = llvm.mul %10, %6 : i64
    %1032 = llvm.mul %9, %7 : i64
    %1033 = llvm.add %1031, %1032 : i64
    %1034 = llvm.add %1033, %9 : i64
    %1035 = llvm.getelementptr %364[%1034] : (!llvm.ptr, i64) -> !llvm.ptr, f32
    %1036 = llvm.load %1035 : !llvm.ptr -> f32
    %1037 = llvm.fmul %919, %1036  : f32
    %1038 = llvm.fadd %1030, %1037  : f32
    %1039 = llvm.mul %10, %6 : i64
    %1040 = llvm.mul %4, %7 : i64
    %1041 = llvm.add %1039, %1040 : i64
    %1042 = llvm.add %1041, %9 : i64
    %1043 = llvm.getelementptr %364[%1042] : (!llvm.ptr, i64) -> !llvm.ptr, f32
    %1044 = llvm.load %1043 : !llvm.ptr -> f32
    %1045 = llvm.fmul %933, %1044  : f32
    %1046 = llvm.fadd %1038, %1045  : f32
    %1047 = llvm.mul %10, %6 : i64
    %1048 = llvm.mul %3, %7 : i64
    %1049 = llvm.add %1047, %1048 : i64
    %1050 = llvm.add %1049, %9 : i64
    %1051 = llvm.getelementptr %364[%1050] : (!llvm.ptr, i64) -> !llvm.ptr, f32
    %1052 = llvm.load %1051 : !llvm.ptr -> f32
    %1053 = llvm.fmul %947, %1052  : f32
    %1054 = llvm.fadd %1046, %1053  : f32
    %1055 = llvm.mul %10, %6 : i64
    %1056 = llvm.mul %7, %7 : i64
    %1057 = llvm.add %1055, %1056 : i64
    %1058 = llvm.add %1057, %9 : i64
    %1059 = llvm.getelementptr %364[%1058] : (!llvm.ptr, i64) -> !llvm.ptr, f32
    %1060 = llvm.load %1059 : !llvm.ptr -> f32
    %1061 = llvm.fmul %961, %1060  : f32
    %1062 = llvm.fadd %1054, %1061  : f32
    %1063 = llvm.mul %10, %6 : i64
    %1064 = llvm.mul %2, %7 : i64
    %1065 = llvm.add %1063, %1064 : i64
    %1066 = llvm.add %1065, %9 : i64
    %1067 = llvm.getelementptr %364[%1066] : (!llvm.ptr, i64) -> !llvm.ptr, f32
    %1068 = llvm.load %1067 : !llvm.ptr -> f32
    %1069 = llvm.fmul %975, %1068  : f32
    %1070 = llvm.fadd %1062, %1069  : f32
    %1071 = llvm.mul %10, %6 : i64
    %1072 = llvm.mul %1, %7 : i64
    %1073 = llvm.add %1071, %1072 : i64
    %1074 = llvm.add %1073, %9 : i64
    %1075 = llvm.getelementptr %364[%1074] : (!llvm.ptr, i64) -> !llvm.ptr, f32
    %1076 = llvm.load %1075 : !llvm.ptr -> f32
    %1077 = llvm.fmul %989, %1076  : f32
    %1078 = llvm.fadd %1070, %1077  : f32
    %1079 = llvm.mul %10, %6 : i64
    %1080 = llvm.mul %0, %7 : i64
    %1081 = llvm.add %1079, %1080 : i64
    %1082 = llvm.add %1081, %9 : i64
    %1083 = llvm.getelementptr %364[%1082] : (!llvm.ptr, i64) -> !llvm.ptr, f32
    %1084 = llvm.load %1083 : !llvm.ptr -> f32
    %1085 = llvm.fmul %1003, %1084  : f32
    %1086 = llvm.fadd %1078, %1085  : f32
    %1087 = llvm.mul %10, %8 : i64
    %1088 = llvm.mul %10, %7 : i64
    %1089 = llvm.add %1087, %1088 : i64
    %1090 = llvm.add %1089, %9 : i64
    %1091 = llvm.getelementptr %717[%1090] : (!llvm.ptr, i64) -> !llvm.ptr, f32
    llvm.store %1086, %1091 : f32, !llvm.ptr
    %1092 = llvm.mul %10, %6 : i64
    %1093 = llvm.mul %10, %7 : i64
    %1094 = llvm.add %1092, %1093 : i64
    %1095 = llvm.add %1094, %4 : i64
    %1096 = llvm.getelementptr %364[%1095] : (!llvm.ptr, i64) -> !llvm.ptr, f32
    %1097 = llvm.load %1096 : !llvm.ptr -> f32
    %1098 = llvm.mul %10, %8 : i64
    %1099 = llvm.mul %10, %7 : i64
    %1100 = llvm.add %1098, %1099 : i64
    %1101 = llvm.add %1100, %4 : i64
    %1102 = llvm.getelementptr %717[%1101] : (!llvm.ptr, i64) -> !llvm.ptr, f32
    %1103 = llvm.load %1102 : !llvm.ptr -> f32
    %1104 = llvm.fmul %899, %1097  : f32
    %1105 = llvm.fadd %1103, %1104  : f32
    %1106 = llvm.mul %10, %6 : i64
    %1107 = llvm.mul %9, %7 : i64
    %1108 = llvm.add %1106, %1107 : i64
    %1109 = llvm.add %1108, %4 : i64
    %1110 = llvm.getelementptr %364[%1109] : (!llvm.ptr, i64) -> !llvm.ptr, f32
    %1111 = llvm.load %1110 : !llvm.ptr -> f32
    %1112 = llvm.fmul %919, %1111  : f32
    %1113 = llvm.fadd %1105, %1112  : f32
    %1114 = llvm.mul %10, %6 : i64
    %1115 = llvm.mul %4, %7 : i64
    %1116 = llvm.add %1114, %1115 : i64
    %1117 = llvm.add %1116, %4 : i64
    %1118 = llvm.getelementptr %364[%1117] : (!llvm.ptr, i64) -> !llvm.ptr, f32
    %1119 = llvm.load %1118 : !llvm.ptr -> f32
    %1120 = llvm.fmul %933, %1119  : f32
    %1121 = llvm.fadd %1113, %1120  : f32
    %1122 = llvm.mul %10, %6 : i64
    %1123 = llvm.mul %3, %7 : i64
    %1124 = llvm.add %1122, %1123 : i64
    %1125 = llvm.add %1124, %4 : i64
    %1126 = llvm.getelementptr %364[%1125] : (!llvm.ptr, i64) -> !llvm.ptr, f32
    %1127 = llvm.load %1126 : !llvm.ptr -> f32
    %1128 = llvm.fmul %947, %1127  : f32
    %1129 = llvm.fadd %1121, %1128  : f32
    %1130 = llvm.mul %10, %6 : i64
    %1131 = llvm.mul %7, %7 : i64
    %1132 = llvm.add %1130, %1131 : i64
    %1133 = llvm.add %1132, %4 : i64
    %1134 = llvm.getelementptr %364[%1133] : (!llvm.ptr, i64) -> !llvm.ptr, f32
    %1135 = llvm.load %1134 : !llvm.ptr -> f32
    %1136 = llvm.fmul %961, %1135  : f32
    %1137 = llvm.fadd %1129, %1136  : f32
    %1138 = llvm.mul %10, %6 : i64
    %1139 = llvm.mul %2, %7 : i64
    %1140 = llvm.add %1138, %1139 : i64
    %1141 = llvm.add %1140, %4 : i64
    %1142 = llvm.getelementptr %364[%1141] : (!llvm.ptr, i64) -> !llvm.ptr, f32
    %1143 = llvm.load %1142 : !llvm.ptr -> f32
    %1144 = llvm.fmul %975, %1143  : f32
    %1145 = llvm.fadd %1137, %1144  : f32
    %1146 = llvm.mul %10, %6 : i64
    %1147 = llvm.mul %1, %7 : i64
    %1148 = llvm.add %1146, %1147 : i64
    %1149 = llvm.add %1148, %4 : i64
    %1150 = llvm.getelementptr %364[%1149] : (!llvm.ptr, i64) -> !llvm.ptr, f32
    %1151 = llvm.load %1150 : !llvm.ptr -> f32
    %1152 = llvm.fmul %989, %1151  : f32
    %1153 = llvm.fadd %1145, %1152  : f32
    %1154 = llvm.mul %10, %6 : i64
    %1155 = llvm.mul %0, %7 : i64
    %1156 = llvm.add %1154, %1155 : i64
    %1157 = llvm.add %1156, %4 : i64
    %1158 = llvm.getelementptr %364[%1157] : (!llvm.ptr, i64) -> !llvm.ptr, f32
    %1159 = llvm.load %1158 : !llvm.ptr -> f32
    %1160 = llvm.fmul %1003, %1159  : f32
    %1161 = llvm.fadd %1153, %1160  : f32
    %1162 = llvm.mul %10, %8 : i64
    %1163 = llvm.mul %10, %7 : i64
    %1164 = llvm.add %1162, %1163 : i64
    %1165 = llvm.add %1164, %4 : i64
    %1166 = llvm.getelementptr %717[%1165] : (!llvm.ptr, i64) -> !llvm.ptr, f32
    llvm.store %1161, %1166 : f32, !llvm.ptr
    %1167 = llvm.mul %10, %6 : i64
    %1168 = llvm.mul %10, %7 : i64
    %1169 = llvm.add %1167, %1168 : i64
    %1170 = llvm.add %1169, %3 : i64
    %1171 = llvm.getelementptr %364[%1170] : (!llvm.ptr, i64) -> !llvm.ptr, f32
    %1172 = llvm.load %1171 : !llvm.ptr -> f32
    %1173 = llvm.mul %10, %8 : i64
    %1174 = llvm.mul %10, %7 : i64
    %1175 = llvm.add %1173, %1174 : i64
    %1176 = llvm.add %1175, %3 : i64
    %1177 = llvm.getelementptr %717[%1176] : (!llvm.ptr, i64) -> !llvm.ptr, f32
    %1178 = llvm.load %1177 : !llvm.ptr -> f32
    %1179 = llvm.fmul %899, %1172  : f32
    %1180 = llvm.fadd %1178, %1179  : f32
    %1181 = llvm.mul %10, %6 : i64
    %1182 = llvm.mul %9, %7 : i64
    %1183 = llvm.add %1181, %1182 : i64
    %1184 = llvm.add %1183, %3 : i64
    %1185 = llvm.getelementptr %364[%1184] : (!llvm.ptr, i64) -> !llvm.ptr, f32
    %1186 = llvm.load %1185 : !llvm.ptr -> f32
    %1187 = llvm.fmul %919, %1186  : f32
    %1188 = llvm.fadd %1180, %1187  : f32
    %1189 = llvm.mul %10, %6 : i64
    %1190 = llvm.mul %4, %7 : i64
    %1191 = llvm.add %1189, %1190 : i64
    %1192 = llvm.add %1191, %3 : i64
    %1193 = llvm.getelementptr %364[%1192] : (!llvm.ptr, i64) -> !llvm.ptr, f32
    %1194 = llvm.load %1193 : !llvm.ptr -> f32
    %1195 = llvm.fmul %933, %1194  : f32
    %1196 = llvm.fadd %1188, %1195  : f32
    %1197 = llvm.mul %10, %6 : i64
    %1198 = llvm.mul %3, %7 : i64
    %1199 = llvm.add %1197, %1198 : i64
    %1200 = llvm.add %1199, %3 : i64
    %1201 = llvm.getelementptr %364[%1200] : (!llvm.ptr, i64) -> !llvm.ptr, f32
    %1202 = llvm.load %1201 : !llvm.ptr -> f32
    %1203 = llvm.fmul %947, %1202  : f32
    %1204 = llvm.fadd %1196, %1203  : f32
    %1205 = llvm.mul %10, %6 : i64
    %1206 = llvm.mul %7, %7 : i64
    %1207 = llvm.add %1205, %1206 : i64
    %1208 = llvm.add %1207, %3 : i64
    %1209 = llvm.getelementptr %364[%1208] : (!llvm.ptr, i64) -> !llvm.ptr, f32
    %1210 = llvm.load %1209 : !llvm.ptr -> f32
    %1211 = llvm.fmul %961, %1210  : f32
    %1212 = llvm.fadd %1204, %1211  : f32
    %1213 = llvm.mul %10, %6 : i64
    %1214 = llvm.mul %2, %7 : i64
    %1215 = llvm.add %1213, %1214 : i64
    %1216 = llvm.add %1215, %3 : i64
    %1217 = llvm.getelementptr %364[%1216] : (!llvm.ptr, i64) -> !llvm.ptr, f32
    %1218 = llvm.load %1217 : !llvm.ptr -> f32
    %1219 = llvm.fmul %975, %1218  : f32
    %1220 = llvm.fadd %1212, %1219  : f32
    %1221 = llvm.mul %10, %6 : i64
    %1222 = llvm.mul %1, %7 : i64
    %1223 = llvm.add %1221, %1222 : i64
    %1224 = llvm.add %1223, %3 : i64
    %1225 = llvm.getelementptr %364[%1224] : (!llvm.ptr, i64) -> !llvm.ptr, f32
    %1226 = llvm.load %1225 : !llvm.ptr -> f32
    %1227 = llvm.fmul %989, %1226  : f32
    %1228 = llvm.fadd %1220, %1227  : f32
    %1229 = llvm.mul %10, %6 : i64
    %1230 = llvm.mul %0, %7 : i64
    %1231 = llvm.add %1229, %1230 : i64
    %1232 = llvm.add %1231, %3 : i64
    %1233 = llvm.getelementptr %364[%1232] : (!llvm.ptr, i64) -> !llvm.ptr, f32
    %1234 = llvm.load %1233 : !llvm.ptr -> f32
    %1235 = llvm.fmul %1003, %1234  : f32
    %1236 = llvm.fadd %1228, %1235  : f32
    %1237 = llvm.mul %10, %8 : i64
    %1238 = llvm.mul %10, %7 : i64
    %1239 = llvm.add %1237, %1238 : i64
    %1240 = llvm.add %1239, %3 : i64
    %1241 = llvm.getelementptr %717[%1240] : (!llvm.ptr, i64) -> !llvm.ptr, f32
    llvm.store %1236, %1241 : f32, !llvm.ptr
    %1242 = llvm.mul %10, %6 : i64
    %1243 = llvm.mul %9, %5 : i64
    %1244 = llvm.add %1242, %1243 : i64
    %1245 = llvm.add %1244, %10 : i64
    %1246 = llvm.getelementptr %11[%1245] : (!llvm.ptr, i64) -> !llvm.ptr, f32
    %1247 = llvm.load %1246 : !llvm.ptr -> f32
    %1248 = llvm.mul %10, %8 : i64
    %1249 = llvm.mul %9, %7 : i64
    %1250 = llvm.add %1248, %1249 : i64
    %1251 = llvm.add %1250, %10 : i64
    %1252 = llvm.getelementptr %717[%1251] : (!llvm.ptr, i64) -> !llvm.ptr, f32
    %1253 = llvm.load %1252 : !llvm.ptr -> f32
    %1254 = llvm.fmul %1247, %905  : f32
    %1255 = llvm.fadd %1253, %1254  : f32
    %1256 = llvm.mul %10, %6 : i64
    %1257 = llvm.mul %9, %5 : i64
    %1258 = llvm.add %1256, %1257 : i64
    %1259 = llvm.add %1258, %9 : i64
    %1260 = llvm.getelementptr %11[%1259] : (!llvm.ptr, i64) -> !llvm.ptr, f32
    %1261 = llvm.load %1260 : !llvm.ptr -> f32
    %1262 = llvm.fmul %1261, %925  : f32
    %1263 = llvm.fadd %1255, %1262  : f32
    %1264 = llvm.mul %10, %6 : i64
    %1265 = llvm.mul %9, %5 : i64
    %1266 = llvm.add %1264, %1265 : i64
    %1267 = llvm.add %1266, %4 : i64
    %1268 = llvm.getelementptr %11[%1267] : (!llvm.ptr, i64) -> !llvm.ptr, f32
    %1269 = llvm.load %1268 : !llvm.ptr -> f32
    %1270 = llvm.fmul %1269, %939  : f32
    %1271 = llvm.fadd %1263, %1270  : f32
    %1272 = llvm.mul %10, %6 : i64
    %1273 = llvm.mul %9, %5 : i64
    %1274 = llvm.add %1272, %1273 : i64
    %1275 = llvm.add %1274, %3 : i64
    %1276 = llvm.getelementptr %11[%1275] : (!llvm.ptr, i64) -> !llvm.ptr, f32
    %1277 = llvm.load %1276 : !llvm.ptr -> f32
    %1278 = llvm.fmul %1277, %953  : f32
    %1279 = llvm.fadd %1271, %1278  : f32
    %1280 = llvm.mul %10, %6 : i64
    %1281 = llvm.mul %9, %5 : i64
    %1282 = llvm.add %1280, %1281 : i64
    %1283 = llvm.add %1282, %7 : i64
    %1284 = llvm.getelementptr %11[%1283] : (!llvm.ptr, i64) -> !llvm.ptr, f32
    %1285 = llvm.load %1284 : !llvm.ptr -> f32
    %1286 = llvm.fmul %1285, %967  : f32
    %1287 = llvm.fadd %1279, %1286  : f32
    %1288 = llvm.mul %10, %6 : i64
    %1289 = llvm.mul %9, %5 : i64
    %1290 = llvm.add %1288, %1289 : i64
    %1291 = llvm.add %1290, %2 : i64
    %1292 = llvm.getelementptr %11[%1291] : (!llvm.ptr, i64) -> !llvm.ptr, f32
    %1293 = llvm.load %1292 : !llvm.ptr -> f32
    %1294 = llvm.fmul %1293, %981  : f32
    %1295 = llvm.fadd %1287, %1294  : f32
    %1296 = llvm.mul %10, %6 : i64
    %1297 = llvm.mul %9, %5 : i64
    %1298 = llvm.add %1296, %1297 : i64
    %1299 = llvm.add %1298, %1 : i64
    %1300 = llvm.getelementptr %11[%1299] : (!llvm.ptr, i64) -> !llvm.ptr, f32
    %1301 = llvm.load %1300 : !llvm.ptr -> f32
    %1302 = llvm.fmul %1301, %995  : f32
    %1303 = llvm.fadd %1295, %1302  : f32
    %1304 = llvm.mul %10, %6 : i64
    %1305 = llvm.mul %9, %5 : i64
    %1306 = llvm.add %1304, %1305 : i64
    %1307 = llvm.add %1306, %0 : i64
    %1308 = llvm.getelementptr %11[%1307] : (!llvm.ptr, i64) -> !llvm.ptr, f32
    %1309 = llvm.load %1308 : !llvm.ptr -> f32
    %1310 = llvm.fmul %1309, %1009  : f32
    %1311 = llvm.fadd %1303, %1310  : f32
    %1312 = llvm.mul %10, %8 : i64
    %1313 = llvm.mul %9, %7 : i64
    %1314 = llvm.add %1312, %1313 : i64
    %1315 = llvm.add %1314, %10 : i64
    %1316 = llvm.getelementptr %717[%1315] : (!llvm.ptr, i64) -> !llvm.ptr, f32
    llvm.store %1311, %1316 : f32, !llvm.ptr
    %1317 = llvm.mul %10, %8 : i64
    %1318 = llvm.mul %9, %7 : i64
    %1319 = llvm.add %1317, %1318 : i64
    %1320 = llvm.add %1319, %9 : i64
    %1321 = llvm.getelementptr %717[%1320] : (!llvm.ptr, i64) -> !llvm.ptr, f32
    %1322 = llvm.load %1321 : !llvm.ptr -> f32
    %1323 = llvm.fmul %1247, %1022  : f32
    %1324 = llvm.fadd %1322, %1323  : f32
    %1325 = llvm.fmul %1261, %1036  : f32
    %1326 = llvm.fadd %1324, %1325  : f32
    %1327 = llvm.fmul %1269, %1044  : f32
    %1328 = llvm.fadd %1326, %1327  : f32
    %1329 = llvm.fmul %1277, %1052  : f32
    %1330 = llvm.fadd %1328, %1329  : f32
    %1331 = llvm.fmul %1285, %1060  : f32
    %1332 = llvm.fadd %1330, %1331  : f32
    %1333 = llvm.fmul %1293, %1068  : f32
    %1334 = llvm.fadd %1332, %1333  : f32
    %1335 = llvm.fmul %1301, %1076  : f32
    %1336 = llvm.fadd %1334, %1335  : f32
    %1337 = llvm.fmul %1309, %1084  : f32
    %1338 = llvm.fadd %1336, %1337  : f32
    %1339 = llvm.mul %10, %8 : i64
    %1340 = llvm.mul %9, %7 : i64
    %1341 = llvm.add %1339, %1340 : i64
    %1342 = llvm.add %1341, %9 : i64
    %1343 = llvm.getelementptr %717[%1342] : (!llvm.ptr, i64) -> !llvm.ptr, f32
    llvm.store %1338, %1343 : f32, !llvm.ptr
    %1344 = llvm.mul %10, %8 : i64
    %1345 = llvm.mul %9, %7 : i64
    %1346 = llvm.add %1344, %1345 : i64
    %1347 = llvm.add %1346, %4 : i64
    %1348 = llvm.getelementptr %717[%1347] : (!llvm.ptr, i64) -> !llvm.ptr, f32
    %1349 = llvm.load %1348 : !llvm.ptr -> f32
    %1350 = llvm.fmul %1247, %1097  : f32
    %1351 = llvm.fadd %1349, %1350  : f32
    %1352 = llvm.fmul %1261, %1111  : f32
    %1353 = llvm.fadd %1351, %1352  : f32
    %1354 = llvm.fmul %1269, %1119  : f32
    %1355 = llvm.fadd %1353, %1354  : f32
    %1356 = llvm.fmul %1277, %1127  : f32
    %1357 = llvm.fadd %1355, %1356  : f32
    %1358 = llvm.fmul %1285, %1135  : f32
    %1359 = llvm.fadd %1357, %1358  : f32
    %1360 = llvm.fmul %1293, %1143  : f32
    %1361 = llvm.fadd %1359, %1360  : f32
    %1362 = llvm.fmul %1301, %1151  : f32
    %1363 = llvm.fadd %1361, %1362  : f32
    %1364 = llvm.fmul %1309, %1159  : f32
    %1365 = llvm.fadd %1363, %1364  : f32
    %1366 = llvm.mul %10, %8 : i64
    %1367 = llvm.mul %9, %7 : i64
    %1368 = llvm.add %1366, %1367 : i64
    %1369 = llvm.add %1368, %4 : i64
    %1370 = llvm.getelementptr %717[%1369] : (!llvm.ptr, i64) -> !llvm.ptr, f32
    llvm.store %1365, %1370 : f32, !llvm.ptr
    %1371 = llvm.mul %10, %8 : i64
    %1372 = llvm.mul %9, %7 : i64
    %1373 = llvm.add %1371, %1372 : i64
    %1374 = llvm.add %1373, %3 : i64
    %1375 = llvm.getelementptr %717[%1374] : (!llvm.ptr, i64) -> !llvm.ptr, f32
    %1376 = llvm.load %1375 : !llvm.ptr -> f32
    %1377 = llvm.fmul %1247, %1172  : f32
    %1378 = llvm.fadd %1376, %1377  : f32
    %1379 = llvm.fmul %1261, %1186  : f32
    %1380 = llvm.fadd %1378, %1379  : f32
    %1381 = llvm.fmul %1269, %1194  : f32
    %1382 = llvm.fadd %1380, %1381  : f32
    %1383 = llvm.fmul %1277, %1202  : f32
    %1384 = llvm.fadd %1382, %1383  : f32
    %1385 = llvm.fmul %1285, %1210  : f32
    %1386 = llvm.fadd %1384, %1385  : f32
    %1387 = llvm.fmul %1293, %1218  : f32
    %1388 = llvm.fadd %1386, %1387  : f32
    %1389 = llvm.fmul %1301, %1226  : f32
    %1390 = llvm.fadd %1388, %1389  : f32
    %1391 = llvm.fmul %1309, %1234  : f32
    %1392 = llvm.fadd %1390, %1391  : f32
    %1393 = llvm.mul %10, %8 : i64
    %1394 = llvm.mul %9, %7 : i64
    %1395 = llvm.add %1393, %1394 : i64
    %1396 = llvm.add %1395, %3 : i64
    %1397 = llvm.getelementptr %717[%1396] : (!llvm.ptr, i64) -> !llvm.ptr, f32
    llvm.store %1392, %1397 : f32, !llvm.ptr
    %1398 = llvm.mul %10, %6 : i64
    %1399 = llvm.mul %4, %5 : i64
    %1400 = llvm.add %1398, %1399 : i64
    %1401 = llvm.add %1400, %10 : i64
    %1402 = llvm.getelementptr %11[%1401] : (!llvm.ptr, i64) -> !llvm.ptr, f32
    %1403 = llvm.load %1402 : !llvm.ptr -> f32
    %1404 = llvm.mul %10, %8 : i64
    %1405 = llvm.mul %4, %7 : i64
    %1406 = llvm.add %1404, %1405 : i64
    %1407 = llvm.add %1406, %10 : i64
    %1408 = llvm.getelementptr %717[%1407] : (!llvm.ptr, i64) -> !llvm.ptr, f32
    %1409 = llvm.load %1408 : !llvm.ptr -> f32
    %1410 = llvm.fmul %1403, %905  : f32
    %1411 = llvm.fadd %1409, %1410  : f32
    %1412 = llvm.mul %10, %6 : i64
    %1413 = llvm.mul %4, %5 : i64
    %1414 = llvm.add %1412, %1413 : i64
    %1415 = llvm.add %1414, %9 : i64
    %1416 = llvm.getelementptr %11[%1415] : (!llvm.ptr, i64) -> !llvm.ptr, f32
    %1417 = llvm.load %1416 : !llvm.ptr -> f32
    %1418 = llvm.fmul %1417, %925  : f32
    %1419 = llvm.fadd %1411, %1418  : f32
    %1420 = llvm.mul %10, %6 : i64
    %1421 = llvm.mul %4, %5 : i64
    %1422 = llvm.add %1420, %1421 : i64
    %1423 = llvm.add %1422, %4 : i64
    %1424 = llvm.getelementptr %11[%1423] : (!llvm.ptr, i64) -> !llvm.ptr, f32
    %1425 = llvm.load %1424 : !llvm.ptr -> f32
    %1426 = llvm.fmul %1425, %939  : f32
    %1427 = llvm.fadd %1419, %1426  : f32
    %1428 = llvm.mul %10, %6 : i64
    %1429 = llvm.mul %4, %5 : i64
    %1430 = llvm.add %1428, %1429 : i64
    %1431 = llvm.add %1430, %3 : i64
    %1432 = llvm.getelementptr %11[%1431] : (!llvm.ptr, i64) -> !llvm.ptr, f32
    %1433 = llvm.load %1432 : !llvm.ptr -> f32
    %1434 = llvm.fmul %1433, %953  : f32
    %1435 = llvm.fadd %1427, %1434  : f32
    %1436 = llvm.mul %10, %6 : i64
    %1437 = llvm.mul %4, %5 : i64
    %1438 = llvm.add %1436, %1437 : i64
    %1439 = llvm.add %1438, %7 : i64
    %1440 = llvm.getelementptr %11[%1439] : (!llvm.ptr, i64) -> !llvm.ptr, f32
    %1441 = llvm.load %1440 : !llvm.ptr -> f32
    %1442 = llvm.fmul %1441, %967  : f32
    %1443 = llvm.fadd %1435, %1442  : f32
    %1444 = llvm.mul %10, %6 : i64
    %1445 = llvm.mul %4, %5 : i64
    %1446 = llvm.add %1444, %1445 : i64
    %1447 = llvm.add %1446, %2 : i64
    %1448 = llvm.getelementptr %11[%1447] : (!llvm.ptr, i64) -> !llvm.ptr, f32
    %1449 = llvm.load %1448 : !llvm.ptr -> f32
    %1450 = llvm.fmul %1449, %981  : f32
    %1451 = llvm.fadd %1443, %1450  : f32
    %1452 = llvm.mul %10, %6 : i64
    %1453 = llvm.mul %4, %5 : i64
    %1454 = llvm.add %1452, %1453 : i64
    %1455 = llvm.add %1454, %1 : i64
    %1456 = llvm.getelementptr %11[%1455] : (!llvm.ptr, i64) -> !llvm.ptr, f32
    %1457 = llvm.load %1456 : !llvm.ptr -> f32
    %1458 = llvm.fmul %1457, %995  : f32
    %1459 = llvm.fadd %1451, %1458  : f32
    %1460 = llvm.mul %10, %6 : i64
    %1461 = llvm.mul %4, %5 : i64
    %1462 = llvm.add %1460, %1461 : i64
    %1463 = llvm.add %1462, %0 : i64
    %1464 = llvm.getelementptr %11[%1463] : (!llvm.ptr, i64) -> !llvm.ptr, f32
    %1465 = llvm.load %1464 : !llvm.ptr -> f32
    %1466 = llvm.fmul %1465, %1009  : f32
    %1467 = llvm.fadd %1459, %1466  : f32
    %1468 = llvm.mul %10, %8 : i64
    %1469 = llvm.mul %4, %7 : i64
    %1470 = llvm.add %1468, %1469 : i64
    %1471 = llvm.add %1470, %10 : i64
    %1472 = llvm.getelementptr %717[%1471] : (!llvm.ptr, i64) -> !llvm.ptr, f32
    llvm.store %1467, %1472 : f32, !llvm.ptr
    %1473 = llvm.mul %10, %8 : i64
    %1474 = llvm.mul %4, %7 : i64
    %1475 = llvm.add %1473, %1474 : i64
    %1476 = llvm.add %1475, %9 : i64
    %1477 = llvm.getelementptr %717[%1476] : (!llvm.ptr, i64) -> !llvm.ptr, f32
    %1478 = llvm.load %1477 : !llvm.ptr -> f32
    %1479 = llvm.fmul %1403, %1022  : f32
    %1480 = llvm.fadd %1478, %1479  : f32
    %1481 = llvm.fmul %1417, %1036  : f32
    %1482 = llvm.fadd %1480, %1481  : f32
    %1483 = llvm.fmul %1425, %1044  : f32
    %1484 = llvm.fadd %1482, %1483  : f32
    %1485 = llvm.fmul %1433, %1052  : f32
    %1486 = llvm.fadd %1484, %1485  : f32
    %1487 = llvm.fmul %1441, %1060  : f32
    %1488 = llvm.fadd %1486, %1487  : f32
    %1489 = llvm.fmul %1449, %1068  : f32
    %1490 = llvm.fadd %1488, %1489  : f32
    %1491 = llvm.fmul %1457, %1076  : f32
    %1492 = llvm.fadd %1490, %1491  : f32
    %1493 = llvm.fmul %1465, %1084  : f32
    %1494 = llvm.fadd %1492, %1493  : f32
    %1495 = llvm.mul %10, %8 : i64
    %1496 = llvm.mul %4, %7 : i64
    %1497 = llvm.add %1495, %1496 : i64
    %1498 = llvm.add %1497, %9 : i64
    %1499 = llvm.getelementptr %717[%1498] : (!llvm.ptr, i64) -> !llvm.ptr, f32
    llvm.store %1494, %1499 : f32, !llvm.ptr
    %1500 = llvm.mul %10, %8 : i64
    %1501 = llvm.mul %4, %7 : i64
    %1502 = llvm.add %1500, %1501 : i64
    %1503 = llvm.add %1502, %4 : i64
    %1504 = llvm.getelementptr %717[%1503] : (!llvm.ptr, i64) -> !llvm.ptr, f32
    %1505 = llvm.load %1504 : !llvm.ptr -> f32
    %1506 = llvm.fmul %1403, %1097  : f32
    %1507 = llvm.fadd %1505, %1506  : f32
    %1508 = llvm.fmul %1417, %1111  : f32
    %1509 = llvm.fadd %1507, %1508  : f32
    %1510 = llvm.fmul %1425, %1119  : f32
    %1511 = llvm.fadd %1509, %1510  : f32
    %1512 = llvm.fmul %1433, %1127  : f32
    %1513 = llvm.fadd %1511, %1512  : f32
    %1514 = llvm.fmul %1441, %1135  : f32
    %1515 = llvm.fadd %1513, %1514  : f32
    %1516 = llvm.fmul %1449, %1143  : f32
    %1517 = llvm.fadd %1515, %1516  : f32
    %1518 = llvm.fmul %1457, %1151  : f32
    %1519 = llvm.fadd %1517, %1518  : f32
    %1520 = llvm.fmul %1465, %1159  : f32
    %1521 = llvm.fadd %1519, %1520  : f32
    %1522 = llvm.mul %10, %8 : i64
    %1523 = llvm.mul %4, %7 : i64
    %1524 = llvm.add %1522, %1523 : i64
    %1525 = llvm.add %1524, %4 : i64
    %1526 = llvm.getelementptr %717[%1525] : (!llvm.ptr, i64) -> !llvm.ptr, f32
    llvm.store %1521, %1526 : f32, !llvm.ptr
    %1527 = llvm.mul %10, %8 : i64
    %1528 = llvm.mul %4, %7 : i64
    %1529 = llvm.add %1527, %1528 : i64
    %1530 = llvm.add %1529, %3 : i64
    %1531 = llvm.getelementptr %717[%1530] : (!llvm.ptr, i64) -> !llvm.ptr, f32
    %1532 = llvm.load %1531 : !llvm.ptr -> f32
    %1533 = llvm.fmul %1403, %1172  : f32
    %1534 = llvm.fadd %1532, %1533  : f32
    %1535 = llvm.fmul %1417, %1186  : f32
    %1536 = llvm.fadd %1534, %1535  : f32
    %1537 = llvm.fmul %1425, %1194  : f32
    %1538 = llvm.fadd %1536, %1537  : f32
    %1539 = llvm.fmul %1433, %1202  : f32
    %1540 = llvm.fadd %1538, %1539  : f32
    %1541 = llvm.fmul %1441, %1210  : f32
    %1542 = llvm.fadd %1540, %1541  : f32
    %1543 = llvm.fmul %1449, %1218  : f32
    %1544 = llvm.fadd %1542, %1543  : f32
    %1545 = llvm.fmul %1457, %1226  : f32
    %1546 = llvm.fadd %1544, %1545  : f32
    %1547 = llvm.fmul %1465, %1234  : f32
    %1548 = llvm.fadd %1546, %1547  : f32
    %1549 = llvm.mul %10, %8 : i64
    %1550 = llvm.mul %4, %7 : i64
    %1551 = llvm.add %1549, %1550 : i64
    %1552 = llvm.add %1551, %3 : i64
    %1553 = llvm.getelementptr %717[%1552] : (!llvm.ptr, i64) -> !llvm.ptr, f32
    llvm.store %1548, %1553 : f32, !llvm.ptr
    %1554 = llvm.mul %10, %6 : i64
    %1555 = llvm.mul %3, %5 : i64
    %1556 = llvm.add %1554, %1555 : i64
    %1557 = llvm.add %1556, %10 : i64
    %1558 = llvm.getelementptr %11[%1557] : (!llvm.ptr, i64) -> !llvm.ptr, f32
    %1559 = llvm.load %1558 : !llvm.ptr -> f32
    %1560 = llvm.mul %10, %8 : i64
    %1561 = llvm.mul %3, %7 : i64
    %1562 = llvm.add %1560, %1561 : i64
    %1563 = llvm.add %1562, %10 : i64
    %1564 = llvm.getelementptr %717[%1563] : (!llvm.ptr, i64) -> !llvm.ptr, f32
    %1565 = llvm.load %1564 : !llvm.ptr -> f32
    %1566 = llvm.fmul %1559, %905  : f32
    %1567 = llvm.fadd %1565, %1566  : f32
    %1568 = llvm.mul %10, %6 : i64
    %1569 = llvm.mul %3, %5 : i64
    %1570 = llvm.add %1568, %1569 : i64
    %1571 = llvm.add %1570, %9 : i64
    %1572 = llvm.getelementptr %11[%1571] : (!llvm.ptr, i64) -> !llvm.ptr, f32
    %1573 = llvm.load %1572 : !llvm.ptr -> f32
    %1574 = llvm.fmul %1573, %925  : f32
    %1575 = llvm.fadd %1567, %1574  : f32
    %1576 = llvm.mul %10, %6 : i64
    %1577 = llvm.mul %3, %5 : i64
    %1578 = llvm.add %1576, %1577 : i64
    %1579 = llvm.add %1578, %4 : i64
    %1580 = llvm.getelementptr %11[%1579] : (!llvm.ptr, i64) -> !llvm.ptr, f32
    %1581 = llvm.load %1580 : !llvm.ptr -> f32
    %1582 = llvm.fmul %1581, %939  : f32
    %1583 = llvm.fadd %1575, %1582  : f32
    %1584 = llvm.mul %10, %6 : i64
    %1585 = llvm.mul %3, %5 : i64
    %1586 = llvm.add %1584, %1585 : i64
    %1587 = llvm.add %1586, %3 : i64
    %1588 = llvm.getelementptr %11[%1587] : (!llvm.ptr, i64) -> !llvm.ptr, f32
    %1589 = llvm.load %1588 : !llvm.ptr -> f32
    %1590 = llvm.fmul %1589, %953  : f32
    %1591 = llvm.fadd %1583, %1590  : f32
    %1592 = llvm.mul %10, %6 : i64
    %1593 = llvm.mul %3, %5 : i64
    %1594 = llvm.add %1592, %1593 : i64
    %1595 = llvm.add %1594, %7 : i64
    %1596 = llvm.getelementptr %11[%1595] : (!llvm.ptr, i64) -> !llvm.ptr, f32
    %1597 = llvm.load %1596 : !llvm.ptr -> f32
    %1598 = llvm.fmul %1597, %967  : f32
    %1599 = llvm.fadd %1591, %1598  : f32
    %1600 = llvm.mul %10, %6 : i64
    %1601 = llvm.mul %3, %5 : i64
    %1602 = llvm.add %1600, %1601 : i64
    %1603 = llvm.add %1602, %2 : i64
    %1604 = llvm.getelementptr %11[%1603] : (!llvm.ptr, i64) -> !llvm.ptr, f32
    %1605 = llvm.load %1604 : !llvm.ptr -> f32
    %1606 = llvm.fmul %1605, %981  : f32
    %1607 = llvm.fadd %1599, %1606  : f32
    %1608 = llvm.mul %10, %6 : i64
    %1609 = llvm.mul %3, %5 : i64
    %1610 = llvm.add %1608, %1609 : i64
    %1611 = llvm.add %1610, %1 : i64
    %1612 = llvm.getelementptr %11[%1611] : (!llvm.ptr, i64) -> !llvm.ptr, f32
    %1613 = llvm.load %1612 : !llvm.ptr -> f32
    %1614 = llvm.fmul %1613, %995  : f32
    %1615 = llvm.fadd %1607, %1614  : f32
    %1616 = llvm.mul %10, %6 : i64
    %1617 = llvm.mul %3, %5 : i64
    %1618 = llvm.add %1616, %1617 : i64
    %1619 = llvm.add %1618, %0 : i64
    %1620 = llvm.getelementptr %11[%1619] : (!llvm.ptr, i64) -> !llvm.ptr, f32
    %1621 = llvm.load %1620 : !llvm.ptr -> f32
    %1622 = llvm.fmul %1621, %1009  : f32
    %1623 = llvm.fadd %1615, %1622  : f32
    %1624 = llvm.mul %10, %8 : i64
    %1625 = llvm.mul %3, %7 : i64
    %1626 = llvm.add %1624, %1625 : i64
    %1627 = llvm.add %1626, %10 : i64
    %1628 = llvm.getelementptr %717[%1627] : (!llvm.ptr, i64) -> !llvm.ptr, f32
    llvm.store %1623, %1628 : f32, !llvm.ptr
    %1629 = llvm.mul %10, %8 : i64
    %1630 = llvm.mul %3, %7 : i64
    %1631 = llvm.add %1629, %1630 : i64
    %1632 = llvm.add %1631, %9 : i64
    %1633 = llvm.getelementptr %717[%1632] : (!llvm.ptr, i64) -> !llvm.ptr, f32
    %1634 = llvm.load %1633 : !llvm.ptr -> f32
    %1635 = llvm.fmul %1559, %1022  : f32
    %1636 = llvm.fadd %1634, %1635  : f32
    %1637 = llvm.fmul %1573, %1036  : f32
    %1638 = llvm.fadd %1636, %1637  : f32
    %1639 = llvm.fmul %1581, %1044  : f32
    %1640 = llvm.fadd %1638, %1639  : f32
    %1641 = llvm.fmul %1589, %1052  : f32
    %1642 = llvm.fadd %1640, %1641  : f32
    %1643 = llvm.fmul %1597, %1060  : f32
    %1644 = llvm.fadd %1642, %1643  : f32
    %1645 = llvm.fmul %1605, %1068  : f32
    %1646 = llvm.fadd %1644, %1645  : f32
    %1647 = llvm.fmul %1613, %1076  : f32
    %1648 = llvm.fadd %1646, %1647  : f32
    %1649 = llvm.fmul %1621, %1084  : f32
    %1650 = llvm.fadd %1648, %1649  : f32
    %1651 = llvm.mul %10, %8 : i64
    %1652 = llvm.mul %3, %7 : i64
    %1653 = llvm.add %1651, %1652 : i64
    %1654 = llvm.add %1653, %9 : i64
    %1655 = llvm.getelementptr %717[%1654] : (!llvm.ptr, i64) -> !llvm.ptr, f32
    llvm.store %1650, %1655 : f32, !llvm.ptr
    %1656 = llvm.mul %10, %8 : i64
    %1657 = llvm.mul %3, %7 : i64
    %1658 = llvm.add %1656, %1657 : i64
    %1659 = llvm.add %1658, %4 : i64
    %1660 = llvm.getelementptr %717[%1659] : (!llvm.ptr, i64) -> !llvm.ptr, f32
    %1661 = llvm.load %1660 : !llvm.ptr -> f32
    %1662 = llvm.fmul %1559, %1097  : f32
    %1663 = llvm.fadd %1661, %1662  : f32
    %1664 = llvm.fmul %1573, %1111  : f32
    %1665 = llvm.fadd %1663, %1664  : f32
    %1666 = llvm.fmul %1581, %1119  : f32
    %1667 = llvm.fadd %1665, %1666  : f32
    %1668 = llvm.fmul %1589, %1127  : f32
    %1669 = llvm.fadd %1667, %1668  : f32
    %1670 = llvm.fmul %1597, %1135  : f32
    %1671 = llvm.fadd %1669, %1670  : f32
    %1672 = llvm.fmul %1605, %1143  : f32
    %1673 = llvm.fadd %1671, %1672  : f32
    %1674 = llvm.fmul %1613, %1151  : f32
    %1675 = llvm.fadd %1673, %1674  : f32
    %1676 = llvm.fmul %1621, %1159  : f32
    %1677 = llvm.fadd %1675, %1676  : f32
    %1678 = llvm.mul %10, %8 : i64
    %1679 = llvm.mul %3, %7 : i64
    %1680 = llvm.add %1678, %1679 : i64
    %1681 = llvm.add %1680, %4 : i64
    %1682 = llvm.getelementptr %717[%1681] : (!llvm.ptr, i64) -> !llvm.ptr, f32
    llvm.store %1677, %1682 : f32, !llvm.ptr
    %1683 = llvm.mul %10, %8 : i64
    %1684 = llvm.mul %3, %7 : i64
    %1685 = llvm.add %1683, %1684 : i64
    %1686 = llvm.add %1685, %3 : i64
    %1687 = llvm.getelementptr %717[%1686] : (!llvm.ptr, i64) -> !llvm.ptr, f32
    %1688 = llvm.load %1687 : !llvm.ptr -> f32
    %1689 = llvm.fmul %1559, %1172  : f32
    %1690 = llvm.fadd %1688, %1689  : f32
    %1691 = llvm.fmul %1573, %1186  : f32
    %1692 = llvm.fadd %1690, %1691  : f32
    %1693 = llvm.fmul %1581, %1194  : f32
    %1694 = llvm.fadd %1692, %1693  : f32
    %1695 = llvm.fmul %1589, %1202  : f32
    %1696 = llvm.fadd %1694, %1695  : f32
    %1697 = llvm.fmul %1597, %1210  : f32
    %1698 = llvm.fadd %1696, %1697  : f32
    %1699 = llvm.fmul %1605, %1218  : f32
    %1700 = llvm.fadd %1698, %1699  : f32
    %1701 = llvm.fmul %1613, %1226  : f32
    %1702 = llvm.fadd %1700, %1701  : f32
    %1703 = llvm.fmul %1621, %1234  : f32
    %1704 = llvm.fadd %1702, %1703  : f32
    %1705 = llvm.mul %10, %8 : i64
    %1706 = llvm.mul %3, %7 : i64
    %1707 = llvm.add %1705, %1706 : i64
    %1708 = llvm.add %1707, %3 : i64
    %1709 = llvm.getelementptr %717[%1708] : (!llvm.ptr, i64) -> !llvm.ptr, f32
    llvm.store %1704, %1709 : f32, !llvm.ptr
    %1710 = llvm.mul %10, %8 : i64
    %1711 = llvm.mul %10, %7 : i64
    %1712 = llvm.add %1710, %1711 : i64
    %1713 = llvm.add %1712, %10 : i64
    %1714 = llvm.getelementptr %717[%1713] : (!llvm.ptr, i64) -> !llvm.ptr, f32
    %1715 = llvm.load %1714 : !llvm.ptr -> f32
    %1716 = llvm.mul %10, %8 : i64
    %1717 = llvm.mul %10, %7 : i64
    %1718 = llvm.add %1716, %1717 : i64
    %1719 = llvm.add %1718, %10 : i64
    %1720 = llvm.getelementptr %arg2[%1719] : (!llvm.ptr, i64) -> !llvm.ptr, f32
    llvm.store %1715, %1720 : f32, !llvm.ptr
    %1721 = llvm.mul %10, %8 : i64
    %1722 = llvm.mul %10, %7 : i64
    %1723 = llvm.add %1721, %1722 : i64
    %1724 = llvm.add %1723, %9 : i64
    %1725 = llvm.getelementptr %717[%1724] : (!llvm.ptr, i64) -> !llvm.ptr, f32
    %1726 = llvm.load %1725 : !llvm.ptr -> f32
    %1727 = llvm.mul %10, %8 : i64
    %1728 = llvm.mul %10, %7 : i64
    %1729 = llvm.add %1727, %1728 : i64
    %1730 = llvm.add %1729, %9 : i64
    %1731 = llvm.getelementptr %arg2[%1730] : (!llvm.ptr, i64) -> !llvm.ptr, f32
    llvm.store %1726, %1731 : f32, !llvm.ptr
    %1732 = llvm.mul %10, %8 : i64
    %1733 = llvm.mul %10, %7 : i64
    %1734 = llvm.add %1732, %1733 : i64
    %1735 = llvm.add %1734, %4 : i64
    %1736 = llvm.getelementptr %717[%1735] : (!llvm.ptr, i64) -> !llvm.ptr, f32
    %1737 = llvm.load %1736 : !llvm.ptr -> f32
    %1738 = llvm.mul %10, %8 : i64
    %1739 = llvm.mul %10, %7 : i64
    %1740 = llvm.add %1738, %1739 : i64
    %1741 = llvm.add %1740, %4 : i64
    %1742 = llvm.getelementptr %arg2[%1741] : (!llvm.ptr, i64) -> !llvm.ptr, f32
    llvm.store %1737, %1742 : f32, !llvm.ptr
    %1743 = llvm.mul %10, %8 : i64
    %1744 = llvm.mul %10, %7 : i64
    %1745 = llvm.add %1743, %1744 : i64
    %1746 = llvm.add %1745, %3 : i64
    %1747 = llvm.getelementptr %717[%1746] : (!llvm.ptr, i64) -> !llvm.ptr, f32
    %1748 = llvm.load %1747 : !llvm.ptr -> f32
    %1749 = llvm.mul %10, %8 : i64
    %1750 = llvm.mul %10, %7 : i64
    %1751 = llvm.add %1749, %1750 : i64
    %1752 = llvm.add %1751, %3 : i64
    %1753 = llvm.getelementptr %arg2[%1752] : (!llvm.ptr, i64) -> !llvm.ptr, f32
    llvm.store %1748, %1753 : f32, !llvm.ptr
    %1754 = llvm.mul %10, %8 : i64
    %1755 = llvm.mul %9, %7 : i64
    %1756 = llvm.add %1754, %1755 : i64
    %1757 = llvm.add %1756, %10 : i64
    %1758 = llvm.getelementptr %717[%1757] : (!llvm.ptr, i64) -> !llvm.ptr, f32
    %1759 = llvm.load %1758 : !llvm.ptr -> f32
    %1760 = llvm.mul %10, %8 : i64
    %1761 = llvm.mul %9, %7 : i64
    %1762 = llvm.add %1760, %1761 : i64
    %1763 = llvm.add %1762, %10 : i64
    %1764 = llvm.getelementptr %arg2[%1763] : (!llvm.ptr, i64) -> !llvm.ptr, f32
    llvm.store %1759, %1764 : f32, !llvm.ptr
    %1765 = llvm.mul %10, %8 : i64
    %1766 = llvm.mul %9, %7 : i64
    %1767 = llvm.add %1765, %1766 : i64
    %1768 = llvm.add %1767, %9 : i64
    %1769 = llvm.getelementptr %717[%1768] : (!llvm.ptr, i64) -> !llvm.ptr, f32
    %1770 = llvm.load %1769 : !llvm.ptr -> f32
    %1771 = llvm.mul %10, %8 : i64
    %1772 = llvm.mul %9, %7 : i64
    %1773 = llvm.add %1771, %1772 : i64
    %1774 = llvm.add %1773, %9 : i64
    %1775 = llvm.getelementptr %arg2[%1774] : (!llvm.ptr, i64) -> !llvm.ptr, f32
    llvm.store %1770, %1775 : f32, !llvm.ptr
    %1776 = llvm.mul %10, %8 : i64
    %1777 = llvm.mul %9, %7 : i64
    %1778 = llvm.add %1776, %1777 : i64
    %1779 = llvm.add %1778, %4 : i64
    %1780 = llvm.getelementptr %717[%1779] : (!llvm.ptr, i64) -> !llvm.ptr, f32
    %1781 = llvm.load %1780 : !llvm.ptr -> f32
    %1782 = llvm.mul %10, %8 : i64
    %1783 = llvm.mul %9, %7 : i64
    %1784 = llvm.add %1782, %1783 : i64
    %1785 = llvm.add %1784, %4 : i64
    %1786 = llvm.getelementptr %arg2[%1785] : (!llvm.ptr, i64) -> !llvm.ptr, f32
    llvm.store %1781, %1786 : f32, !llvm.ptr
    %1787 = llvm.mul %10, %8 : i64
    %1788 = llvm.mul %9, %7 : i64
    %1789 = llvm.add %1787, %1788 : i64
    %1790 = llvm.add %1789, %3 : i64
    %1791 = llvm.getelementptr %717[%1790] : (!llvm.ptr, i64) -> !llvm.ptr, f32
    %1792 = llvm.load %1791 : !llvm.ptr -> f32
    %1793 = llvm.mul %10, %8 : i64
    %1794 = llvm.mul %9, %7 : i64
    %1795 = llvm.add %1793, %1794 : i64
    %1796 = llvm.add %1795, %3 : i64
    %1797 = llvm.getelementptr %arg2[%1796] : (!llvm.ptr, i64) -> !llvm.ptr, f32
    llvm.store %1792, %1797 : f32, !llvm.ptr
    %1798 = llvm.mul %10, %8 : i64
    %1799 = llvm.mul %4, %7 : i64
    %1800 = llvm.add %1798, %1799 : i64
    %1801 = llvm.add %1800, %10 : i64
    %1802 = llvm.getelementptr %717[%1801] : (!llvm.ptr, i64) -> !llvm.ptr, f32
    %1803 = llvm.load %1802 : !llvm.ptr -> f32
    %1804 = llvm.mul %10, %8 : i64
    %1805 = llvm.mul %4, %7 : i64
    %1806 = llvm.add %1804, %1805 : i64
    %1807 = llvm.add %1806, %10 : i64
    %1808 = llvm.getelementptr %arg2[%1807] : (!llvm.ptr, i64) -> !llvm.ptr, f32
    llvm.store %1803, %1808 : f32, !llvm.ptr
    %1809 = llvm.mul %10, %8 : i64
    %1810 = llvm.mul %4, %7 : i64
    %1811 = llvm.add %1809, %1810 : i64
    %1812 = llvm.add %1811, %9 : i64
    %1813 = llvm.getelementptr %717[%1812] : (!llvm.ptr, i64) -> !llvm.ptr, f32
    %1814 = llvm.load %1813 : !llvm.ptr -> f32
    %1815 = llvm.mul %10, %8 : i64
    %1816 = llvm.mul %4, %7 : i64
    %1817 = llvm.add %1815, %1816 : i64
    %1818 = llvm.add %1817, %9 : i64
    %1819 = llvm.getelementptr %arg2[%1818] : (!llvm.ptr, i64) -> !llvm.ptr, f32
    llvm.store %1814, %1819 : f32, !llvm.ptr
    %1820 = llvm.mul %10, %8 : i64
    %1821 = llvm.mul %4, %7 : i64
    %1822 = llvm.add %1820, %1821 : i64
    %1823 = llvm.add %1822, %4 : i64
    %1824 = llvm.getelementptr %717[%1823] : (!llvm.ptr, i64) -> !llvm.ptr, f32
    %1825 = llvm.load %1824 : !llvm.ptr -> f32
    %1826 = llvm.mul %10, %8 : i64
    %1827 = llvm.mul %4, %7 : i64
    %1828 = llvm.add %1826, %1827 : i64
    %1829 = llvm.add %1828, %4 : i64
    %1830 = llvm.getelementptr %arg2[%1829] : (!llvm.ptr, i64) -> !llvm.ptr, f32
    llvm.store %1825, %1830 : f32, !llvm.ptr
    %1831 = llvm.mul %10, %8 : i64
    %1832 = llvm.mul %4, %7 : i64
    %1833 = llvm.add %1831, %1832 : i64
    %1834 = llvm.add %1833, %3 : i64
    %1835 = llvm.getelementptr %717[%1834] : (!llvm.ptr, i64) -> !llvm.ptr, f32
    %1836 = llvm.load %1835 : !llvm.ptr -> f32
    %1837 = llvm.mul %10, %8 : i64
    %1838 = llvm.mul %4, %7 : i64
    %1839 = llvm.add %1837, %1838 : i64
    %1840 = llvm.add %1839, %3 : i64
    %1841 = llvm.getelementptr %arg2[%1840] : (!llvm.ptr, i64) -> !llvm.ptr, f32
    llvm.store %1836, %1841 : f32, !llvm.ptr
    %1842 = llvm.mul %10, %8 : i64
    %1843 = llvm.mul %3, %7 : i64
    %1844 = llvm.add %1842, %1843 : i64
    %1845 = llvm.add %1844, %10 : i64
    %1846 = llvm.getelementptr %717[%1845] : (!llvm.ptr, i64) -> !llvm.ptr, f32
    %1847 = llvm.load %1846 : !llvm.ptr -> f32
    %1848 = llvm.mul %10, %8 : i64
    %1849 = llvm.mul %3, %7 : i64
    %1850 = llvm.add %1848, %1849 : i64
    %1851 = llvm.add %1850, %10 : i64
    %1852 = llvm.getelementptr %arg2[%1851] : (!llvm.ptr, i64) -> !llvm.ptr, f32
    llvm.store %1847, %1852 : f32, !llvm.ptr
    %1853 = llvm.mul %10, %8 : i64
    %1854 = llvm.mul %3, %7 : i64
    %1855 = llvm.add %1853, %1854 : i64
    %1856 = llvm.add %1855, %9 : i64
    %1857 = llvm.getelementptr %717[%1856] : (!llvm.ptr, i64) -> !llvm.ptr, f32
    %1858 = llvm.load %1857 : !llvm.ptr -> f32
    %1859 = llvm.mul %10, %8 : i64
    %1860 = llvm.mul %3, %7 : i64
    %1861 = llvm.add %1859, %1860 : i64
    %1862 = llvm.add %1861, %9 : i64
    %1863 = llvm.getelementptr %arg2[%1862] : (!llvm.ptr, i64) -> !llvm.ptr, f32
    llvm.store %1858, %1863 : f32, !llvm.ptr
    %1864 = llvm.mul %10, %8 : i64
    %1865 = llvm.mul %3, %7 : i64
    %1866 = llvm.add %1864, %1865 : i64
    %1867 = llvm.add %1866, %4 : i64
    %1868 = llvm.getelementptr %717[%1867] : (!llvm.ptr, i64) -> !llvm.ptr, f32
    %1869 = llvm.load %1868 : !llvm.ptr -> f32
    %1870 = llvm.mul %10, %8 : i64
    %1871 = llvm.mul %3, %7 : i64
    %1872 = llvm.add %1870, %1871 : i64
    %1873 = llvm.add %1872, %4 : i64
    %1874 = llvm.getelementptr %arg2[%1873] : (!llvm.ptr, i64) -> !llvm.ptr, f32
    llvm.store %1869, %1874 : f32, !llvm.ptr
    %1875 = llvm.mul %10, %8 : i64
    %1876 = llvm.mul %3, %7 : i64
    %1877 = llvm.add %1875, %1876 : i64
    %1878 = llvm.add %1877, %3 : i64
    %1879 = llvm.getelementptr %717[%1878] : (!llvm.ptr, i64) -> !llvm.ptr, f32
    %1880 = llvm.load %1879 : !llvm.ptr -> f32
    %1881 = llvm.mul %10, %8 : i64
    %1882 = llvm.mul %3, %7 : i64
    %1883 = llvm.add %1881, %1882 : i64
    %1884 = llvm.add %1883, %3 : i64
    %1885 = llvm.getelementptr %arg2[%1884] : (!llvm.ptr, i64) -> !llvm.ptr, f32
    llvm.store %1880, %1885 : f32, !llvm.ptr
    llvm.return
  }
}


