module attributes {tf.versions = {bad_consumers = [], min_consumer = 0 : i32, producer = 1882 : i32}} {
  func.func @main(%arg0: tensor<4x32x32x1xf32>) -> tensor<*xf32> attributes {tf.entry_function = {control_outputs = "", inputs = "x1", outputs = "Identity"}} {
    %0 = tf_executor.graph {
      %outputs, %control = tf_executor.island wraps "tf.Const"() <{value = dense<0.000000e+00> : tensor<1xf32>}> {device = ""} : () -> tensor<1xf32>
      %outputs_0, %control_1 = tf_executor.island wraps "tf.Identity"(%outputs) {_has_manual_control_dependencies = true, device = ""} : (tensor<1xf32>) -> tensor<*xf32>
      %outputs_2, %control_3 = tf_executor.island wraps "tf.Const"() <{value = dense<1> : tensor<4xi32>}> {device = ""} : () -> tensor<4xi32>
      %outputs_4, %control_5 = tf_executor.island wraps "tf.Reshape"(%outputs_0, %outputs_2) {device = ""} : (tensor<*xf32>, tensor<4xi32>) -> tensor<*xf32>
      %outputs_6, %control_7 = tf_executor.island wraps "tf.Const"() <{value = dense<[[[[… > : tensor<5x5x1x1xf32>}> {device = ""} : () -> tensor<5x5x1x1xf32>
      %outputs_8, %control_9 = tf_executor.island wraps "tf.Identity"(%outputs_6) {_has_manual_control_dependencies = true, device = ""} : (tensor<5x5x1x1xf32>) -> tensor<*xf32>
      %outputs_10, %control_11 = tf_executor.island wraps "tf.Const"() <{value = dense<0.000000e+00> : tensor<8xf32>}> {device = ""} : () -> tensor<8xf32>
      %outputs_12, %control_13 = tf_executor.island wraps "tf.Identity"(%outputs_10) {_has_manual_control_dependencies = true, device = ""} : (tensor<8xf32>) -> tensor<*xf32>
      %outputs_14, %control_15 = tf_executor.island wraps "tf.Const"() <{value = dense<"…"> : tensor<256x8xf32>}> {device = ""} : () -> tensor<256x8xf32>
      %outputs_16, %control_17 = tf_executor.island wraps "tf.Identity"(%outputs_14) {_has_manual_control_dependencies = true, device = ""} : (tensor<256x8xf32>) -> tensor<*xf32>
      %outputs_18, %control_19 = tf_executor.island wraps "tf.Const"() <{value = dense<0.000000e+00> : tensor<4xf32>}> {device = ""} : () -> tensor<4xf32>
      %outputs_20, %control_21 = tf_executor.island wraps "tf.Identity"(%outputs_18) {_has_manual_control_dependencies = true, device = ""} : (tensor<4xf32>) -> tensor<*xf32>
      %outputs_22, %control_23 = tf_executor.island wraps "tf.Const"() <{value = dense<[[… > : tensor<8x4xf32>}> {device = ""} : () -> tensor<8x4xf32>
      %outputs_24, %control_25 = tf_executor.island wraps "tf.Identity"(%outputs_22) {_has_manual_control_dependencies = true, device = ""} : (tensor<8x4xf32>) -> tensor<*xf32>
      %outputs_26, %control_27 = tf_executor.island wraps "tf.Const"() <{value = dense<0.000000e+00> : tensor<2xf32>}> {device = ""} : () -> tensor<2xf32>
      %outputs_28, %control_29 = tf_executor.island wraps "tf.Identity"(%outputs_26) {_has_manual_control_dependencies = true, device = ""} : (tensor<2xf32>) -> tensor<*xf32>
      %outputs_30, %control_31 = tf_executor.island wraps "tf.Const"() <{value = dense<[[-0.980995178, -0.838457584], [0.45938921, 0.0730445384], [-0.741803885, 0.636193752], [0.272650242, 0.155854464]]> : tensor<4x2xf32>}> {device = ""} : () -> tensor<4x2xf32>
      %outputs_32, %control_33 = tf_executor.island wraps "tf.Identity"(%outputs_30) {_has_manual_control_dependencies = true, device = ""} : (tensor<4x2xf32>) -> tensor<*xf32>
      %control_34 = tf_executor.island(%control_9, %control_1, %control_17, %control_13, %control_25, %control_21, %control_33, %control_29) wraps "tf.NoOp"() {_has_manual_control_dependencies = true, device = ""} : () -> ()
      %outputs_35, %control_36 = tf_executor.island wraps "tf.Const"() <{value = dense<[-1, 256]> : tensor<2xi32>}> {device = ""} : () -> tensor<2xi32>
      %outputs_37, %control_38 = tf_executor.island wraps "tf.Conv2D"(%arg0, %outputs_8) <{data_format = "NHWC", dilations = [1, 1, 1, 1], explicit_paddings = [], padding = "SAME", strides = [1, 2, 2, 1], use_cudnn_on_gpu = true}> {device = ""} : (tensor<4x32x32x1xf32>, tensor<*xf32>) -> tensor<*xf32>
      %outputs_39, %control_40 = tf_executor.island wraps "tf.AddV2"(%outputs_37, %outputs_4) {device = ""} : (tensor<*xf32>, tensor<*xf32>) -> tensor<*xf32>
      %outputs_41, %control_42 = tf_executor.island wraps "tf.Relu"(%outputs_39) {device = ""} : (tensor<*xf32>) -> tensor<*xf32>
      %outputs_43, %control_44 = tf_executor.island wraps "tf.Reshape"(%outputs_41, %outputs_35) {device = ""} : (tensor<*xf32>, tensor<2xi32>) -> tensor<*xf32>
      %outputs_45, %control_46 = tf_executor.island wraps "tf.MatMul"(%outputs_43, %outputs_16) <{grad_a = false, grad_b = false, transpose_a = false, transpose_b = false}> {device = ""} : (tensor<*xf32>, tensor<*xf32>) -> tensor<*xf32>
      %outputs_47, %control_48 = tf_executor.island wraps "tf.BiasAdd"(%outputs_45, %outputs_12) <{data_format = "NHWC"}> {device = ""} : (tensor<*xf32>, tensor<*xf32>) -> tensor<*xf32>
      %outputs_49, %control_50 = tf_executor.island wraps "tf.Relu"(%outputs_47) {device = ""} : (tensor<*xf32>) -> tensor<*xf32>
      %outputs_51, %control_52 = tf_executor.island wraps "tf.MatMul"(%outputs_49, %outputs_24) <{grad_a = false, grad_b = false, transpose_a = false, transpose_b = false}> {device = ""} : (tensor<*xf32>, tensor<*xf32>) -> tensor<*xf32>
      %outputs_53, %control_54 = tf_executor.island wraps "tf.BiasAdd"(%outputs_51, %outputs_20) <{data_format = "NHWC"}> {device = ""} : (tensor<*xf32>, tensor<*xf32>) -> tensor<*xf32>
      %outputs_55, %control_56 = tf_executor.island wraps "tf.Relu"(%outputs_53) {device = ""} : (tensor<*xf32>) -> tensor<*xf32>
      %outputs_57, %control_58 = tf_executor.island wraps "tf.MatMul"(%outputs_55, %outputs_32) <{grad_a = false, grad_b = false, transpose_a = false, transpose_b = false}> {device = ""} : (tensor<*xf32>, tensor<*xf32>) -> tensor<*xf32>
      %outputs_59, %control_60 = tf_executor.island wraps "tf.BiasAdd"(%outputs_57, %outputs_28) <{data_format = "NHWC"}> {device = ""} : (tensor<*xf32>, tensor<*xf32>) -> tensor<*xf32>
      %outputs_61, %control_62 = tf_executor.island wraps "tf.Softmax"(%outputs_59) {device = ""} : (tensor<*xf32>) -> tensor<*xf32>
      %outputs_63, %control_64 = tf_executor.island(%control_34) wraps "tf.Identity"(%outputs_61) {device = ""} : (tensor<*xf32>) -> tensor<*xf32>
      tf_executor.fetch %outputs_63 : tensor<*xf32>
    }
    return %0 : tensor<*xf32>
  }
}
